models/3rd_GRU_100_dim_1_layer_att_0.1_drop5_encoder.pt (torch_old, 249346 bytes, 5 tensors)

embedding.weight f4 [15, 100]
000000 08 1e 2a 3f 1a 30 37 bf 9f 90 fa be 43 5a 4e be
       0.66452074 -0.7155777 -0.48938462 -0.2015162
000010 cd c3 e4 3e e4 ba 87 be a2 4a 03 be e5 c4 2d 40
       0.44680634 -0.26509774 -0.12821439 2.7151425
000020 f9 8f 8b bf a9 bd fc 3b 64 e6 b2 3f 8e c3 36 bf
       -1.0903312 0.007713039 1.397656 -0.7139214
000030 21 64 18 3e 5d f2 0d 40 54 73 a3 3d 03 7f 3c 3f
       0.14881946 2.2179177 0.079809815 0.73631305
000040 42 d6 3b bf fe 4d 31 bf ab f9 1b bf 6d c7 50 bf
       -0.73373806 -0.6925963 -0.6092784 -0.815543
000050 f8 0d 0f 3f e6 73 1b bf bd 24 86 3f 37 d0 f2 bf
       0.5588069 -0.6072372 1.0479962 -1.8969792
000060 be de 31 3f c6 8a 91 3e e8 61 0d bf 48 6f 0b 40
       0.694805 0.28426188 -0.5522752 2.178667
000070 3e c6 1a be 5a 40 2e bf 44 2f da bf f8 ec 63 3f
       -0.15114686 -0.6806694 -1.7045674 0.8903346
000080 39 bf 00 3f 19 ee bd 3e 2f 4c bd 3f 08 5d 3e bf
       0.5029178 0.37095717 1.4788874 -0.74360704
000090 02 cb 91 3f 82 b1 70 3f 45 09 b7 3f 85 34 bd 3f
       1.1390078 0.94020855 1.4299704 1.4781653
0000a0 31 70 39 3d 5a e9 4c bf b7 37 93 bf 7e bc ab 3e
       0.04527301 -0.80043566 -1.1501378 0.33542246
0000b0 9e 2c 4e 3f bb f7 97 bf 43 6c cb 3e ff 09 94 be
       0.8053683 -1.1872476 0.39731035 -0.28913876
0000c0 37 7f cf be fc 71 b1 bf f8 35 8e be e5 a0 f5 be
       -0.40526745 -1.386291 -0.2777555 -0.47974315
0000d0 07 f2 ca 3e 2c 7f b7 be 2a 2b 5d 3f 88 8f 4a 3f
       0.39637777 -0.35839212 0.8639399 0.7912526
0000e0 ce 05 0f c0 d4 d9 ac 3f a8 24 9a 3e 8f cc 88 be
       -2.2347293 1.3503976 0.30106091 -0.26718566
0000f0 45 2a b4 bf e2 ff 35 be 16 47 68 bf 6c 73 67 bf
       -1.40754 -0.17773393 -0.9073347 -0.90410495
000100 36 88 aa 3e a0 43 5f be c7 ff 97 bf 3d 0a c4 3f
       0.33307046 -0.2180314 -1.1874932 1.5315624
000110 f7 0b 3a 3f 5a bb 60 3e 99 5a 17 bf 58 38 72 3f
       0.72674507 0.21946469 -0.59122616 0.94617224
000120 65 9a 8f bf f2 98 7d bf 93 45 ae bf 16 b9 a9 3d
       -1.1218992 -0.990615 -1.3614982 0.082872555
000130 aa 21 f2 3e 17 e8 93 3e 19 2d 96 3f bf a3 2a 3f
       0.4729131 0.28888008 1.1732513 0.66656107
000140 91 75 da bf 10 0f 5c 3f b7 0d b4 be 10 fa 6f bf
       -1.7067128 0.85960484 -0.35166714 -0.9374094
000150 17 5a 23 3f ea fe a9 bb 0f db 15 c0 6d 67 80 be
       0.6380934 -0.005187859 -2.3414953 -0.25078908
000160 16 39 80 bf 62 b4 95 bf 7c 65 c8 bc be f5 8a be
       -1.0017421 -1.1695673 -0.024462454 -0.2714061
000170 87 ad ad 3e 25 71 4d bf 7e b6 ef 3d 61 fc 48 bf
       0.33921453 -0.8025077 0.117047295 -0.785101
000180 d1 a8 3d bd 8f 58 44 bf f2 f1 85 be a6 66 b6 3f
       -0.046303574 -0.7669763 -0.26161152 1.4250076
000190 0f 7e 2e 3f f3 71 2f c0 5d 27 12 3e f3 62 73 bf
       0.681611 -2.74133 0.14272828 -0.9507286
0001a0 49 01 28 bf be 2f 55 3f ba 63 3e 40 cd 4a d8 be
       -0.6562696 0.83275974 2.9748368 -0.42244568
0001b0 fb a7 2d 40 5b 1c c0 bf 0e 04 f3 3e a4 2f b5 bf
       2.7133777 -1.5008653 0.4746403 -1.4155164
0001c0 d9 cf f0 bc ae db 79 bf 26 a5 cb bf e2 da bb bf
       -0.029395984 -0.9760083 -1.5909774 -1.4676173
0001d0 a1 2a ed bf 2f e5 89 3f ee 46 35 bf 0e 4c e8 3f
       -1.8528634 1.0773066 -0.70811355 1.814821
0001e0 3e 0c 0f bd 47 79 03 3f 9e bd 87 bf 25 aa 8f 3f
       -0.034923784 0.5135693 -1.0604742 1.1223799
0001f0 a9 b5 e1 be 45 c1 19 bf e0 eb 9a 3e 27 bd 16 bf
       -0.44083908 -0.6006053 0.30258083 -0.58882374
000200 45 a8 c4 be cb d7 76 3f 5f 9c a3 3f 3d 26 29 3f
       -0.3840963 0.96423024 1.2782096 0.6607397
000210 12 a2 ab bf 0e 27 b0 bd 5c 67 4c bf fa 1d da 3f
       -1.3408835 -0.08601199 -0.79845214 1.7040398
000220 14 da 9c bf 9d 63 ac bd 16 7a 42 bf 47 04 d8 bf
       -1.2254052 -0.08417437 -0.7596754 -1.6876305
000230 1e 9f 6e 3e 73 65 09 40 00 18 61 3f 3d 78 e8 3c
       0.23302886 2.146817 0.87927246 0.028377647
000240 b2 89 be be 86 1f 84 3f a5 cd 62 3e 81 5b 30 bf
       -0.37214428 1.032212 0.2214876 -0.68889624
000250 ce 20 70 bf f2 54 ba 3f 3b be 18 bf ce 09 05 c0
       -0.93800056 1.4557173 -0.5966527 -2.0787234
000260 b4 5d 5d bf 8a 37 3a 3f 8b 9d 8b be e7 b8 cb 3e
       -0.86471105 0.72740996 -0.27268633 0.39789507
000270 09 e6 68 bf 67 74 1d 3f d5 60 27 be 7c fc 92 be
       -0.90976006 0.6150574 -0.16345532 -0.28708255
000280 ac e4 51 3e a2 a4 b5 3e 6c ba 2e 3f 15 00 73 bf
       0.20497388 0.35477167 0.6825321 -0.94922
000290 ed f2 0b 3f ee 03 ba be 75 f5 3f 3e 05 c4 c5 3e
       0.5466755 -0.36331123 0.18745978 0.38626114
0002a0 b4 aa be bf c9 e1 0e bf 4c 2a 07 be db a7 7e bf
       -1.4895844 -0.5581327 -0.13199729 -0.9947488
0002b0 93 f8 96 3e 81 d2 5f 3f 46 ba a7 3f d5 a8 a6 3d
       0.29486522 0.8743058 1.3103721 0.08137671
0002c0 1f fc 54 3e 37 68 53 3f db bf de 3e 8f e7 f7 bf
       0.20799302 0.82580894 0.4350575 -1.9367541
0002d0 64 a4 f8 3f 2b 8f 7f 3c 34 9c 3d 3e ca 31 ab 3f
       1.9425168 0.015598099 0.18516618 1.337457
0002e0 a7 8a 64 be 3e 63 d3 bf bc ea 16 3f c5 4a 15 bf
       -0.22318517 -1.6514661 0.58951926 -0.58317214
0002f0 6c 9b 0b be 0c a6 4b 3f b2 c0 a3 bd 5a 17 87 3d
       -0.13633507 0.7955024 -0.07995738 0.06596251
000300 32 d1 7f bf c9 f1 0a 3f 11 9f 15 bf 4c a5 ea bf
       -0.9992858 0.54275185 -0.5844584 -1.8331695
000310 76 78 0b 40 96 c6 80 3f b4 f3 ee 3e 68 f9 56 3d
       2.1792274 1.0060604 0.46670306 0.052483946
000320 18 97 91 3f 1a ed c1 3f f0 5b 96 bf ff 5f 93 3f
       1.1374235 1.5150483 -1.1746807 1.1513671
000330 ab 49 dd be 33 30 1b bd c8 c1 54 c0 e3 ca 40 bf
       -0.43220267 -0.037887763 -3.3243275 -0.7530958
000340 78 e4 8f be f7 f4 cc be 4d c7 f4 bf 2d f6 52 40
       -0.28103995 -0.40030643 -1.9123322 3.2962754
000350 51 c5 90 3f c3 be 02 40 52 c3 8f 3f 3f 61 10 bf
       1.1310216 2.0428932 1.1231482 -0.56398386
000360 f2 41 8e 3f ef a6 08 40 15 c1 af 3e 75 0f be bf
       1.1113875 2.1351888 0.34326997 -1.4848467
000370 09 a6 c2 be 24 0e f1 bf b7 90 11 3f 3c 97 ef bf
       -0.380173 -1.883244 0.5686144 -1.8718028
000380 a9 82 3b 3f 81 70 58 bf 33 4b 62 be 0f d6 8c 3f
       0.73246247 -0.8454667 -0.22098999 1.1002825
000390 b1 a2 ea 3f 3d 64 a7 bf 30 ef 14 bf de eb 05 c0
       1.83309 -1.3077465 -0.5817747 -2.0925212
0003a0 36 8e ce bf 74 9a af bf 29 f0 81 bf 3a f9 6a bf
       -1.6137149 -1.371901 -1.0151416 -0.9178654
0003b0 9d 97 8e bf 0d c3 1d c0 af e9 a7 3f a0 00 62 3f
       -1.1140019 -2.46503 1.311819 0.88282204
0003c0 76 98 08 c0 c9 51 04 3f 77 1c ea bd d2 a0 ec bf
       -2.1343055 0.51687294 -0.114312105 -1.8486578
0003d0 53 b5 73 bf 6f b7 3a c0 3c 3a 8e 3e db d4 bd bd
       -0.95198554 -2.917446 0.27778804 -0.092691146
0003e0 f9 74 1a 3f d2 55 60 bf 36 4d e4 3f 07 84 1e 3f
       0.60334736 -0.8763095 1.7836063 0.6192021
0003f0 79 8c a1 bf ba a6 8f 3f fc a9 92 3f 2a 93 09 c0
       -1.2620994 1.1222756 1.1458125 -2.1496072

hidden_layer.weight_ih_l0 f4 [300, 100]
000000 c5 ae 30 be 83 e8 90 bc fa d1 42 3e f6 b0 41 be
       -0.1725417 -0.017688995 0.19025412 -0.18915161
000010 b6 77 8a be b7 f1 1a 3e 00 7a a1 be 28 c8 db bd
       -0.27044457 0.1513127 -0.3153839 -0.10731536
000020 94 c6 8d 3e 14 d0 da ba ce e1 a3 3d 9c 57 a2 3e
       0.27690566 -0.0016694092 0.08002053 0.31707466
000030 37 4d 93 bd 2d 18 2d be 55 ab 4d bd 10 72 88 be
       -0.07192462 -0.16903754 -0.050212223 -0.26649523
000040 e2 e8 c3 3e f4 97 82 3d 17 9f 56 3e b2 99 69 3d
       0.38263613 0.06376639 0.20959125 0.05703134
000050 69 d6 6b be c1 1b 16 3e 0d 24 c9 bd 58 1f aa be
       -0.2303101 0.14659025 -0.09821329 -0.33227038
000060 b6 55 c4 3e 5e f1 d4 bd 0f 81 02 3d f6 7f 60 3d
       0.38346642 -0.103976 0.03186136 0.054809533
000070 0a d9 a1 3d 2a d3 58 be 0f 5d d5 3d 3e 65 0d be
       0.07902725 -0.21174303 0.1041814 -0.13808152
000080 d0 32 f0 3d 2e 31 f1 3a f3 1b c7 3d a1 83 34 bf
       0.11728442 0.0018401498 0.09722128 -0.7051335
000090 c8 04 08 be 5b 63 c5 3e 8e cd 68 3d 7f 81 7d 3e
       -0.13283074 0.38552365 0.056836657 0.2475643
0000a0 10 81 92 be 6c 2e 07 bd 9f e5 92 3e c6 46 95 3e
       -0.28614092 -0.033003256 0.28690812 0.29155558
0000b0 cb 20 90 3d 25 12 17 be d8 e1 14 be 7d 2c 9e be
       0.07037505 -0.14753015 -0.14539278 -0.30893317
0000c0 57 c0 36 3e df 6c 8a 3e f5 23 2f 3e 16 3f 8d 3e
       0.1784681 0.27036187 0.1710356 0.27587193
0000d0 b7 db d5 3b c7 9b 2f be 76 82 e9 be 73 9e 65 ba
       0.006526436 -0.17149268 -0.45607346 -0.00087592675
0000e0 fe 62 31 3e 7f 5b 3f bd cd 0f 28 3e 46 b7 c3 3e
       0.17322919 -0.046718117 0.16412278 0.38225764
0000f0 20 0a b3 be 61 8f 1d 3e 5c 26 16 3e c9 43 86 be
       -0.34968662 0.15386726 0.1466307 -0.2622359
000100 07 43 df be 46 54 94 bd aa 2e c9 3d 63 b3 ee bd
       -0.43605825 -0.072426364 0.098233536 -0.11655309
000110 01 c5 1e be 95 1b d0 bc 5e 09 96 3e 2e 11 03 3e
       -0.15504839 -0.025403777 0.29304022 0.12799522
000120 03 5a 69 3d 45 33 a4 3c 4c 4c b4 bd 7a ab 37 3d
       0.056970607 0.020043978 -0.08803615 0.044841267
000130 8e 31 52 be f3 7c 97 3d 2a 50 8f 3e bb e3 dc 3e
       -0.20526716 0.07396879 0.27990848 0.43142495
000140 93 63 22 bf 70 25 90 3e b4 09 0f be fd 7c 06 bf
       -0.6343319 0.28153563 -0.13968545 -0.52534467
000150 67 b6 9f 3e 47 91 0e be 16 64 10 3e 40 f5 4d 3e
       0.3119385 -0.13922606 0.1410068 0.20113087
000160 73 6c a3 3e 7d 2b 20 3e bb d0 83 3a fb 53 1d bd
       0.31918678 0.1564159 0.0010056713 -0.03841017
000170 81 1c 72 be 18 d6 2e 3e 18 e1 32 3e fb 10 f1 3e
       -0.23643686 0.17073858 0.17468679 0.47083268
000180 5c 9b b5 be 51 29 c3 bd 3c bc 7c bb ba 14 38 be
       -0.35470092 -0.09529365 -0.0038564345 -0.17976657
000190 ce 69 d4 bd c0 5d 74 be f0 b5 32 3e 1e 3c 3f be
       -0.10371743 -0.23863888 0.17452216 -0.18675277
0001a0 0a 42 92 bd d9 f4 2a 3e 2b 62 86 3e ee 4b 2f bc
       -0.07141502 0.16694964 0.2624677 -0.010699255
0001b0 06 bf 62 3e b3 1b 0d 3e 2c 86 a9 bd 5f b2 58 3e
       0.22143182 0.13780098 -0.082775444 0.21161793
0001c0 36 7f 83 bc 9b 20 60 3e 60 8f b1 3d 95 6c 9a be
       -0.01605187 0.21887438 0.08669925 -0.30160967
0001d0 5b c0 68 be 83 7d 90 3e ee b3 d9 bb 17 01 c0 bd
       -0.22729628 0.28220758 -0.0066437637 -0.09375208
0001e0 5c 70 6f bd 7f 28 00 be 9b 85 8d bc 30 e4 ad 3c
       -0.058456764 -0.12515448 -0.017275622 0.021226972
0001f0 2c 61 b2 bc bc 79 19 be d9 17 0d 3e 99 6e 0c 3e
       -0.02177485 -0.14987844 0.13778628 0.13714065
000200 76 17 d0 bc ef b5 3f 3e 56 d0 62 3e ca b4 ba 3d
       -0.025401812 0.18721746 0.22149786 0.09116514
000210 4a ca 91 be 3b 3d 5a be c0 ea ce bd 50 43 e9 3d
       -0.28474647 -0.2131242 -0.10103369 0.11389792
000220 92 58 41 3d c2 99 7b 3d c0 e5 73 be ef 29 95 be
       0.047203608 0.06142593 -0.23818111 -0.29133555
000230 02 ae 30 3d 2a c1 ee bd 54 64 8a 3e 72 05 4d be
       0.043134697 -0.11657937 0.2702967 -0.20021608
000240 f0 56 30 3e aa 30 fc bd c4 ed 09 3e ca f3 6d be
       0.17220664 -0.123139694 0.13469607 -0.2323753
000250 e7 f5 7a bd 79 40 ac 3e 38 7d 04 bd 3d 3e a4 be
       -0.061269667 0.3364294 -0.03234598 -0.32078734
000260 56 68 8b bd 52 c3 37 3e 78 78 c7 bd cc 49 7c 3d
       -0.0680701 0.17945603 -0.097397745 0.061593816
000270 99 03 08 bf 77 01 dd bc 99 d8 3a be 2b 9d bf bd
       -0.5313049 -0.026978238 -0.18246688 -0.09356149
000280 7b 6e 6e 3e 49 d9 1a be 6c d4 07 3e 88 88 59 3d
       0.23284332 -0.1512195 0.13264626 0.053108722
000290 f5 36 a1 3e e5 40 00 3d ef 1e 34 be 3b 23 56 3e
       0.3148724 0.03131189 -0.17589925 0.20911877
0002a0 49 eb 49 bf 05 7e 5d 3e c5 23 3e 3d 74 30 ee be
       -0.7887464 0.21630104 0.04642083 -0.46521342
0002b0 37 27 13 3a 26 18 e2 3c 2f 32 84 3d 16 a9 82 3e
       0.00056134484 0.027599405 0.06454884 0.25519627
0002c0 1c 9f 32 3e 02 76 cd 3d 22 dd bb 3d 88 82 7b be
       0.17443508 0.10032274 0.09173037 -0.24561512
0002d0 6a 40 e5 3d a3 1d e1 bd 7b 1c f6 3e ca eb 92 bd
       0.11193927 -0.10991981 0.48068604 -0.071738794
0002e0 8d ff 47 bb 9f f0 bc bd 03 5c c8 bc a5 1c a2 bd
       -0.003051731 -0.09225582 -0.024457937 -0.0791562
0002f0 34 b5 4a be 56 30 52 3e 0d 4e 1f 3e 3c 28 1a 3f
       -0.19795686 0.20526251 0.15557118 0.6021764
000300 48 ba 4d bc ae 35 69 be 02 00 95 3e 58 9f 87 3d
       -0.01255662 -0.22774383 0.29101568 0.06622189
000310 b7 b0 7f 3e 3b 07 b5 be 06 43 76 bd fe 70 2a be
       0.24969755 -0.3535708 -0.060122512 -0.16644666
000320 5c 0f ab be 21 ea ef be 0d 91 9a be c6 44 90 3e
       -0.33410156 -0.46858314 -0.3018879 0.2817747
000330 f7 a6 f2 bc b8 1f aa bd ee a8 39 3f 99 01 59 be
       -0.02962063 -0.08306831 0.7252339 -0.21192016
000340 93 8c 85 3e 17 d1 1e be 93 ee 70 3e c7 2f df 3c
       0.26083812 -0.15509449 0.23528509 0.027244462
000350 15 f6 42 be 49 33 09 3e 44 30 e5 bc fa 7c 49 bd
       -0.19039185 0.1339847 -0.027977116 -0.049191453
000360 b6 06 b0 bd 0c 49 c4 bd c1 28 48 be d3 09 ad bc
       -0.0859503 -0.09584245 -0.19546796 -0.021122849
000370 58 32 78 be ac bc 7e 3e 48 44 ee 3e 8c 0d b4 be
       -0.24237955 0.2487666 0.4653647 -0.35166585
000380 6b 93 04 be 5b 85 22 bd 03 1b 3d 3d 51 93 da 3e
       -0.1294686 -0.03967796 0.04616834 0.42690518
000390 48 75 16 bf 09 98 6d 3d f8 66 4d bc a0 f1 97 3e
       -0.58772707 0.05800632 -0.012536757 0.29676533
0003a0 8c 99 54 be fe 2f 84 3e 42 a0 c5 bd 3e f5 a1 3d
       -0.20761698 0.25817865 -0.096497074 0.07908104
0003b0 04 15 11 bd 1f 37 87 be 1f 6e 11 bf d4 c6 5f 3d
       -0.035420433 -0.26409242 -0.56808656 0.054632977
0003c0 7a 32 61 be d0 e0 a3 3c d3 7d 2a bf 56 99 9a bd
       -0.21991912 0.02000466 -0.6659824 -0.07548778
0003d0 81 40 b8 be 3b 02 95 bd 15 a4 33 bd 05 52 b5 3a
       -0.35986713 -0.07275816 -0.043857653 0.0013833648
0003e0 99 db 20 bc 54 45 c0 bd f6 50 77 be c7 33 b0 bd
       -0.009817981 -0.09388223 -0.24151978 -0.08603626
0003f0 a8 59 8e be 91 34 0d bc 83 42 da bd d1 e4 a3 3e
       -0.27802777 -0.00861849 -0.10657217 0.3201051

hidden_layer.weight_hh_l0 f4 [300, 100]
000000 32 2f 21 bd 99 19 43 be c2 e9 5c 3e 19 dc c9 be
       -0.03935165 -0.19052733 0.21573547 -0.39425734
000010 8e ac 3b 3e 99 55 e0 3e 52 7b 9d be e9 e7 92 3e
       0.18327543 0.43815306 -0.30758148 0.28692558
000020 fe e7 9a bc f9 7f af be 46 e6 66 be ef f7 c6 be
       -0.01890945 -0.34277323 -0.2254878 -0.38861033
000030 1f ca 9d 3e 47 7c 02 3e 71 ff c2 3e eb be 41 3d
       0.3081827 0.1274272 0.3808551 0.047301214
000040 7d 49 f7 3d f5 64 94 bd 02 35 a6 3e 5c 11 69 3e
       0.12074564 -0.072458185 0.32462317 0.22760528
000050 2d 78 1a bd a4 66 19 3e e5 86 91 3e 65 e7 c2 be
       -0.037712265 0.1498056 0.2842323 -0.38067165
000060 4b d9 2d 3e a3 dc 0e 3f 14 23 29 bd 4f f4 c1 3d
       0.16977422 0.55805415 -0.04129322 0.09470426
000070 99 d1 d6 3e 71 89 74 be 87 45 01 be 46 0b ce bd
       0.41956785 -0.23880555 -0.12624179 -0.10060744
000080 a5 f8 4b 3e 60 1b 6c 3d 44 47 de 3e 6b 31 11 3e
       0.19919069 0.057643294 0.43413746 0.14179008
000090 79 13 7b 3d ab 44 b5 3e bc 3f b5 be 56 6a 67 be
       0.061297867 0.35403952 -0.35400188 -0.22599158
0000a0 af a5 ba 3e 97 3d bc be 05 4c fa 3d 91 ef 1d 3e
       0.36454532 -0.3676574 0.12221531 0.15423419
0000b0 6c e3 f3 bc fc 14 59 bc 40 19 55 3e 4e 3b 3a 3e
       -0.02977153 -0.013249632 0.20810413 0.18186685
0000c0 ad 4f ca 3d 61 a4 a4 be 35 9f 13 3f e7 e6 a9 be
       0.09878478 -0.3215666 0.57664806 -0.33183977
0000d0 28 26 ac 3e 24 03 d1 bd 4d dd 02 3e 0b af 0d be
       0.3362286 -0.10205677 0.12779732 -0.13836305
0000e0 aa b5 98 3e 18 4b 71 3e 58 09 2f be 45 08 0e be
       0.298261 0.23563802 -0.17093408 -0.13870342
0000f0 f5 6b 93 3e 92 8a 36 3e 40 0f 14 be 73 01 0e 3e
       0.28793302 0.17826298 -0.14458942 0.1386774
000100 cf ad 90 be 8b c6 da 3e 9f 63 f2 be 72 87 02 3d
       -0.28257605 0.427296 -0.4734163 0.031867452
000110 00 d5 3f be fc 5f 8a 3e b7 ec 89 be 4b 0c 43 3b
       -0.18733597 0.27026355 -0.26938412 0.0029761966
000120 a6 b4 4e be 79 9f 44 be 90 fb b7 3b d2 b0 c9 3e
       -0.201861 -0.19201459 0.0056147054 0.39392716
000130 05 23 27 be c0 f7 16 3e dc 57 7a be 9c d9 1b 3e
       -0.16321953 0.14742947 -0.24447578 0.1521973
000140 14 3a 5b be 8e f6 a3 3d de bb 10 be ff 78 8a 3e
       -0.21408874 0.08006011 -0.14134166 0.27045438
000150 19 54 c8 bd 1d 06 d6 3e 84 06 86 be f9 7c e2 3e
       -0.09781665 0.4180154 -0.26176846 0.44235972
000160 a1 4d 6b 3c 8b d0 96 3e 6d f9 d5 be 3d 9c 88 bc
       0.01436177 0.2945598 -0.4179186 -0.016676063
000170 8a 70 a1 bd 87 a6 c7 be d7 e4 93 3e 4d f8 34 bc
       -0.07882793 -0.38994238 0.28885528 -0.011045528
000180 82 96 0c 3d 76 b3 83 be fd 6c aa 3e 3e a5 76 3d
       0.034323223 -0.25722855 0.33286276 0.06021618
000190 a3 f4 71 be dc dc 09 3e 39 06 e0 3e 6c 22 ab bd
       -0.23628478 0.13463157 0.43754748 -0.08356175
0001a0 85 78 ab be 2a 27 eb be 3f e5 bf bd 63 ad ae 3d
       -0.33490387 -0.45928317 -0.09369897 0.08529165
0001b0 17 34 d5 3e fc 9a 21 3e c3 2d dd bd 9c 21 51 3e
       0.41641304 0.15781778 -0.10799744 0.20422977
0001c0 f4 5c f5 be 4b f4 1c 3e e1 48 81 be ba ce c8 3d
       -0.4792248 0.15327565 -0.25250915 0.09805055
0001d0 07 95 0c bf 14 41 f4 3d 55 c6 8a bd 51 60 a7 3e
       -0.549149 0.11926475 -0.0677611 0.3269067
0001e0 35 33 bc be 8a 6c 2d 3e 4f 33 33 be f8 f2 c8 3e
       -0.36757818 0.16935936 -0.17500041 0.3924787
0001f0 a1 86 fe be 86 49 8b be 0a 72 fe 3e 69 60 88 be
       -0.4971209 -0.2720453 0.4969638 -0.26636055
000200 80 4f de bd 4e 39 b0 bd ec 9c b8 3e 48 21 bd 3d
       -0.10855007 -0.0860468 0.36057222 0.092348635
000210 6e c7 0b bf 3b 23 70 bd 45 a2 53 be d5 e1 d9 bc
       -0.5460118 -0.05862735 -0.2066737 -0.026596943
000220 b6 a3 73 bd ce 2b a1 be 4e 98 c3 3d 34 fb 84 bc
       -0.0594823 -0.31478733 0.09550534 -0.016233064
000230 2d a0 e5 be ab f0 a0 3e cf 3f 05 be 04 fa 89 bd
       -0.44848767 0.31433615 -0.13012622 -0.0673714
000240 f1 f3 fd bd c6 68 23 bf 4e 95 84 3e 38 63 74 3e
       -0.12400044 -0.63831747 0.2589516 0.23865974
000250 8e 54 02 bf e8 e2 4a 3e e3 18 b3 be bc 43 6e bc
       -0.5091027 0.1981312 -0.34979925 -0.014542516
000260 10 40 d1 be 7b d2 c8 3d 55 52 98 3e 83 b6 38 be
       -0.40869188 0.09805771 0.29750314 -0.18038373
000270 10 8d 74 be ee 94 dd be 71 26 cf 3e 2c d9 8e 3e
       -0.23881936 -0.43277687 0.40459016 0.27900064
000280 60 94 bd 3d 1e a0 3a 3c b4 59 a8 be 79 0b 57 3e
       0.09256816 0.011390714 -0.32880938 0.2100047
000290 87 4c 09 3e 98 9c f1 3c f5 3c 15 3f 74 5b 78 be
       0.13408099 0.029493615 0.5829614 -0.24253637
0002a0 ab d2 86 3d 09 73 20 bd e6 7d 8e be cf 72 b1 be
       0.065831505 -0.039172206 -0.27830428 -0.34657905
0002b0 6b 6c 13 be 7c 14 41 be 4c 94 2f 3d b6 3b 7a be
       -0.14396827 -0.1885547 0.042866036 -0.2443684
0002c0 05 f6 19 3e 46 8e 69 be 39 2f a3 3e f2 bc 98 3c
       0.15035255 -0.2280818 0.31871966 0.018644784
0002d0 7f 18 8a 3e 8e 43 14 be c7 f7 92 bc 2a df e0 bd
       0.26971814 -0.14478895 -0.017940415 -0.10980065
0002e0 c2 f8 51 3c 61 5a 3a be 58 81 33 3e c5 cb 29 be
       0.012815656 -0.1819854 0.1752981 -0.16581638
0002f0 18 f2 31 be 5d ca 00 bf 1f a7 e4 3e 8a a3 bb 3b
       -0.17377508 -0.5030878 0.44658753 0.0057262825
000300 da e3 8c 3e 10 a7 f6 3e ca 39 03 3f b8 bf 5d be
       0.27517587 0.48174334 0.51260054 -0.21655166
000310 47 1c 77 bd 5a bb ca 3e 71 91 50 be 37 08 8f be
       -0.0603297 0.39596063 -0.20367981 -0.27935955
000320 32 bd 8a 3d dd 61 08 bd 05 d6 2d be 13 13 c9 be
       0.067743674 -0.033296455 -0.16976173 -0.39272365
000330 3f b5 d1 bc 02 1c 45 be c5 0a bd 3d f2 0c ff 3d
       -0.02559912 -0.19248965 0.0923057 0.12453641
000340 41 7f 67 be 2f 86 1e 3e 99 49 41 3e a2 6b 48 be
       -0.22607137 0.15480874 0.18875732 -0.19572309
000350 c3 d7 fb bd b2 a7 c7 3c 00 ac 05 be 43 62 3e be
       -0.12297013 0.024371956 -0.13053894 -0.18592171
000360 b1 e0 c4 be 13 ba 9b be 43 60 ad 3d d8 bc ea be
       -0.38452676 -0.304154 0.08465626 -0.458472
000370 ec 65 a7 be 3f 7a ca be 4f c6 24 3e fc d2 03 be
       -0.32694948 -0.3954639 0.16091274 -0.12873453
000380 06 51 a6 3e 2b 50 cc be e6 a3 9e bd 67 0a 3d be
       0.3248369 -0.39904913 -0.07746105 -0.18461
000390 05 79 b7 3e 2a 23 16 be e3 b0 9e be ee 8a 67 3d
       0.35834518 -0.14661852 -0.3099433 0.056528978
0003a0 cd ba 12 3f a3 85 e8 bc 6f e0 1e 3e 35 71 24 bf
       0.57316285 -0.028384035 0.15515302 -0.6423524
0003b0 8e 40 91 be 65 95 1b 3b 1d e5 7f 3d 6d 88 75 bc
       -0.28369564 0.002374017 0.06247436 -0.01498614
0003c0 d0 72 1e 3d d7 97 66 be ea 65 8a 3e 83 b8 57 be
       0.038683712 -0.2251886 0.2703088 -0.2106648
0003d0 f1 40 e6 3e ca f8 60 3e 02 d0 c1 be 04 5c e6 3d
       0.4497142 0.21969905 -0.3785401 0.11248019
0003e0 62 fe 33 be 57 7d c6 bb be 5d 7e bd de 8f 9c 3e
       -0.17577508 -0.006057422 -0.06210112 0.30578512
0003f0 df 1e c7 be f7 62 2d be f6 cf 8e be 45 db ca 3d
       -0.3889074 -0.16932283 -0.27893037 0.099051036

hidden_layer.bias_ih_l0 f4 [300]
000000 42 2c e6 bd d7 1f 0e be 4d 59 f4 3d 7e 9e 98 be
       -0.1123891 -0.13879333 0.11931095 -0.2980842
000010 ab 06 67 be aa 6e 59 bd a0 b0 00 3f 1e 57 7b 3e
       -0.22561137 -0.053084053 0.5026951 0.24544951
000020 19 f6 e1 be d4 c3 ee be 90 a9 33 bd 6e 21 27 3e
       -0.4413307 -0.4663378 -0.04386288 0.16321346
000030 22 98 a4 be 9e eb 33 3d a7 c0 3e be e0 bf 7f be
       -0.32147318 0.043925874 -0.18628179 -0.24975538
000040 6d d6 e4 be 08 97 9f 3c be 49 aa 3d 3e 56 54 be
       -0.44694844 0.019481197 0.083148465 -0.20736024
000050 f9 07 47 be 5d 0b b5 3d 36 8e d1 be 4b 5e b9 be
       -0.19436635 0.08840058 -0.4092881 -0.36204752
000060 62 b0 69 3e f6 1c 37 be f9 0e 83 be e8 81 6f 3e
       0.22821191 -0.17882141 -0.2559736 0.23389399
000070 d1 9a d0 bd 60 41 25 be af e4 c2 3c 42 02 69 3e
       -0.10185779 -0.1613822 0.023790685 0.22754768
000080 cc c9 c2 3d f8 5d 1a 3d 6f ac 7b be cb 1e cd be
       0.09511146 0.03768727 -0.24577497 -0.40062556
000090 f2 58 90 bd 22 3c 9a be 28 60 5b 3c 3d df af bd
       -0.07048215 -0.30124003 0.013389625 -0.08587501
0000a0 f8 64 d5 3d 7b 57 4b 3e 99 8b 21 3f 73 5b 0d bf
       0.10419649 0.1985759 0.63103634 -0.55217665
0000b0 4c 32 9e be 6b 19 27 3e 9c f3 d2 be f2 2e 63 be
       -0.30897748 0.1631829 -0.41201484 -0.22185877
0000c0 10 d1 6f be 0b 0a a9 bd 54 4c bc be 11 6c 24 3e
       -0.23419595 -0.08253869 -0.36776984 0.16056849
0000d0 b1 fb ae 3c 40 9d 6f 3e a7 e8 6c 3e a7 ad 65 be
       0.02136025 0.2339983 0.23135625 -0.22429524
0000e0 37 b0 20 bd ad 43 92 bd e2 73 1e 3e 05 7b 82 bd
       -0.03923055 -0.071418144 0.15473893 -0.0637112
0000f0 61 a3 9c 3d e8 ed 29 3e 12 61 69 bc 61 b6 a2 3d
       0.076483496 0.1659466 -0.014244335 0.07944942
000100 dc 78 25 be 83 87 44 3e b6 c6 86 3c 75 20 ac bd
       -0.16159385 0.19192319 0.016452175 -0.08404628
000110 07 5c 08 bf a7 98 20 be c2 a1 f2 bd a5 0b 46 bd
       -0.5326542 -0.15683232 -0.11847259 -0.04835095
000120 d0 2b 61 3e 00 63 8d 3e f9 96 67 bd ba 8e c4 bc
       0.2198937 0.27614594 -0.056540463 -0.023993839
000130 59 fa a3 3e 17 36 67 3e ee 01 26 3e e9 36 ed 3d
       0.32026938 0.22579227 0.16211674 0.11582739
000140 85 08 68 be 87 de 83 be d3 b8 cd 3e 8a 2c 97 3e
       -0.226595 -0.25755712 0.40180072 0.29526168
000150 3e fa 95 bd 7f 45 02 3e 7c f7 bb be 3d fb b8 3d
       -0.073231205 0.12721823 -0.36712253 0.09032295
000160 d4 04 01 3e 6d b5 14 bf 12 74 9c be 7e 1b 61 be
       0.12599498 -0.58089334 -0.30557305 -0.21983144
000170 f1 3b ba bd cf 21 4c be e6 c0 96 be 97 f9 56 3e
       -0.09093464 -0.19934772 -0.29444045 0.20993648
000180 28 34 f9 bd d3 4c 39 3d d4 66 cb 3c 87 3d d3 3e
       -0.12168151 0.04523928 0.024829306 0.4125788
000190 03 4a a2 bd ad 4c 09 3e fe 14 ec 3e 41 fa 22 3f
       -0.07924273 0.13408156 0.46109766 0.6366311
0001a0 09 cb 57 3f 9c 89 58 be 20 2a 5f be b2 0f 2e 3f
       0.8429418 -0.21146244 -0.21793413 0.679927
0001b0 fb 78 51 3e ae a5 23 bd 33 61 1e 3f 5a 46 d5 3e
       0.20456307 -0.039952926 0.61867064 0.41655236
0001c0 47 f0 da bd 6b be 1a 3f 9a 5f 61 bd 3e 43 d7 3b
       -0.106903605 0.60446805 -0.055022813 0.006569295
0001d0 0a da 76 be 67 34 3c 3c 9a 45 b9 3e 07 fc 49 bd
       -0.24106613 0.011487103 0.36185914 -0.049312618
0001e0 ad a6 00 3e 01 c6 7c 3e ec 94 cc 3c f1 06 13 3f
       0.12563582 0.24684907 0.024973355 0.57432467
0001f0 aa 2d 1f be fc d1 91 3e e0 91 46 be 4c 1f e4 bd
       -0.15544763 0.28480518 -0.19391584 -0.11138782
000200 84 bc 39 3e 1d e0 99 3d ee a6 81 3f c2 08 da bd
       0.18138319 0.07513449 1.0129068 -0.10646202
000210 89 c6 bf 3c 29 4e e4 bd 76 71 cb bc e6 bc 90 3d
       0.023410099 -0.1114772 -0.024834376 0.070672795
000220 01 d5 1e 3f a0 4f a4 3e a8 41 d2 3e 81 b7 f2 be
       0.6204377 0.32092 0.41065717 -0.47405627
000230 c4 49 16 3f 18 5a 01 be dc fc 10 3f 5f 4b 2c be
       0.5870631 -0.12632024 0.5663583 -0.16825627
000240 52 08 77 3e 50 ae 07 3e 4d 2b 45 be 10 74 29 3f
       0.24124268 0.13250089 -0.19254799 0.6619272
000250 b4 c6 12 3e 78 42 e4 3e 29 cf 52 be 2d 3d 7e 3e
       0.14333612 0.44581962 -0.20586838 0.24828024
000260 12 0d 9e bd 53 7f 1b bd 86 e0 75 3e 0a 45 6a be
       -0.07717337 -0.037963223 0.2401143 -0.22877899
000270 2e 02 18 3d 6a 01 b5 3e ec 49 a5 bd 32 9a fb be
       0.037111454 0.3535264 -0.0807074 -0.4914108
000280 a9 05 4f bb 24 f3 33 3e 18 8b 82 3e 4c 70 33 3f
       -0.0031589067 0.1757322 0.25496745 0.70093226
000290 e1 de 07 3f 70 cd 90 bd f6 1d b2 3e 13 ba f4 3e
       0.5307446 -0.07070434 0.34788483 0.47798213
0002a0 6b 18 23 3e 05 e4 46 3f ee 02 0b be 4b 03 52 be
       0.15927283 0.7769168 -0.13575336 -0.20509069
0002b0 ae 75 24 3e eb ac 8c 3e 12 62 d7 3e 49 df c1 bd
       0.16060516 0.27475676 0.4206701 -0.094664164
0002c0 0c fc d9 3e 63 5f 03 3f 30 02 89 3e da 9e 0a 3f
       0.4257511 0.51317424 0.2675948 0.5414864
0002d0 de cb a4 bd b2 e9 05 3e 5b 01 fe 3e 61 8e ad 3e
       -0.08046697 0.13077429 0.4961041 0.3389769
0002e0 3e ef 83 be 07 75 75 3d 8d a8 bb 3e 87 6c 97 3e
       -0.25768465 0.05992606 0.36652032 0.29574987
0002f0 1f 88 3a be a8 76 35 3e be ff a2 be ef 47 3f 3e
       -0.18215989 0.17721045 -0.3183574 0.18679784
000300 ff ce c1 bc 15 42 93 3d 45 95 80 be 28 f1 9b 3d
       -0.023658274 0.071903385 -0.25113884 0.07614356
000310 48 5a 22 3f 58 ab a0 3d 0d ed 29 3e a9 09 aa bd
       0.6341901 0.07845181 0.16594334 -0.08302624
000320 05 a5 4e 3e c4 d6 8e 3e df b9 ba 3c 11 f8 c2 be
       0.20180137 0.27898228 0.022793708 -0.38079885
000330 33 18 80 bd 92 fd e0 be fd c0 2d bd 83 d8 1d 3e
       -0.06254616 -0.4394346 -0.042420376 0.15414624
000340 39 07 6f 3e 26 42 ee bd 3e b4 96 be ac 0e 25 be
       0.23342599 -0.116337106 -0.2943439 -0.16118878
000350 90 31 76 be 9c 2b 2b bc 1e b6 a4 be c4 80 c4 bd
       -0.24042344 -0.010447409 -0.32170194 -0.095948726
000360 f5 39 81 3d b9 3c 09 3e 8a 2f 8d 3e f9 7f 04 3e
       0.063098826 0.1340207 0.27575332 0.12939443
000370 a8 11 16 be 4c 13 11 be 47 4b a9 3e 10 0e c9 be
       -0.14655173 -0.14167517 0.33065245 -0.3926854
000380 bd ad d5 3d 2c d2 d1 be 5a 44 a3 3c 52 e1 06 bf
       0.104335286 -0.4098066 0.019930054 -0.5268756
000390 75 b3 7a 3d 7c 90 62 3c ff c3 aa 3e 2c 1c 90 be
       0.0612063 0.013828393 0.33352658 -0.28146493
0003a0 fa 69 4e 3e 74 8c 91 be f0 88 17 bb d4 06 e2 3b
       0.20157614 -0.2842747 -0.0023122393 0.0068977866
0003b0 c8 97 aa be cb 88 c6 3e 86 60 07 3e 4e cf 3e bd
       -0.33318925 0.3877624 0.13220415 -0.04658442
0003c0 e0 04 37 be 30 b4 21 be b8 ed f3 bd 45 6c 8d be
       -0.17872953 -0.15791392 -0.11910576 -0.27621666
0003d0 76 d6 ea 3e a8 ac b4 3e 90 c9 0c bd 92 33 92 be
       0.45866746 0.35287976 -0.034371912 -0.2855497
0003e0 0f 27 41 bc fd d1 bd 3d 5b 31 a3 bd f3 fe 0a 3f
       -0.011789097 0.09268568 -0.07968398 0.5429527
0003f0 3b 1a 85 be 16 aa e7 be 4b 50 16 bf 56 6e 2d 3e
       -0.25996575 -0.45246953 -0.5871627 0.16936621

hidden_layer.bias_hh_l0 f4 [300]
000000 a4 ae 6e be f3 8b 00 be 73 0e 9c 3e 8e 9c c6 be
       -0.23308808 -0.12553386 0.30479774 -0.38791317
000010 cf 1d b3 be 22 97 df ba c1 6b 05 3f eb 6c 38 3e
       -0.3498368 -0.0017058591 0.52117544 0.18010299
000020 30 84 d9 be ec 1e da be f6 47 26 3d 9c a1 b7 3d
       -0.42483664 -0.42601717 0.04059597 0.089663714
000030 2d ec dd be aa 38 18 3e a6 30 04 be be e9 1c be
       -0.4334425 0.14865366 -0.12909183 -0.1532354
000040 c0 83 fa be e9 de 0a 3c 2e b4 c6 3d ed 4a 0d be
       -0.48928642 0.0084759975 0.09702335 -0.13798113
000050 88 2b 35 be 12 00 6c 3e 98 6d c7 be 20 37 a1 be
       -0.17692387 0.23046902 -0.389508 -0.3148737
000060 bc 63 2c 3e 0c 71 c3 bd 4f 00 a1 be 7f c7 bb 3d
       0.1683492 -0.09543046 -0.31445548 0.0916891
000070 0c 1b 2f bc f2 82 c8 bc dc 6b e3 3d a9 a1 54 3e
       -0.010687601 -0.024476502 0.11104557 0.20764793
000080 ad 2d f9 3d 9f af 20 bd aa 7b 7a be 87 2d ad be
       0.12166915 -0.039229985 -0.24461237 -0.33823797
000090 50 52 cd bd e3 71 ae be 0c a6 40 3d 4f 73 51 be
       -0.100254655 -0.34071264 0.047033355 -0.20454143
0000a0 65 5f 82 bd ef f6 af 3e 93 07 f3 3e b5 36 e5 be
       -0.06365851 0.34368083 0.47466716 -0.447683
0000b0 84 d4 a0 be f3 1e bf 3d 74 05 c1 be 52 9d 5c be
       -0.31412137 0.09332075 -0.37699473 -0.21544388
0000c0 6f 94 8a be 63 4f a0 3d ef 98 89 be ee 75 e5 bb
       -0.2706637 0.07827642 -0.26874492 -0.0070025837
0000d0 12 bb 0f be 16 64 4b 3e 89 80 75 3e 6d cd 19 be
       -0.14036205 0.19862399 0.23974814 -0.1501977
0000e0 1f 67 0b 3e 38 63 8c 3d 78 f3 dd 3d 00 c4 18 bc
       0.13613556 0.06854862 0.108374536 -0.009324074
0000f0 b8 4e 34 3e 76 95 d1 3d 32 d7 80 bd 17 03 0c 3e
       0.17608154 0.102335855 -0.06291045 0.13673054
000100 1a ca f8 bd 3c bf a6 3d 3f 2d 93 3c 08 fc a9 bd
       -0.12147923 0.08141944 0.017965911 -0.08300024
000110 5f d1 bb be fe 90 e6 bd b6 7c 84 be 6e 5f 25 be
       -0.36683175 -0.11258124 -0.25876397 -0.16149685
000120 bb 1a 0b 3e 13 d0 40 3e 57 d5 10 bc 20 a6 12 3d
       0.13584416 0.18829374 -0.008839927 0.03580296
000130 36 dd c7 3e a5 4d 9d 3e 8b f1 76 3e 78 ce 1f 3e
       0.39035958 0.307233 0.24115579 0.15606105
000140 d6 5e 69 bd f4 1e 55 be 30 a4 bf 3e 35 4b 93 3e
       -0.05697521 -0.20812589 0.37429953 0.28768316
000150 b0 fe 55 be 7a 90 d5 3d d7 6b 9e be 42 46 1a 3e
       -0.20897937 0.10427947 -0.3094165 0.15065864
000160 c9 e3 12 3e 45 62 1e bf 4f 2b 22 be ce b7 61 be
       0.14344706 -0.618687 -0.15836833 -0.22042772
000170 dd 4e 98 bd 76 21 47 be 2c bc 9c be 67 f2 89 3e
       -0.07436917 -0.19446358 -0.30612314 0.2694275
000180 b1 7a 2b be 0f 06 9d 3d cb 10 6a bd 6b 65 eb 3e
       -0.16746022 0.07667171 -0.05714492 0.45975813
000190 fe 8a d2 bd 41 12 25 bb 4d ae 0a 3f 21 08 15 3f
       -0.10280417 -0.0025187882 0.5417221 0.5821553
0001a0 90 f8 45 3f 95 31 0b bd 01 db b2 be 8c 99 2e 3f
       0.773324 -0.033982832 -0.34932712 0.68203044
0001b0 6f 44 a3 3e 66 49 64 3c c7 08 33 3f cf 70 12 3f
       0.31888148 0.013933515 0.6993527 0.5720338
0001c0 a6 3f c7 bd ba 76 0b 3f d8 7b 2d be c9 b4 98 bd
       -0.09728937 0.5447804 -0.16941774 -0.07456357
0001d0 67 a0 95 be ae 70 d5 3d 0a 4c a9 3e ed 30 bf 3d
       -0.2922394 0.104218826 0.33065826 0.09335504
0001e0 f9 6f 3e 3e b0 20 5a 3e d3 a1 24 bd b3 91 06 3f
       0.18597402 0.21301532 -0.04019339 0.5256607
0001f0 e9 d1 ab bd 98 dc 5d 3e 50 70 98 bd 5f dc 17 be
       -0.083896466 0.21666181 -0.07443297 -0.14830159
000200 d8 f3 87 3d 3e b9 45 3e a3 a8 5a 3f e0 01 46 bc
       0.066383064 0.19308946 0.8541357 -0.012085408
000210 c2 bc 03 3c e7 49 74 bd 78 b5 00 3e ce 93 1c 3e
       0.008040609 -0.05964079 0.12569225 0.15290758
000220 e2 35 05 3f 33 65 a0 3e 95 fc c4 3e 32 44 19 bf
       0.52035344 0.3132721 0.38473955 -0.5986968
000230 81 79 23 3f cd de 36 be 0e 53 1b 3f 87 86 a6 be
       0.63857275 -0.17858429 0.60673606 -0.3252451
000240 a0 37 cf 3e 80 a1 31 3e f5 a2 f7 bd bf af 4e 3f
       0.40472126 0.17346764 -0.120916285 0.8073692
000250 31 e9 9b 3e 44 b6 99 3e e7 14 39 be 03 68 8e 3e
       0.30451348 0.3002187 -0.1807438 0.2781373
000260 5a 5f f1 bd e0 ed a3 3d 5b c2 41 3e 51 2c 85 be
       -0.11785765 0.080043554 0.18921797 -0.26010373
000270 a3 22 80 bd 47 39 c7 3e f0 95 55 bd 7f 90 fc be
       -0.062566064 0.38910887 -0.052144945 -0.49328992
000280 b2 e4 07 be a0 b7 ae 3e 99 e6 84 3e 1f 23 2f 3f
       -0.13270834 0.3412447 0.25957182 0.68412966
000290 45 2e f4 3e 37 69 b3 bd b6 ea ce 3e 3b 2d e8 3e
       0.4769155 -0.087603025 0.40413445 0.45347008
0002a0 ee 3f 51 3e f0 f5 65 3f b6 9d 5e bd f2 bf 3a be
       0.20434543 0.89828396 -0.054349624 -0.18237284
0002b0 7d 40 72 3e e2 2b d9 3e 3e f2 04 3f f6 c7 f1 bd
       0.23657413 0.42416292 0.5193213 -0.11805718
0002c0 f3 b8 bb 3e 5e cd ee 3e 48 0e 6f 3e f0 71 2e 3f
       0.36664543 0.46641058 0.23345292 0.68142605
0002d0 b7 83 0b be 3f 51 10 3d 78 36 da 3e f5 53 c7 3e
       -0.13624464 0.035233732 0.4261968 0.38931242
0002e0 f6 02 32 be 08 00 d7 3d db 00 99 3e ad 8a cb 3e
       -0.17383942 0.10498053 0.29883465 0.3975424
0002f0 83 4c 83 be ca 73 96 3d 6a 04 c2 be cb 4e b5 3d
       -0.2564431 0.07346304 -0.37893993 0.08852919
000300 5d 11 cb bd f6 d8 51 3d fd 54 97 be ca 31 1e 3e
       -0.09915421 0.0512323 -0.29557028 0.1544868
000310 8e 2d 32 3f 4d 33 81 3e 40 46 5a 3e 26 0f 29 be
       0.6960076 0.25234452 0.21315861 -0.16509685
000320 96 99 7e 3e 1d 57 55 3e d3 2c 42 3d 16 e4 61 be
       0.24863276 0.20834012 0.04740603 -0.22059664
000330 15 af 18 3e 19 04 c8 be ee bd 35 be bf a5 9a 3d
       0.14910538 -0.39065626 -0.17748234 0.07551145
000340 3e b3 89 3e ed 52 46 3e e9 c6 d4 be 60 91 e7 bd
       0.26894563 0.19367571 -0.41558006 -0.11307025
000350 96 2a 27 3e 72 bf d6 3d 4e 0a 40 3e 0d e2 49 3d
       0.16324839 0.10485734 0.18753931 0.049287844
000360 b0 ce 57 bc ce c5 50 3d 9d bd a2 3e d6 c3 94 3c
       -0.013171837 0.05096989 0.31785288 0.018159788
000370 88 44 94 3e fe 61 cf bd c9 ad c6 bd ab 39 a0 be
       0.28958535 -0.101261124 -0.09701116 -0.31293997
000380 c1 ea 12 3e cf 7c 89 be 7f c7 44 3e 0a cb de bd
       0.14347364 -0.26853034 0.19216727 -0.108785704
000390 bb ab 7a 3e c7 9f fa bd 85 27 c9 3e ce 97 74 be
       0.24479572 -0.12237506 0.39287964 -0.23886034
0003a0 76 57 a9 3e fc 09 89 bd aa 08 28 3c f4 52 dc be
       0.3307454 -0.066913575 0.010255972 -0.43032038
0003b0 09 fe 92 be cf c6 04 3e cf 41 ca 3d 63 1d 26 bd
       -0.28709438 0.12966464 0.09875833 -0.04055537
0003c0 8e 8a 46 bc 34 33 79 be b7 6c 86 bd 49 b1 5a 3d
       -0.012117995 -0.24335939 -0.065637045 0.05339173
0003d0 0f 91 77 3d ba 7c 5a 3e 42 6b f8 3d 49 8a 0b 3d
       0.060441073 0.21336642 0.12129833 0.034067426
0003e0 9a 69 5e 3b b3 59 8a be 01 e8 6b bd 4b fb 1c 3e
       0.0033937455 -0.2702156 -0.057594303 0.15330236
0003f0 52 d7 91 be 26 54 ca be 4f 94 0e bf 6c 98 68 3e
       -0.2848459 -0.39517325 -0.5569505 0.22714394
