models/3rd_GRU_100_dim_1_layer_att_0.1_drop5_decoder.pt (torch_old, 411337 bytes, 11 tensors)

embedding.weight f4 [8, 100]
-0.46958134 0.573796 -0.12179215 0.3426803 0.0066843308 0.35021067 0.7995267 1.5027297
0.44992718 -0.0119447885 0.6673855 0.043925043 -0.28337035 0.33919233 0.16785519 0.03420865
-0.99629045 0.05268953 -0.3920669 0.49277076 0.04218195 -0.028805895 0.07216709 -0.051760394
-0.052146256 -0.29456818 0.44842368 1.932068 -0.0033467219 0.19698225 -1.4553277 0.3564615
0.009325339 -0.031463034 0.0012473486 -0.6037805 0.031777553 0.07599636 -0.2283573 0.09786282
0.07602173 1.0942558 0.007693898 0.32904306 -0.03984092 -0.06607959 0.05370616 -1.6295835
-0.037178952 -0.49692658 -0.18550894 0.03905078 -0.04911268 0.04609744 -0.040912434 0.80727094
0.0019349015 -0.83571804 0.072284 -1.0803583 0.8637488 -0.6467188 -0.09840359 -1.1245053
0.025730196 0.268145 0.1496023 -0.021523943 -0.022742923 0.3171068 0.023968708 0.17261873
0.002652754 -0.20124595 -0.061900537 -1.1657867 -0.0046591163 -0.1631764 -0.095889576 -1.0807003
0.01572486 -1.1328862 -0.3628638 -0.0320386 -0.09926398 -0.56643623 0.068832904 0.699136
0.022783687 0.2686312 0.036599983 -0.053740084 -0.11543418 0.022322346 0.032617822 0.69618165
-0.509921 0.190372 0.083448716 -0.26666483 1.25628 0.14002377 0.2529157 -0.81001663
-1.8144864 -2.7377183 1.0112526 -0.87290657 -1.3177916 -0.7964816 0.6275186 -0.14765887
0.09296999 0.7988381 0.4906679 1.006829 -1.549759 -2.3768065 -1.208637 -0.94057137
1.0891141 -0.16538168 0.2716846 0.23991938 -3.2663538 -0.66190654 -1.2787161 -0.38879058
-0.44256774 -1.0255337 0.24672958 1.7000512 -2.6488428 -1.5051962 0.5714631 -0.7323252
-0.14062175 2.0847695 0.88317347 0.49457294 -1.1210183 0.1423169 -0.2724302 0.16608684
1.3939544 1.0664675 -0.09405834 -2.156897 -0.7445136 0.023017285 0.16066895 0.9748609
-0.45407495 -0.7854918 0.2800839 0.026423521 1.2899121 1.4179701 0.1347956 0.68195707
0.20762718 0.29813117 -0.19498718 -0.18489063 -0.17974998 0.5722669 -0.8314237 0.9858862
-0.64081186 -0.38933477 -0.028588418 0.004433434 -1.4419066 0.9597456 0.42938513 -0.8056071
-0.7768543 1.1548827 1.8696684 0.70624506 0.26678884 0.14629221 -0.6313608 -0.51464605
-1.3090723 -1.8514653 1.4321748 1.1101537 1.2405031 0.4854293 1.1921469 1.1184392
0.7461081 -0.45293176 0.41680294 -1.2455099 0.5040533 -0.002469138 -0.4084754 -0.15587692
-0.79645056 -0.87090486 0.6905355 1.7937064 1.3399754 -1.2115284 0.78386766 1.2417657
1.1256694 1.5628624 -2.1053147 1.6761413 -0.14256419 0.27808994 -2.2232153 -0.8966864
0.43761858 -0.723752 -1.4490321 0.043706577 0.16931576 0.38669938 -2.0324106 0.26366273
0.8116009 0.37412536 -2.163931 0.7306531 1.1277833 -0.6446375 -1.2667572 -0.97828025
-2.4500904 -0.25025013 -0.047659736 -1.8845584 -2.1964216 -0.87846744 -0.6726411 -0.18695657
-0.84618247 -0.016984819 1.2303503 0.65946925 -1.6124988 -1.034079 0.55231243 2.2707753
1.3466142 0.3936594 -0.8439117 0.08619102 1.3221486 -0.8550619 -0.88886815 -0.8312975
00000000: f76c f0be 4be4 123f 2a6e f9bd cb73 af3e
00000010: 3b08 db3b d04e b33e c8ad 4c3f 7259 c03f
00000020: db5c e63e 13b4 43bc c7d9 2a3f bfea 333d
00000030: eb15 91be 9eaa ad3e 3be2 2b3e 5f1e 0c3d
00000040: e40c 7fbf fad0 573d febc c8be 734c fc3e
00000050: fbc6 2c3d 57fa ebbc 57cc 933d b502 54bd
00000060: 5097 55bd a4d1 96be ca97 e53e 014e f73f
00000070: ad54 5bbb b7b5 493e 2e48 babf 1f82 b63e
00000080: 4fc9 183c 62df 00bd 137e a33a 5c91 1abf
00000090: 2e29 023d fba3 9b3d 7fd6 69be 4d6c c83d
000000a0: 48b1 9b3d 9310 8c3f 181d fc3b 5578 a83e
000000b0: 3c30 23bd bc54 87bd fefa 5b3d 3196 d0bf
000000c0: f548 18bd 296d febe 0ef6 3dbe b6f3 1f3d
000000d0: 612a 49bd abd0 3c3d cc93 27bd 4fa9 4e3f
000000e0: 859c fd3a 9ef1 55bf a209 943d 2e49 8abf
000000f0: a41e 5d3f 5d8f 25bf d287 c9bd caef 8fbf
00000100: 22c8 d23c 4d4a 893e 5831 193e fb52 b0bc
00000110: 5e4f babc d35b a23e 065a c43c f7c2 303e
00000120: d4d9 2d3b 6b13 4ebe 6b8b 7dbd 8038 95bf
00000130: 80ab 98bb b717 27be c161 c4bd 6354 8abf
00000140: 6cd1 803c 6a02 91bf 49c9 b9be e83a 03bd
00000150: ea4a cbbd f701 11bf 44f8 8c3d 94fa 323f
00000160: dba4 ba3c 078a 893e dde9 153d 901e 5cbd
00000170: c168 ecbd 5add b63c 449a 053d f638 323f
00000180: 2f8a 02bf e1f0 423e 29e7 aa3d 4b88 88be
00000190: c8cd a03f 6462 0f3e 2b7e 813e 405d 4fbf
000001a0: 1741 e8bf c736 2fc0 ba70 813f ce76 5fbf
000001b0: 65ad a8bf 38e6 4bbf 0fa5 203f e333 17be
000001c0: 0d67 be3d a780 4c3f d338 fb3e c6df 803f
000001d0: 815e c6bf 991d 18c0 9eb4 9abf 49c9 70bf
000001e0: 1768 8b3f d159 29be 3e1a 8b3e 6dad 753e
000001f0: f10b 51c0 b572 29bf f8ac a3bf 8f0f c7be
00000200: 3d98 e2be b044 83bf aea6 7c3e 479b d93f
00000210: a486 29c0 45aa c0bf 684b 123f aa79 3bbf
00000220: 26ff 0fbe dd6c 0540 a817 623f aa38 fd3e
00000230: 877d 8fbf 85bb 113e f97b 8bbe ab12 2a3e
00000240: 196d b23f 0282 883f a9a1 c0bd 9a0a 0ac0
00000250: 7198 3ebf bf8e bc3c 6786 243e 7c90 793f
00000260: 837c e8be fe15 49bf 2867 8f3e 2476 d83c
00000270: d71b a53f 0b80 b53f dc07 0a3e bd94 2e3f
00000280: 389c 543e a6a4 983e b8aa 47be f853 3dbe
00000290: 6110 38be 1580 123f 2fd8 54bf 0a63 7c3f
000002a0: 3f0c 24bf e356 c7be 4232 eabc 5746 913b
000002b0: 6590 b8bf e3b1 753f 5ed8 db3e 443c 4ebf
000002c0: ecdf 46bf 32d3 933f 4b51 ef3f 7acc 343f
000002d0: 8c98 883e a0cd 153e dda0 21bf d8bf 03bf
000002e0: ae8f a7bf d1fc ecbf 8151 b73f 8419 8e3f
000002f0: cec8 9e3f 308a f83e 4598 983f 0429 8f3f
00000300: f100 3f3f ace6 e7be 3267 d53e de6c 9fbf
00000310: a309 013f 43d1 21bb b023 d1be 339e 1fbe
00000320: 2fe4 4bbf 9ff3 5ebf efc6 303f 2c98 e53f
00000330: 5084 ab3f 5d13 9bbf 8dab 483f 2ef2 9e3f
00000340: ef15 903f e00b c83f 7abd 06c0 cc8b d63f
00000350: 59fc 11be ce61 8e3e 2949 0ec0 3d8d 65bf
00000360: 8b0f e03e d047 39bf e279 b9bf ab05 333d
00000370: 1c61 2d3e 76fd c53e 0413 02c0 cdfe 863e
00000380: 14c5 4f3f 5c8d bf3e d87d 0ac0 150c 3b3f
00000390: 345b 903f f706 25bf 1a25 a2bf 9370 7abf
000003a0: 48ce 1cc0 c920 80be db36 43bd 3639 f1bf
000003b0: 2c92 0cc0 3ee3 60bf 3532 2cbf 8b71 3fbe
000003c0: 6a9f 58bf bf23 8bbc 1e7c 9d3f fad2 283f
000003d0: 5c66 cebf b35c 84bf 5964 0d3f 6254 1140
000003e0: db5d ac3f ba8d c93e 990a 58bf eb84 b03d
000003f0: 2a3c a93f 56e5 5abf dd8c 63bf eacf 54bf

attn.weight f4 [100, 200]
-0.08424799 -0.13640486 0.15104248 0.08726622 0.20174403 -0.13208497 -0.07666933 -0.54186666
-0.09038233 0.14185444 0.001805392 0.01357883 0.17838463 0.42795235 0.16492188 -0.6662516
-0.06556915 -0.09319947 -0.09333724 -0.50510186 -0.03360853 0.1149724 -0.22134416 0.15110314
0.29792646 0.27046537 0.01938985 0.3233284 0.11997748 0.045092914 -0.03486474 0.15975334
-0.008663011 -0.07718353 0.009630754 -0.03591236 -0.09977408 -0.1576564 0.098071575 -0.1484813
0.16775432 0.023446664 -0.0052749654 -0.028897185 0.30728725 -0.057803184 -0.22098808 0.20236577
-0.0644597 -0.2709889 0.4906423 -0.070421405 0.01587569 -0.18488574 0.1197332 0.67955875
0.050230253 0.15865251 -0.18118101 -0.1682736 0.04616008 -0.103721276 0.07180337 0.2938149
-0.4714163 -0.24143474 0.42067596 -0.12875232 -0.08458802 0.0060900464 0.26950985 -0.22272466
-0.39568806 0.03302949 0.1254409 0.56757766 0.22386439 -0.023289418 -0.09376531 -0.07440063
0.18931633 -0.007444154 0.63442004 -0.13677487 0.13686217 -0.017543396 -0.5100816 -0.12191651
-0.12594944 -0.3263578 0.022287257 0.29594457 -0.28274813 -0.11067813 0.23617074 0.10719892
-0.055360645 0.34599093 0.07876622 -0.25685582 -0.2724083 -0.054406974 -0.17812872 0.010760276
-0.0757747 0.6237122 -0.070949405 -0.058805443 -0.005176063 0.052202832 0.23286779 0.29182693
-0.14694346 -0.21413817 0.031884726 0.32067692 0.23938619 0.12315839 0.031847913 -0.028541472
-0.05842501 0.8131665 -0.5638794 -0.65324944 0.26106393 0.15392308 0.00021586563 0.14008565
-0.7686681 -0.42036837 0.27262074 -0.046669144 0.003149985 0.014390169 -0.44108072 0.13313703
0.16011307 -0.18441388 -0.38639447 0.24821138 -0.32874575 -0.11017791 -0.27765772 -0.0068384567
0.107199036 0.11522066 -0.1178458 0.24054849 0.039035816 0.4288488 0.74868613 -0.047359172
0.030700501 -0.005272883 -0.23237191 0.40207592 0.11500971 0.29161298 0.25929627 -0.24114893
-0.55527973 0.13180485 0.46763378 0.047214724 -0.37103018 -0.28122753 -0.016565379 -0.060229234
-0.59973526 0.18143228 0.18845339 -0.35152337 0.03807309 -0.745599 -0.16637446 0.5199812
-0.15020724 -0.5530351 0.16147572 0.35312018 -0.0045637754 0.13361202 0.083027005 0.34064153
0.104585774 -0.049010642 -0.121372595 0.14648247 0.18616538 0.25686857 -0.027711822 -0.50875044
-0.016904226 0.07341404 -0.10018559 0.8093904 -0.51466644 -0.020566903 -0.18758593 0.014134205
0.10189908 0.039776597 -0.07039546 -0.06398988 0.08803943 0.18650119 -0.22603664 0.1353406
-0.044160012 0.03131989 0.0043184627 -0.1224486 -0.19048294 -0.08803344 0.008766371 0.16187553
0.062145825 0.051276296 -0.18840653 0.3495241 -0.0055435873 0.15477622 0.092662044 0.015204786
-0.13914172 0.005941679 0.032370042 -0.17151435 0.15394773 0.13657133 -0.028032912 0.10817588
-0.06121196 -0.05484291 0.18094398 0.2934646 -0.16065827 0.19409454 -0.13888285 0.14168058
0.06608481 -0.019393746 -0.009928888 0.044099737 -0.13105881 -0.0777483 0.05099266 -0.22555503
-0.017543053 0.29872158 -0.23487885 0.06835147 0.12243614 -0.05010083 -0.11149306 -0.2828713
00000000: 368a acbd b7ad 0bbe e1aa 1a3e a2b8 b23d
00000010: fd95 4e3e 4841 07be cf04 9dbd c6b7 0abf
00000020: 5f1a b9bd 4a42 113e e7a2 ec3a be79 5e3c
00000030: 76aa 363e 921c db3e 48e1 283e 778f 2abf
00000040: 1e49 86bd 5ddf bebd 9827 bfbd 5b4e 01bf
00000050: 19a9 09bd a676 eb3d 0ba8 62be c8ba 1a3e
00000060: d189 983e 707a 8a3e 76d7 9e3c 4d8b a53e
00000070: c1b6 f53d 59b3 383d 54ce 0ebd 6196 233e
00000080: 4def 0dbc 6612 9ebd 4fca 1d3c d718 13bd
00000090: 5a56 ccbd ae70 21be c0d9 c83d 7b0b 18be
000000a0: cac7 2b3e 3813 c03c 9ed9 acbb cab9 ecbc
000000b0: c154 9d3e 08c3 6cbd b34a 62be f938 4f3e
000000c0: 7203 84bd 0fbf 8abe 7835 fb3e 1939 90bd
000000d0: bc0d 823c b052 3dbe ae36 f53d 90f7 2d3f
000000e0: 3dbe 4d3d ce75 223e 8487 39be ea4f 2cbe
000000f0: 5a12 3d3d d26b d4bd a50d 933d e86e 963e
00000100: 7a5d f1be ab3a 77be d762 d73e a6d7 03be
00000110: 7c3c adbd 038f c73b 32fd 893e ef11 64be
00000120: a097 cabe ee49 073d 9473 003e c54c 113f
00000130: b53c 653e 73c9 bebc 0708 c0bd 5c5f 98bd
00000140: 24dc 413e 17ee f3bb 5a69 223f b60e 0cbe
00000150: 9925 0c3e 2bb7 8fbc b594 02bf 5daf f9bd
00000160: e4f8 00be 5f18 a7be c493 b63c 0c86 973e
00000170: 5dc4 90be 37ab e2bd bed6 713e 1b8b db3d
00000180: d8c1 62bd b925 b13e 2f50 a13d 9b82 83be
00000190: 1a79 8bbe d9d9 5ebd 6067 36be de4b 303c
000001a0: c42f 9bbd 9aab 1f3f ec4d 91bd fadd 70bd
000001b0: f79b a9bb a3d2 553d e574 6e3e 576a 953e
000001c0: 5978 16be 0947 5bbe 8f99 023d c42f a43e
000001d0: a721 753e 773a fc3d f572 023d cecf e9bc
000001e0: 104f 6fbd ae2b 503f 665a 10bf 5b3b 27bf
000001f0: 2caa 853e 039e 1d3e fd59 6239 9d72 0f3e
00000200: 6fc7 44bf 863a d7be f294 8b3e 2528 3fbd
00000210: fb6f 4e3b bec4 6b3c 55d5 e1be 1355 083e
00000220: aef4 233e fed6 3cbe 7fd5 c5be 202b 7e3e
00000230: 5d51 a8be f5a4 e1bd 2729 8ebe 2215 e0bb
00000240: 2b8b db3d cff8 eb3d 2459 f1bd 5852 763e
00000250: 05e4 1f3d 1292 db3e e5a9 3f3f b1fb 41bd
00000260: 9e7f fb3c 26c8 acbb e7f2 6dbe e5dc cd3e
00000270: 368a eb3d 4c4e 953e 7bc2 843e bfef 76be
00000280: d026 0ebf daf7 063e b26d ef3e 3a64 413d
00000290: abf7 bdbe 0efd 8fbe 1eb4 87bc eeb2 76bd
000002a0: 4088 19bf 62c9 393e edf9 403e dffa b3be
000002b0: 87f2 1b3d 93df 3ebf 115e 2abe 7d1d 053f
000002c0: edcf 19be b593 0dbf e459 253e 2bcc b43e
000002d0: b98b 95bb 97d1 083e 100a aa3d 9168 ae3e
000002e0: 1131 d63d 62bf 48bd 3292 f8bd 80ff 153e
000002f0: 23a2 3e3e 4784 833e e703 e3bc 783d 02bf
00000300: bb7a 8abc 1a5a 963d 1a2e cdbd 3634 4f3f
00000310: 2ec1 03bf ec7b a8bc 8716 40be 2793 673c
00000320: 77b0 d03d c9ec 223d 7f2b 90bd 200d 83bd
00000330: 044e b43d 2bfa 3e3e 2676 67be ba96 0a3e
00000340: 21e1 34bd 4949 003d e481 8d3b 55c6 fabd
00000350: f60d 43be e04a b4bd d3a0 0f3c b3c2 253e
00000360: 9f8c 7e3d 1807 523d a4ed 40be d3f4 b23e
00000370: fba6 b5bb a87d 1e3e 99c5 bd3d 7f1d 793c
00000380: 2b7b 0ebe 6ab2 c23b 7396 043d 75a1 2fbe
00000390: 79a4 1d3e 5bd9 0b3e 47a5 e5bc 518b dd3d
000003a0: 64b9 7abd f6a2 60bd 6149 393e fe40 963e
000003b0: 9a83 24be b8c0 463e 4e37 0ebe b714 113e
000003c0: 7957 873d a2df 9ebc c6ac 22bc eda1 343d
000003d0: 4834 06be 803a 9fbd aedd 503d e6f7 66be
000003e0: 73b6 8fbc 09f2 983e 1584 70be dbfb 8b3d
000003f0: cdbf fa3d 8736 4dbd 7956 e4bd 82d4 90be

attn.bias f4 [100]
-0.15386865 0.06106054 0.057997152 0.3577083 0.082507014 0.22411112 0.3917165 0.109386474
0.071844265 -0.28543064 -0.64076334 -0.68694633 -0.5164956 -0.5318791 -0.46252406 -0.5034781
-0.4988952 -0.59058505 -0.5119613 -0.35748067 -0.23398003 -0.48775017 -0.34374908 -0.38900563
-0.5092781 -0.6573412 -0.2563031 -0.41105723 -0.1894531 -0.53583187 -0.57007056 -0.34550196
-0.4626424 -0.5503007 -0.660793 -0.43307626 -0.35090548 -0.44639868 -0.41675267 -0.5718573
-0.33429268 -0.30293843 -0.4743054 -0.70890146 -0.51483744 -0.53629625 -0.53981704 -0.6753722
-0.3604637 -0.51779675 -0.6013671 -0.45636785 -0.39776236 -0.28318605 -0.5381165 -0.46335268
-0.33541575 -0.68600816 -0.4108913 -0.2448465 -0.4872881 -0.33381918 -0.61736715 -0.6491158
-0.38264 -0.7498537 -0.40225583 -0.49835038 -0.3321414 -0.46655595 -0.43968433 -0.47186047
-0.57152885 -0.35710582 -0.6481653 -0.4355854 -0.38779053 -0.5714378 -0.50538284 -0.3575422
-0.45673022 -0.49318853 -0.54681796 -0.41672963 -0.16145399 -0.5401979 -0.36320567 -0.502053
-0.4812083 -0.5283738 -0.5776642 -0.5075639 -0.64273775 -0.5173108 -0.6238938 -0.42205733
-0.6380777 -0.43912816 -0.6139082 -0.724533
00000000: be8f 1dbe 9e1a 7a3d 6c8e 6d3d 8b25 b73e
00000010: 70f9 a83d 637d 653e 118f c83e 0406 e03d
00000020: 1623 933d f723 92be 1109 24bf b7db 2fbf
00000030: 0e39 04bf 3b29 08bf f4cf ecbe f1e3 00bf
00000040: 316f ffbe 9530 17bf e50f 03bf b507 b7be
00000050: 7698 6fbe 64ba f9be e1ff afbe bf2b c7be
00000060: 0d60 02bf 8347 28bf 293a 83be 1876 d2be
00000070: feff 41be 472c 09bf 25f0 11bf a2e5 b0be
00000080: 77df ecbe 82e0 0cbf bb29 29bf 2cbc ddbe
00000090: e2a9 b3be 5e8e e4be 9b60 d5be 3d65 12bf
000000a0: 6928 abbe bf1a 9bbe 28d8 f2be 917a 35bf
000000b0: 63cc 03bf b64a 09bf 7331 0abf 31e5 2cbf
000000c0: b38e b8be 548e 04bf 32f3 19bf 0ca9 e9be
000000d0: 82a7 cbbe c3fd 90be 01c2 09bf 903c edbe
000000e0: 9dbb abbe 3b9e 2fbf 5860 d2be 0ab9 7abe
000000f0: d37d f9be 59ea aabe c60b 1ebf 742c 26bf
00000100: 64e9 c3be 69f6 3fbf 7af4 cdbe c827 ffbe
00000110: 700e aabe 6ce0 eebe 4e1e e1be b297 f1be
00000120: b74f 12bf 93d6 b6be 29ee 25bf 0d05 dfbe
00000130: 7b8c c6be bf49 12bf c560 01bf c50f b7be
00000140: 8bd8 e9be 3583 fcbe 43fc 0bbf 965d d5be
00000150: 3254 25be 694a 0abf 18f6 b9be 8c86 00bf
00000160: ef60 f6be 8143 07bf cde1 13bf b5ef 01bf
00000170: 768a 24bf 7b6e 04bf 81b7 1fbf e617 d8be
00000180: 0f59 23bf 68d5 e0be 1629 1dbf ff7a 39bf

attn_combine.weight f4 [100, 200]
-0.21558028 -0.360256 0.24146554 0.086533576 -0.07526794 -0.058733486 -0.47830212 -0.5553539
0.03416265 0.38093436 -0.15509988 -0.15461266 0.05901057 -0.033854343 0.1717833 -0.27457535
0.040697683 0.0029584083 0.387586 -0.29244223 -0.043933377 0.063359745 0.113224946 0.16907656
0.074251294 0.08300915 -0.418362 -0.15796478 0.11360069 -0.050653897 0.23634714 0.12110796
0.024977561 -0.015953908 -0.0011551027 0.2583965 -0.26983124 0.13585876 -0.17097484 -0.42055568
0.0010612927 -0.3311149 0.2507177 -0.021728264 0.1446736 -0.11076729 0.18306968 0.55782396
-0.04287067 -0.1681987 0.31469917 -0.07531917 0.13765307 -0.06368809 -0.17967108 0.03854042
-0.1232198 0.2653279 -0.19440673 0.24587722 -0.13769439 -0.20042151 -0.22618331 0.23675136
-0.3284869 -0.26077786 0.3299941 0.12457696 -0.1483478 -0.029546423 -0.080414124 -0.04990922
-0.0016256084 0.20455788 0.19242363 0.3651461 -0.124735706 -0.010805406 -0.27977762 0.41681346
0.09335626 0.2863045 0.35326076 0.08093113 -0.22116365 0.26702327 -0.5618427 0.16735987
-0.3080269 0.13024436 -0.15464355 -0.103121385 0.008360326 0.21127044 -0.05565905 0.14933102
0.12887822 0.13428234 0.056942817 -0.037812624 -0.32103482 -0.24476786 -0.37997794 0.22924362
0.40823647 0.36483777 -0.013628963 0.06671844 0.07768544 0.1967356 0.17907673 0.2549654
0.15758753 -0.039304383 -0.37191898 0.37633568 0.47413662 -0.119044475 0.29866803 0.7270833
0.15080164 0.22452745 0.43530288 -0.24341923 -0.25169787 0.15832086 0.20837207 0.16009553
0.08926152 0.30373162 -0.26142612 -0.6983437 -0.22165091 0.26280972 0.51283836 0.10737178
-0.14509042 0.3767525 -0.073460326 -0.17171119 0.6417731 -0.08675746 0.22062647 0.26665977
-0.24807519 0.024603372 0.4433823 -0.19624457 -0.06643009 -0.01390592 -0.5763945 -0.30945483
0.3516071 0.31571046 0.35876077 0.80261517 -0.60179025 -0.43646714 0.117856055 0.14061531
-0.5693686 0.07842726 -0.063825555 0.11226759 -0.36473772 0.22406015 -0.38012186 -0.017434975
0.59260607 0.2656848 -1.054354 -0.2815488 -0.22501522 -0.1803998 0.0500011 0.48965165
0.05129954 0.2249524 0.35488096 0.17983851 0.050482765 0.38649997 0.16407238 0.21798323
0.18918532 -0.030335117 -0.25901097 0.18988468 -0.22309545 0.2205863 0.15398161 -0.029265558
-0.22409211 0.19064088 0.41146383 0.14354998 0.3340872 0.19138014 0.13589592 -0.23064321
0.08177823 -0.18491057 0.16894378 0.09308038 -0.11290332 -0.15803389 0.044858504 -0.087551825
-0.2711404 -0.1631773 0.10042546 0.20838472 0.22507994 0.09351199 -0.10247333 0.05945286
0.2208133 -0.06864232 -0.030513275 -0.14960812 0.08256376 -0.04292496 -0.15622085 0.0053115985
-0.10161244 0.05394025 0.11809976 -0.04136602 -0.056487158 -0.05321464 -0.05666154 -0.21292272
-0.13223015 0.16207501 -0.0051545086 -0.057928294 0.062819034 -0.23057897 0.3956397 0.0654964
0.09777432 -0.017174749 -0.10393984 -0.10527755 0.10207069 0.299953 0.04710257 0.118119374
0.16076863 0.037224364 -0.020268746 0.10738508 -0.043742754 0.13089429 -0.008017695 0.016797338
00000000: 14c1 5cbe 7973 b8be be42 773e 8438 b13d
00000010: 1426 9abd 8692 70bd 04e4 f4be ac2b 0ebf
00000020: 23ee 0b3d d409 c33e 81d2 1ebe c852 1ebe
00000030: 11b5 713d daaa 0abd f6e7 2f3e 2495 8cbe
00000040: 9db2 263d dbe1 413b ac71 c63e fdba 95be
00000050: 7cf3 33bd c1c2 813d 7be2 e73d 6822 2d3e
00000060: 1011 983d b400 aa3d 8b33 d6be 85c1 21be
00000070: 7ba7 e83d 767a 4fbd fc04 723e 7307 f83d
00000080: be9d cc3c c5b1 82bc d166 97ba 8c4c 843e
00000090: 5227 8abe 8f1e 0b3e 0714 2fbe 1353 d7be
000000a0: 131b 8b3a e487 a9be 125e 803e 79ff b1bc
000000b0: 5125 143e f6d9 e2bd 9e76 3b3e 8dcd 0e3f
000000c0: 2899 2fbd 483c 2cbe 4020 a13e f040 9abd
000000d0: edf4 0c3e e76e 82bd b2fb 37be 8fdc 1d3d
000000e0: aa5a fcbd 0fd9 873e 8f12 47be 3dc7 7b3e
000000f0: c2ff 0cbe 4c3b 4dbe 999c 67be f36e 723e
00000100: 6f2f a8be ad84 85be fdf4 a83e 3522 ff3d
00000110: 7ce8 17be 570b f2bc 29b0 a4bd 9c6d 4cbd
00000120: 5e12 d5ba 9f77 513e b30a 453e 6ef4 ba3e
00000130: 6f75 ffbd 2809 31bc 033f 8fbe 9368 d53e
00000140: 9131 bf3d 8196 923e 98de b43e 38bf a53d
00000150: b978 62be 46b7 883e ecd4 0fbf 6360 2b3e
00000160: b4b5 9dbe c75e 053e e15a 1ebe 4e31 d3bd
00000170: c0f9 083c 4757 583e befa 63bd 3bea 183e
00000180: a7f8 033e 4f81 093e df3c 693d 69e1 1abd
00000190: ad5e a4be 6da4 7abe 788c c2be d7be 6a3e
000001a0: 5f04 d13e 04cc ba3e 044c 5fbc ada3 883d
000001b0: 8b19 9f3d 0f75 493e e45f 373e d38a 823e
000001c0: a05e 213e a2fd 20bd 2a6c bebe 12af c03e
000001d0: 09c2 f23e 97cd f3bd 04eb 983e 2222 3a3f
000001e0: bf6b 1a3e 86ea 653e 05e0 de3e e442 79be
000001f0: 8bde 80be dd1e 223e 7d5f 553e 15f0 233e
00000200: bece b63d b682 9b3e a5d9 85be a7c6 32bf
00000210: 75f8 62be ff8e 863e 6049 033f bce5 db3d
00000220: 9592 14be b4e5 c03e 5e72 96bd 0fd5 2fbe
00000230: 3e4b 243f e5ad b1bd e8eb 613e a187 883e
00000240: 6c07 7ebe 038d c93c 0103 e33e 56f4 48be
00000250: 800c 88bd a8d5 63bc 978e 13bf dd70 9ebe
00000260: d905 b43e cda4 a13e 7eaf b73e 3078 4d3f
00000270: ed0e 1abf 9f78 dfbe 845e f13d 76fd 0f3e
00000280: 24c2 11bf 799e a03d f9b6 82bd 8dec e53d
00000290: e7be babe 0670 653e 559f c2be cbd3 8ebc
000002a0: 08b5 173f d707 883e 12f5 86bf 2a27 90be
000002b0: 646a 66be baba 38be f4cd 4c3d 9fb3 fa3e
000002c0: 771f 523d ec59 663e f5b2 b53e 9627 383e
000002d0: 04c7 4e3d 53e3 c53e 9702 283e ff36 5f3e
000002e0: ccb9 413e 5a81 f8bc 169d 84be 2171 423e
000002f0: 2273 64be 60e1 613e 5bad 1d3e 53be efbc
00000300: 6778 65be 5d37 433e 63ab d23e c4fe 123e
00000310: 7a0d ab3e 28f9 433e 4d28 0b3e bc2d 6cbe
00000320: 587b a73d 3259 3dbe 99ff 2c3e eda0 be3d
00000330: db39 e7bd a3d3 21be 8dbd 373d 5f4e b3bd
00000340: ead2 8abe f317 27be ddab cd3d ce62 553e
00000350: 5b7b 663e 3783 bf3d 8add d1bd d884 733d
00000360: e21c 623e 5894 8cbd faf6 f9bc df32 19be
00000370: 3017 a93d 15d2 2fbd 5cf8 1fbe eb0c ae3b
00000380: 2f1a d0bd 74f0 5c3d 49de f13d 6a6f 29bd
00000390: 145f 67bd 98f7 59bd ee15 68bd 6a08 5abe
000003a0: 5767 07be fef6 253e 27e7 a8bb 3846 6dbd
000003b0: 44a7 803d e51c 6cbe 4991 ca3e fa22 863d
000003c0: e73d c83d 0fb2 8cbc 69de d4bd c29b d7bd
000003d0: 700a d13d 7193 993e a0ee 403d 92e8 f13d
000003e0: 88a0 243e 9378 183d a40a a6bc b5ec db3d
000003f0: 9a2b 33bd 2709 063e a65c 03bc 929a 893c

attn_combine.bias f4 [100]
0.27152106 -0.35643643 -0.4839002 -0.27788988 -0.30498445 -0.20112617 -0.17188258 -0.29098123
-0.18413238 -0.1730724 -0.3798949 -0.37906334 -0.05257924 -0.42443082 -0.22319902 -0.28002635
-0.20802784 0.035800222 -0.14755821 -0.24967135 -0.4244366 -0.33615828 -0.22306824 -0.43780026
-0.24582633 -0.36825803 -0.24927308 -0.47538203 -0.14787987 -0.08540334 -0.07797903 -0.3956346
-0.5122589 -0.14682141 -0.34926185 -0.24212262 -0.17939338 -0.19403288 -0.18272515 -0.17652027
-0.3337752 -0.39052558 -0.27284357 -0.11866463 -0.22009015 -0.15118377 -0.15496169 -0.5165837
-0.401103 -0.13576831 -0.22979064 -0.18883847 0.113637924 -0.19704401 -0.30601224 -0.50851756
-0.28065914 -0.39488506 -0.16498516 -0.27628008 -0.2026311 -0.2919325 -0.33812994 -0.2734779
-0.32489064 -0.16057764 -0.25948215 -0.28992406 -0.20131652 -0.46447855 -0.2884098 -0.22655046
-0.42569348 -0.2709865 -0.21452066 -0.54420716 -0.44883898 -0.18848842 -0.53064686 -0.35962182
-0.24493666 -0.22217213 -0.11024594 -0.083446115 -0.277217 -0.38157043 -0.13676897 -0.35056835
0.10272905 -0.06668034 -0.19765636 -0.3375324 -0.17214154 -0.12842432 -0.1880233 -0.36250195
-0.4890615 -0.09125057 -0.46795133 -0.32667822
00000000: cf04 8b3e d67e b6be c4c1 f7be 9547 8ebe
00000010: ec26 9cbe 05f4 4dbe fd01 30be 7efb 94be
00000020: 338d 3cbe e439 31be 9681 c2be 9714 c2be
00000030: 545d 57bd ff4e d9be 498e 64be 9d5f 8fbe
00000040: 4005 55be 41a3 123d 8019 17be d9a9 7fbe
00000050: c14f d9be f01c acbe 006c 64be 5b27 e0be
00000060: e6b9 7bbe 518c bcbe 7141 7fbe 4665 f3be
00000070: d26d 17be f2e7 aebd 78b3 9fbd 9e90 cabe
00000080: 6623 03bf 5a58 16be 73d2 b2be feee 77be
00000090: e6b2 37be 8eb0 46be 4d1c 3bbe bbc1 34be
000000a0: 95e4 aabe f8f2 c7be 27b2 8bbe 7106 f3bd
000000b0: 505f 61be ebcf 1abe 47ae 1ebe d43e 04bf
000000c0: 5f5d cdbe d906 0bbe 3d4e 6bbe df5e 41be
000000d0: 00bb e83d e8c5 49be a3ad 9cbe 352e 02bf
000000e0: 8eb2 8fbe 602e cabe dff1 28be 9574 8dbe
000000f0: 877e 4fbe 2d78 95be 5e1f adbe 4c05 8cbe
00000100: 1158 a6be 776e 24be d8da 84be ed70 94be
00000110: eb25 4ebe 22d0 edbe 73aa 93be d8fc 67be
00000120: 7ff4 d9be bebe 8abe 4eab 5bbe 2951 0bbf
00000130: 39ce e5be 1c03 41be 79d8 07bf 5a20 b8be
00000140: add0 7abe 1781 63be a0c8 e1bd cce5 aabd
00000150: 63ef 8dbe 335d c3be 2a0d 0cbe b27d b3be
00000160: 9c63 d23d b48f 88bd 6e66 4abe 0cd1 acbe
00000170: df45 30be aa81 03be 2e89 40be db99 b9be
00000180: 4566 fabe 94e1 babd 5197 efbe 5e42 a7be

hidden_layer.weight_ih_l0 f4 [300, 100]
0.07207689 0.097050704 -0.07774033 -0.1844717 0.36840236 0.054202776 0.10932383 -0.39930263
0.0028741881 -0.1812921 0.021197842 0.07527771 0.29055205 -0.076886855 -0.26970172 -0.16035427
-0.1094782 -0.24889807 0.037363596 0.26087314 -0.26025066 -0.053194072 -0.06648677 0.6131431
0.071409486 -0.13194136 -0.19932342 0.23843138 0.08034392 -0.67511034 -0.04702044 0.039596986
-0.0030073521 -0.17458837 -0.59929943 0.056357052 0.09076828 0.5456926 0.027708825 0.08895325
-0.26549035 0.002835725 -0.0053067403 0.07879329 0.094242364 0.0036506082 0.061704427 -0.32747647
-0.3749262 0.18221901 -0.15444472 -0.025668725 -0.33077106 -0.3013758 -0.084081285 0.07690511
-0.41788113 -0.0401832 0.07911622 0.38115 0.3225054 0.18682438 -0.24595524 0.08960116
-0.13490173 0.2583928 -0.1616306 -0.35916942 0.051055603 -0.45912883 -0.3338004 0.35217622
0.04044964 -0.03199973 0.06982544 0.029079536 0.115007386 0.20999333 0.16973993 0.1257811
-0.27909243 -0.07115003 0.08237045 0.027733967 -0.016380506 0.08595903 0.11236162 -0.1457443
-0.18969774 -0.50281453 0.028899577 -0.02041423 0.18778919 -0.1922176 -0.17656253 0.17651351
-0.13477002 -0.04637945 -0.06680292 -0.2055357 0.23240495 0.03853003 -0.08513904 -0.15933833
-0.18328805 0.25173035 0.3043847 0.19764885 0.08088866 0.31532058 -0.039534174 0.5207138
0.6784064 -0.37169936 0.22349095 0.01315323 0.07034117 -0.11017554 -0.017023329 -0.025099795
-0.4564493 -0.06938806 -0.03053959 0.2458334 0.046408094 0.07303404 0.07797471 0.00019178154
-0.0013834779 0.7561183 0.15737934 0.013759125 0.36125898 0.67813796 -0.78232557 0.052709844
0.17409928 0.2434416 0.0139244255 0.06628524 0.3365963 0.091432326 0.16863637 0.0571573
0.07268491 0.13359253 -0.04172891 0.23231915 -0.14146538 0.35421222 -0.048625268 -0.2021413
-0.4589826 0.018977787 -0.0318909 0.33580053 0.122258805 0.07057889 0.03111985 -0.08256986
-0.61184967 0.38988426 0.17357954 -0.17700657 -0.11317157 0.1317708 -0.037941273 0.19720419
0.33522573 -0.5694719 0.0053503476 -0.0895843 -0.06684379 0.11591113 -0.106776096 0.14396736
2.844365e-05 -0.14774089 -0.19026658 -0.050761435 -0.081969395 0.23467329 -0.14740956 -0.020880828
0.058318324 -0.3439536 0.40528452 -0.10224828 0.50414515 0.18641765 0.10854649 0.32730582
0.17972466 0.5054805 -0.122914545 -0.1290363 -0.35515147 -0.13024995 -0.18796533 0.13869831
-0.688179 0.038204107 -0.16699201 -0.034165923 -0.27139965 0.03785457 0.16732353 -0.19033521
0.40716344 0.2639884 0.044110384 -0.086902134 0.1716871 0.2262097 0.2119659 -0.3508564
-0.03108313 -0.010795157 0.017947126 0.28515106 0.23215176 -0.09324353 0.044626016 -0.48365614
-0.008407206 -0.09592448 -0.029596308 0.061867908 0.054027192 0.1888537 -1.1057941 -0.14372744
-0.123676114 0.0700801 0.05857782 0.092327796 0.06716326 0.13905093 0.06515654 0.36467943
-0.20010757 0.042419408 -0.269647 -0.10045786 0.18508849 0.35100022 0.117864646 0.10010605
-0.031788602 -0.09023579 -0.18571125 -0.029610049 0.10649247 0.041299883 -0.1783353 0.079758555
00000000: 0c9d 933d 85c2 c63d 5236 9fbd 26e6 3cbe
00000010: 3c9f bc3e bb03 5e3d 2ce5 df3d 6571 ccbe
00000020: e05c 3c3b a3a4 39be 19a7 ad3c 332b 9a3d
00000030: 3dc3 943e db76 9dbd 5816 8abe e933 24be
00000040: 1b36 e0bd 23df 7ebe 920a 193d 2a91 853e
00000050: 933f 85be 07e2 59bd 372a 88bd f2f6 1c3f
00000060: 233f 923d a31b 07be 701b 4cbe 5b27 743e
00000070: 5a8b a43d 08d4 2cbf 8198 40bd 7330 223d
00000080: ff16 45bb 4bc7 32be b06b 19bf a7d6 663d
00000090: b8e4 b93d 83b2 0b3f 9efd e23c 1f2d b63d
000000a0: 5aee 87be 92d7 393b 2ae4 adbb 605e a13d
000000b0: 2402 c13d 0b3f 6f3b c8bd 7c3d ffaa a7be
000000c0: 54f6 bfbe 9f97 3a3e c226 1ebe 3847 d2bc
000000d0: d35a a9be ee4d 9abe cf32 acbd 6d80 9d3d
000000e0: 84f4 d5be 2497 24bd af07 a23d 1826 c33e
000000f0: 6e1f a53e e44e 3f3e b1db 7bbe d080 b73d
00000100: ae23 0abe 104c 843e 7e82 25be 0ee5 b7be
00000110: ae1f 513d ef12 ebbe e3e7 aabe 7150 b43e
00000120: 86ae 253d 2612 03bd a400 8f3d 3538 ee3c
00000130: fe88 eb3d 7e08 573e 4ed0 2d3e c3cc 003e
00000140: 34e5 8ebe 1bb7 91bd d7b1 a83d 5832 e33c
00000150: 6930 86bc 4a0b b03d d91d e63d fe3d 15be
00000160: 2040 42be 74b8 00bf cebe ec3c be3b a7bc
00000170: cf4b 403e b1d4 44be cfcc 34be f5bf 343e
00000180: 2701 0abe 61f8 3dbd f8cf 88bd f377 52be
00000190: 90fb 6d3e aad1 1d3d 615d aebd 9629 23be
000001a0: ddaf 3bbe cde2 803e 50d8 9b3e 7664 4a3e
000001b0: f4a8 a53d b371 a13e 96ee 21bd 804d 053f
000001c0: 0bac 2d3f 614f bebe d0da 643e a580 573c
000001d0: 080f 903d b7a3 e1bd 8274 8bbc 169e cdbc
000001e0: b9b3 e9be 541b 8ebd 2a2e fabc c0bb 7b3e
000001f0: 6a16 3e3d df92 953d 34b1 9f3d f718 4939
00000200: d155 b5ba f890 413f 0d28 213e f46d 613c
00000210: f0f6 b83e 739a 2d3f 7d46 48bf 47e6 573d
00000220: 1547 323e c148 793e 4623 643c 8ec0 873d
00000230: 5a56 ac3e df40 bb3d 03af 2c3e c61d 6a3d
00000240: d3db 943d 7bcc 083e efeb 2abd 12e5 6d3e
00000250: 4ddc 10be 4e5b b53e 4a2b 47bd 21fe 4ebe
00000260: c4ff eabe 4e77 9b3c 08a0 02bd 0cee ab3e
00000270: d362 fa3d aa8b 903d 0eef fe3c 631a a9bd
00000280: 2ea2 1cbf e99e c73e d6be 313e 3641 35be
00000290: 7fc6 e7bd edee 063e 4f68 1bbd e5ef 493e
000002a0: b5a2 ab3e e9c8 11bf f851 af3b f977 b7bd
000002b0: 66e5 88bd d162 ed3d 6dad dabd 2e6c 133e
000002c0: 469a ee37 6349 17be 3ed5 42be 39eb 4fbd
000002d0: 92df a7bd 324e 703e 88f2 16be 450e abbc
000002e0: 32df 6e3d b01a b0be 7481 cf3e 8c67 d1bd
000002f0: a80f 013f 45e4 3e3e 9f4d de3d a194 a73e
00000300: be09 383e 2c67 013f 9fba fbbd 1822 04be
00000310: 6ad6 b5be 3e60 05be fc79 40be ee06 0e3e
00000320: 802c 30bf e97b 1c3d f4ff 2abe 91f1 0bbd
00000330: e5f4 8abe 650d 1b3d dc56 2b3e 3ce7 42be
00000340: ba77 d03e 7d29 873e 17ad 343d bff9 b1bd
00000350: bece 2f3e 84a3 673e 970d 593e 73a3 b3be
00000360: 0ca2 febc 2cde 30bc da05 933c 52ff 913e
00000370: 31b9 6d3e 77f6 bebd c5c9 363d c7a1 f7be
00000380: 61be 09bc 0e74 c4bd f573 f2bc 3469 7d3d
00000390: 9e4b 5d3d dd62 413e a98a 8dbf 492d 13be
000003a0: e749 fdbd 2886 8f3d 4cef 6f3d 5b16 bd3d
000003b0: e48c 893d 5e63 0e3e cb70 853d 43b7 ba3e
000003c0: 00e9 4cbe f9bf 2d3d 2c0f 8abe dabc cdbd
000003d0: d687 3d3e 4db6 b33e 0563 f13d 6704 cd3d
000003e0: c434 02bd 8bcd b8bd 172b 3ebe c690 f2bc
000003f0: b918 da3d 112a 293d 879d 36be 7458 a33d

hidden_layer.weight_hh_l0 f4 [300, 100]
-0.16983098 -0.26460597 -0.16016349 -0.068139285 0.23433897 0.06415258 0.011185553 -0.085518934
0.2535124 -0.042072818 -0.06750426 0.2187873 0.17518674 0.7492428 0.0973186 0.27517906
-0.5829498 -0.31303376 -0.04023799 0.31038994 -0.5402259 0.16125067 -0.0071451645 0.07861186
-0.15692243 0.05120173 0.16151114 -0.24147269 0.06189952 -0.11567206 -0.44416368 -0.514182
-0.19488351 0.02315125 0.0036135826 0.47134504 0.050925955 0.2805111 -0.031066954 -0.0851572
0.19676551 -0.14050645 -0.12019666 0.029227883 -0.23321572 -0.13877058 0.13572918 -0.23574772
-0.12936303 0.7331959 -0.0027642213 -0.4093366 0.11706271 0.2868324 0.18236926 0.11968878
0.30467188 0.14952824 -0.19536912 0.14389388 -0.40390667 -0.062444817 0.13241713 -0.3793874
-0.4450413 0.4938881 -0.07363467 -0.16201746 0.12019298 0.33717343 0.16537653 0.05443249
0.040940985 0.19686544 -0.15808898 -0.19423822 -0.45333415 -0.6994479 0.0739496 0.2551316
0.3604889 -0.69825995 -0.47248974 0.6060442 0.7128304 0.4806091 -0.045072075 -0.30382147
0.8796765 0.1113075 0.15140206 0.14530548 0.20457788 -0.30426052 0.37164584 0.2250543
0.11671055 0.30780208 -0.7564863 -0.32692343 -0.03949839 -0.0058305147 0.2573259 -0.017081885
-0.20416741 -0.068496294 0.0023694339 -0.0428132 -0.02877822 0.25612146 0.2470882 0.67401314
0.43788627 -0.19246149 0.17709453 0.11768437 0.04426604 0.08449485 0.0041804365 -0.62752086
-0.13138671 0.052105524 -0.17943174 -0.09005385 0.11683084 -0.2251948 -0.22563492 0.3614151
0.1813391 0.64325064 -0.060881797 0.4364469 0.1846192 -0.009988946 -0.41058308 -0.018701335
0.1794492 -0.06514145 0.72973156 -0.0054718303 -0.25814626 -0.022686504 0.38495356 -0.0037257103
0.0009527211 -0.68173355 -0.28716555 0.1052059 0.100552335 -0.15671255 -7.898348e-05 0.060093045
0.049594957 -0.24016921 0.0040639094 -0.13166611 0.38142797 -0.03844745 0.3721239 -0.15004668
0.06592272 0.07451541 0.28676367 -0.25348526 -0.08375341 -0.17374502 -0.19743675 -0.45047188
-0.02857579 -0.26260668 0.15394112 -0.13589571 0.35720077 -0.030259645 0.35595098 -0.07151064
0.6067236 0.12329957 0.1552114 -0.008819807 0.055779774 0.39420336 0.08083628 0.06229096
0.22940522 -0.31740817 0.06210584 -0.015425188 0.237584 -0.27375716 -0.09956448 0.09885916
-0.18234329 0.28031087 0.32180843 0.13336907 -0.20245557 0.1477398 0.06430592 0.06518293
-0.017030245 -0.09606451 0.5204781 0.53154117 0.016671972 0.25312877 0.24039043 -0.61562294
0.036649268 -0.15511632 -0.0813191 0.31010777 0.18306246 -0.27144602 0.44540775 0.09266435
0.13989635 -0.23824438 0.16615988 -0.27664718 0.19479416 0.5451206 -0.17508952 -0.09065008
0.32486877 0.27697825 0.06287491 0.03078601 -0.16938259 0.5804216 0.12331865 0.5933146
0.36871725 -0.2084424 0.103382386 0.5595768 0.24868909 -0.07273918 0.09134535 0.25258595
0.094817735 0.013524784 -0.027594581 0.02914965 0.1047879 -0.65969104 -0.23207119 -0.0032500373
-0.142543 0.11674978 0.2364141 0.20874321 -0.1777011 -0.30304885 0.23142256 0.033782322
00000000: 2ce8 2dbe 6f7a 87be e601 24be 9c8c 8bbd
00000010: 8ef6 6f3e 6e62 833d 9c43 373c 8d24 afbd
00000020: 61cc 813e 8c54 2cbd ac3f 8abd c709 603e
00000030: 2764 333e 60ce 3f3f f94e c73d 45e4 8c3e
00000040: 333c 15bf f645 a0be 97d0 24bd 6eeb 9e3e
00000050: 3f4c 0abf e51e 253e fc21 eabb 41ff a03d
00000060: 46b0 20be e8b8 513d 2d63 253e 9e44 77be
00000070: 5a8a 7d3d 79e5 ecbd 6c69 e3be 6ea1 03bf
00000080: 8b8f 47be b1a7 bd3c dbd1 6c3b 2354 f13e
00000090: bc97 503d 279f 8f3e 2080 febc e666 aebd
000000a0: e67c 493e ece0 0fbe ab29 f6bd 506f ef3c
000000b0: 1ad0 6ebe e019 0ebe 97fc 0a3e da67 71be
000000c0: be77 04be bab2 3b3f f027 35bb 9194 d1be
000000d0: 93be ef3d b2db 923e 02bf 3a3e 641f f53d
000000e0: f4fd 9b3e ee1d 193e d80e 48be eb58 133e
000000f0: dbcc cebe 23c6 7fbd 5b98 073e 113f c2be
00000100: 74dc e3be e7de fc3e c6cd 96bd e8e7 25be
00000110: bd27 f63d ffa1 ac3e 7758 293e 9af4 5e3d
00000120: bcb1 273d 1897 493e 14e2 21be 62e6 46be
00000130: 6a1b e8be 040f 33bf e372 973d 9ca0 823e
00000140: 0092 b83e 2ac1 32bf 2dea f1be b625 1b3f
00000150: 0e7c 363f 6512 f63e 7f9d 38bd 7d8e 9bbe
00000160: 7b32 613f 30f5 e33d 2409 1b3e f6ca 143e
00000170: dd7c 513e 09c8 9bbe 5d48 be3e a274 663e
00000180: f105 ef3d 3c98 9d3e 16a9 41bf 8262 a7be
00000190: 10c9 21bd e70d bfbb 38c0 833e 4fef 8bbc
000001a0: 4311 51be c947 8cbd 8148 1b3b e55c 2fbd
000001b0: 4dc0 ebbc 5a22 833e b004 7d3e 208c 2c3f
000001c0: a132 e03e a014 45be 4558 353e 8104 f13d
000001d0: 4f50 353d a30b ad3d 0bfc 883b 35a5 20bf
000001e0: 3d8a 06be 9a6c 553d f4bc 37be 276e b8bd
000001f0: 0245 ef3d 7799 66be d70c 67be 660b b93e
00000200: f5b0 393e 13ac 243f 315f 79bd f875 df3e
00000210: d10c 3d3e ada8 23bc f237 d2be 8b33 99bc
00000220: 88c1 373e e168 85bd b0cf 3a3f 0a4d b3bb
00000230: bf2b 84be 0cd9 b9bc a218 c53e 0c2b 74bb
00000240: 08c0 793a 1786 2ebf 5d07 93be 3176 d73d
00000250: 62ee cd3d 4179 20be efa3 a5b8 2024 763d
00000260: 1524 4b3d ebee 75be 8b2a 853b 7bd3 06be
00000270: 874a c33e 137b 1dbd 0687 be3e d6a5 19be
00000280: 7e02 873d 899b 983d b0d2 923e d2c8 81be
00000290: e886 abbd 37ea 31be dc2c 4abe 40a4 e6be
000002a0: c617 eabc 6274 86be bea2 1d3e 3f28 0bbe
000002b0: 05e3 b63e 13e3 f7bc 353f b63e 2c74 92bd
000002c0: 3d52 1b3f 7c84 fc3d bdef 1e3e f480 10bc
000002d0: 5579 643d 06d5 c93e 7e8d a53d ce24 7f3d
000002e0: 34e9 6a3e 5383 a2be b162 7e3d edb9 7cbc
000002f0: 3849 733e e629 8cbe 76e8 cbbd ac76 ca3d
00000300: 33b8 3abe e884 8f3e 13c4 a43e e791 083e
00000310: 8350 4fbe 1a49 173e d2b2 833d a17e 853d
00000320: 0383 8bbc 78bd c4bd 0e3e 053f 1513 083f
00000330: a993 883c 189a 813e e928 763e 7799 1dbf
00000340: 8b1d 163d d0d6 1ebe a18a a6bd 72c6 9e3e
00000350: ba74 3b3e f9fa 8abe 7c0c e43e cfc6 bd3d
00000360: fd40 0f3e 56f6 73be d125 2a3e b3a4 8dbe
00000370: 1f78 473e 068d 0b3f ab4a 33be c0a6 b9bd
00000380: 3355 a63e 18d0 8d3e 90c4 803d f132 fc3c
00000390: a172 2dbe 8396 143f 7d8e fc3d 77e3 173f
000003a0: 82c8 bc3e ed71 55be 25ba d33d 6d40 0f3f
000003b0: 5aa8 7e3e 47f8 94bd 4513 bb3d f252 813e
000003c0: cd2f c23d 0e97 5d3c 080e e2bc 3fcb ee3c
000003d0: 0a9b d63d 83e1 28bf 12a4 6dbe 94fe 54bb
000003e0: cbf6 11be 821a ef3d 8a16 723e c8c0 553e
000003f0: 47f7 35be 3829 9bbe 09fa 6c3e 555f 0a3d

hidden_layer.bias_ih_l0 f4 [300]
0.042459045 0.12226636 0.0129239885 -0.02176582 0.11588992 0.13250141 -0.21058884 0.11463727
0.2608226 0.23293091 0.0038109128 0.039629266 0.072002344 0.08885085 0.26623726 -0.09333012
0.10881942 0.17597812 0.117288195 0.07262817 0.37220746 -0.01932603 0.247288 0.16632259
0.03979562 0.04348406 -0.074229956 0.17157605 -0.15032049 0.064741276 -0.06304312 0.14432143
0.011130591 0.18122546 0.23770614 -0.07392463 0.10585372 0.18179631 0.31442383 0.13728705
0.12805837 -0.04651702 -0.32122 0.4700898 -0.12290555 -0.043775562 -0.05396895 -0.085393265
0.31843343 0.108272135 0.28164718 0.18530962 0.32516998 -0.023950638 -0.46807763 0.06918009
0.09107204 -0.022578696 0.06880247 0.07772561 -0.0048251487 0.2959258 0.15682168 -0.19556908
-0.18233511 -0.07522268 0.38770577 0.017910548 0.06537434 -0.0606295 -0.042855408 -0.04212229
0.23408407 0.07347485 0.15089506 -0.16509333 -0.3039387 0.20264816 -0.10358332 -0.07717229
-0.057414494 -0.0069790008 -0.40203288 -0.06758736 -0.008455856 0.028271774 0.006124709 0.09111284
0.24488892 -0.06452091 -0.07729952 -0.37518188 0.025844544 0.12530081 -0.014854062 0.060765255
0.21045133 0.15506694 0.1394178 0.4155232 0.094816364 0.033082068 0.11593635 0.43281305
-0.23480584 0.11534497 -0.096358925 0.58655745 -0.18618062 -0.28405434 -0.4554143 0.3733857
-0.030714883 0.16292886 0.10124254 0.0414163 -0.028308704 0.018457396 0.8747152 0.2273248
-0.37888035 0.25722104 -0.63060474 0.082176015 0.16620092 0.17366897 -0.48207045 -0.033174608
0.12220041 0.45301533 0.116304666 0.66634434 0.21745221 -0.2739793 -0.10931747 0.06656711
0.2580508 0.42520556 0.54495716 0.19505529 0.62900937 -0.044772826 0.5096269 -0.353795
-0.29942364 0.12376379 -0.46547532 0.26815927 -0.36228928 0.09942003 0.27401632 -0.17133172
-0.3291122 0.2407131 -0.18509161 0.14530852 -0.29393202 0.31604823 -0.15302448 -0.17983265
0.33551657 0.29852557 -0.4195284 0.4475671 0.059986115 0.029000092 -0.27249977 -0.13129915
0.30647653 0.2837216 0.15545908 0.059377275 0.31532422 0.3387633 0.090430126 0.08317941
0.6495148 0.3141395 0.075378984 0.12900707 0.33679938 0.14817272 0.4165963 0.37225437
-0.27091542 0.15690222 -0.04315731 -0.006502458 -0.39296246 -0.24536186 -0.10622147 -0.49851358
-0.23221438 0.023067245 -0.15881868 -0.5325765 -0.32459986 0.23453265 0.20943768 -0.31215167
-0.54643637 0.0093477545 0.1937285 0.3898809 -0.15117833 0.32392767 0.2036734 -0.0390259
0.14066432 -0.10417695 -0.20493476 0.36806807 0.023983136 0.2264128 -0.08634011 0.32548395
0.15122177 -0.046626594 0.13465248 0.16031504 0.19572014 0.5207507 0.19178781 -0.24618803
-0.13896391 -0.043817196 -0.3698516 0.25659722 -0.039286785 0.12194547 -0.019207954 -0.09824447
-0.15436815 -0.060097337 0.20571965 -0.18996865 0.31231254 -0.22707474 0.4865291 0.1617103
0.16051881 0.73625296 -0.39258072 0.0861453 0.14102525 -0.01918867 0.113547385 0.30853465
0.03286348 0.3923722 0.26095104 -0.23519275 0.32480904 -0.5979307 -0.028666565 0.056478582
00000000: 89e9 2d3d c966 fa3d 23bf 533c 3c4e b2bc
00000010: b257 ed3d 73ae 073e 9aa4 57be f2c6 ea3d
00000020: 8a8a 853e 7185 6e3e 82c0 793b 4c52 223d
00000030: f775 933d 6ff7 b53d 4050 883e dd23 bfbd
00000040: b7dc de3d 9c33 343e cb34 f03d 14be 943d
00000050: fa91 be3e 9f51 9ebc 1139 7d3e 7850 2a3e
00000060: bb00 233d 571c 323d e005 98bd a2b1 2f3e
00000070: 9ded 19be 1397 843d c01c 81bd ffc8 133e
00000080: 155d 363c 2b93 393e 3d69 733e cc65 97bd
00000090: d6c9 d83d d028 3a3e 29fc a03e fa94 0c3e
000000a0: bc21 033e a188 3ebd f376 a4be 9caf f03e
000000b0: e8b5 fbbd 014e 33bd 8c0e 5dbd aae2 aebd
000000c0: b509 a33e c8bd dd3d 0f34 903e cec1 3d3e
000000d0: ae7c a63e 2134 c4bc dfa7 efbe 4bae 8d3d
000000e0: fa83 ba3d f5f6 b8bc 4fe8 8c3d 9b2e 9f3d
000000f0: 481c 9ebb 9683 973e dd95 203e 4343 48be
00000100: 0eb6 3abe 590e 9abd 5f81 c63e 24b9 923c
00000110: fbe2 853d a356 78bd 2789 2fbd 6c88 2cbd
00000120: bcb3 6f3e fb79 963d 3c84 1a3e 3a0e 29be
00000130: da9d 9bbe 0083 4f3e 7e23 d4bd 810c 9ebd
00000140: 762b 6bbd 1ab0 e4bb 41d7 cdbe 3e6b 8abd
00000150: 6e8a 0abc 359a e73c c8b1 c83b 5e99 ba3d
00000160: 29c4 7a3e 8a23 84bd 364f 9ebd d717 c0be
00000170: f0b7 d33c db4e 003e 745e 73bc fde4 783d
00000180: 8e80 573e dec9 1e3e 8ac3 0e3e 75bf d43e
00000190: 152f c23d 1081 073d 0970 ed3d ac99 dd3e
000001a0: f170 70be fc39 ec3d d457 c5bd a128 163f
000001b0: 22a6 3ebe 926f 91be 102c e9be 692c bf3e
000001c0: c79d fbbc d3d6 263e 4058 cf3d 23a4 293d
000001d0: a8e7 e7bc f733 973c 56ed 5f3f d5c7 683e
000001e0: 9bfc c1be 7ab2 833e 506f 21bf e64b a83d
000001f0: 9330 2a3e 47d6 313e f0d1 f6be 19e2 07bd
00000200: 3544 fa3d a0f1 e73e 2431 ee3d 8b95 2a3f
00000210: cbab 5e3e 0447 8cbe d6e1 dfbd 5654 883d
00000220: 3c1f 843e 8bb4 d93e 5082 0b3f 93bc 473e
00000230: c206 213f b663 37bd e976 023f 9e24 b5be
00000240: 0e4e 99be df77 fd3d c852 eebe 2c4c 893e
00000250: fb7d b9be bb9c cb3d de4b 8c3e 9571 2fbe
00000260: 6581 a8be 7f7d 763e a888 3dbe c2cb 143e
00000270: 427e 96be 13d1 a13e 73b2 1cbe 0d26 38be
00000280: d4c8 ab3e 58d8 983e 6dcc d6be 8427 e53e
00000290: 00b4 753d 9a91 ed3c 1785 8bbe 4973 06be
000002a0: 7eea 9c3e f543 913e aa30 1f3e 9635 733d
000002b0: 2d72 a13e 6272 ad3e 6e33 b93d f759 aa3d
000002c0: 9a46 263f e4d6 a03e 4c60 9a3d 6e1a 043e
000002d0: f870 ac3e 97ba 173e 1c4c d53e 2098 be3e
000002e0: 6db5 8abe faaa 203e b8c5 30bd 9212 d5bb
000002f0: 6032 c9be 2440 7bbe a48a d9bd 2c3d ffbe
00000300: 9bc9 6dbe 85f7 bc3c 5da1 22be ef56 08bf
00000310: f431 a6be 5429 703e d576 563e 58d2 9fbe
00000320: 41e3 0bbf 5327 193c c460 463e 789e c73e
00000330: 7ece 1abe d9d9 a53e c38f 503e 9fd9 1fbd
00000340: 4f0a 103e ba5a d5bd 6bda 51be 6b73 bc3e
00000350: 4878 c43c c2d8 673e 15d3 b0bd d5a5 a63e
00000360: e1d9 1a3e 87fb 3ebd 57e2 093e a029 243e
00000370: dc6a 483e eb4f 053f 0664 443e b718 7cbe
00000380: 8e4c 0ebe a979 33bd 305d bdbe b660 833e
00000390: 2eeb 20bd 8cbe f93d 005a 9dbc 6634 c9bd
000003a0: af12 1ebe a028 76bd 2ca8 523e 2487 42be
000003b0: 6ee7 9f3e 4886 68be 581a f93e 6397 253e
000003c0: 0b5f 243e 137b 3c3f 5700 c9be f26c b03d
000003d0: ec68 103e 8f31 9dbc 888b e83d 41f8 9d3e
000003e0: db9b 063d 02e5 c83e 609b 853e 5ed6 70be
000003f0: 5f4d a63e fd11 19bf 25d6 eabc 1656 673d

hidden_layer.bias_hh_l0 f4 [300]
0.072472416 0.13074322 0.074149966 0.03784215 0.252628 0.22737339 -0.25006223 0.09191685
0.12739648 0.052581348 0.011576618 -0.07674574 0.17062223 0.0303971 0.15362918 -0.14992979
0.068561114 0.3379517 0.21544576 0.037630085 0.3343414 -0.034853626 0.17648318 0.07938995
0.17002356 -0.028962485 -0.14378415 0.20800123 -0.18188518 0.06596472 -0.13297331 0.15906815
0.1647987 0.16747598 0.3271959 0.009717744 0.04638185 0.065686114 0.34775597 0.28393635
0.13208649 0.02203264 -0.1491791 0.52405834 -0.28984794 -0.09617654 0.0860631 0.007135
0.44243842 0.120589554 0.17278339 0.24323432 0.3296107 0.03340896 -0.52255857 0.13198891
0.06466825 -0.112273835 0.10463702 0.08489077 0.08007159 0.33007592 0.23597018 -0.077102534
-0.10834967 -0.10196811 0.34916458 -0.08579227 0.0048191356 -0.048405074 0.090013266 -0.06327156
0.42609394 0.05215392 0.025358675 -0.09132125 -0.2985624 0.11232173 0.06431894 -0.13864495
0.044174474 0.07387646 -0.27429563 0.1041078 -0.16173196 0.09950077 0.056918215 0.025199607
0.367015 -0.03541814 -0.040921852 -0.34820724 0.02188175 0.18018813 -0.043342147 0.03525309
0.24331899 0.116650976 0.04499889 0.3745072 0.090348534 -0.0910209 -0.07834316 0.30537784
-0.42909098 0.0972387 0.032142695 0.54343975 -0.116760686 -0.30799192 -0.32239485 0.43283266
-0.12170476 0.21059121 0.05705692 0.16352646 0.01026987 0.040402707 0.7605992 0.23716764
-0.29497606 0.2734144 -0.62940323 0.16761477 0.20526657 0.20600058 -0.50014395 0.037532702
0.16378053 0.44194123 0.08306652 0.8599923 0.1585184 -0.4170829 -0.24248044 0.12257617
0.15235299 0.5047985 0.53906447 0.17342201 0.5239328 -0.031055208 0.4175755 -0.3256463
-0.19538958 0.077427946 -0.45259944 0.31102496 -0.52017826 0.03546302 0.3607349 -0.1114112
-0.47391468 0.37619424 -0.27367097 0.18106788 -0.4404897 0.30607036 -0.074716054 -0.14682455
0.18276665 0.19864221 -0.5273055 0.45162433 0.04483934 -0.04704407 -0.25666055 -0.1353145
0.35824522 0.22770642 0.018481573 0.19779207 0.3549676 0.40778637 0.09180785 0.20356095
0.74206144 0.31483722 -0.03322073 0.11522066 0.3073001 0.17123522 0.41886806 0.42892134
-0.28048503 0.0058891727 -0.22096154 -0.05735598 -0.38477618 -0.3355487 -0.22896892 -0.49794975
-0.18871248 -0.06653654 -0.32077324 -0.42110348 -0.31427702 0.4040764 0.09317793 -0.21387573
-0.015698096 0.1649807 0.11862473 0.18824632 0.118300535 0.11429301 0.064948015 0.10085209
0.10748876 -0.10732855 -0.06261313 0.10511522 -0.07348391 0.22468334 -0.16894887 0.3725496
-0.021647142 -0.12482608 -0.10956143 0.06411441 -0.06605228 0.37732494 0.078855634 -0.13076846
-0.12108566 0.07325841 -0.23608209 0.7339447 -0.08286232 -0.02008076 0.09515686 -0.1900993
-0.24211037 0.16251932 -0.20703009 -0.14087847 0.25297812 -0.32110223 0.39587757 0.24422221
-0.11210674 0.3377302 -0.08292488 0.09580774 0.23425904 0.061236296 0.000101078615 0.37160832
0.13975105 0.040210694 0.17288111 -0.100407176 0.05286509 -0.19947231 -0.07746077 -0.060731757
00000000: 6b6c 943d 8de1 053e f0db 973d 5f00 1b3d
00000010: 7558 813e 92d4 683e 2808 80be e73e bc3d
00000020: 3974 023e 8a5f 573d dbab 3d3c df2c 9dbd
00000030: 98b7 2e3e 5703 f93c f850 1d3e 3287 19be
00000040: c569 8c3d 0108 ad3e d09d 5c3e 0122 1a3d
00000050: cc2e ab3e adc2 0ebd 02b8 343e 3397 a23d
00000060: a81a 2e3e bc42 edbc 273c 13be 46fe 543e
00000070: 1c40 3abe 8318 873d 282a 08be c3e2 223e
00000080: fec0 283e d37e 2b3e 3986 a73e 2c37 1f3c
00000090: e5fa 3d3d 7186 863d 120d b23e 1b60 913e
000000a0: ae41 073e cc7d b43c 68c2 18be b028 063f
000000b0: f366 94be 35f8 c4bd da41 b03d b8cc e93b
000000c0: 4a87 e23e a8f7 f63d 21ee 303e 6b12 793e
000000d0: bcc2 a83e d5d7 083d 66c6 05bf 1a28 073e
000000e0: ca70 843d d3ef e5bd ef4b d63d 36db ad3d
000000f0: 93fc a33d b6ff a83e 2ba2 713e efe7 9dbd
00000100: 6fe6 ddbd a8d4 d0bd b3c5 b23e dcb3 afbd
00000110: d7e9 9d3b 6644 46bd e058 b83d 8594 81bd
00000120: fc28 da3e 599f 553d ffbc cf3c a306 bbbd
00000130: 2cdd 98be ef08 e63d a6b9 833d f1f8 0dbe
00000140: 4bf0 343d 8b4c 973d 7a70 8cbe 7836 d53d
00000150: 109d 25be 0fc7 cb3d 1323 693d 686f ce3c
00000160: 64e9 bb3e 9d12 11bd ac9d 27bd 3848 b2be
00000170: 5b41 b33c 3d83 383e 8987 31bd 8b65 103d
00000180: 9d28 793e b5e6 ee3d c250 383d 68bf bf3e
00000190: a708 b93d 2a69 babd 6172 a0bd 7c5a 9c3e
000001a0: d0b1 dbbe 1525 c73d 0fa8 033d de1e 0b3f
000001b0: 3a20 efbd 1eb1 9dbe f010 a5be 3e9c dd3e
000001c0: 5840 f9bd 39a5 573e 84b4 693d 7b73 273e
000001d0: f542 283c 4f7d 253d a1b6 423f 13dc 723e
000001e0: 1a07 97be f9fc 8b3e 9220 21bf 35a3 2b3e
000001f0: 6631 523e d1f1 523e 6f09 00bf e4bb 193d
00000200: 15b6 273e 1f46 e23e c81e aa3d 7528 5c3f
00000210: a652 223e e48b d5be cb4c 78be 3709 fb3d
00000220: 6c02 1c3e 793a 013f 2100 0a3f 8a95 313e
00000230: 7620 063f 7e67 febc 75cc d53e 1dbb a6be
00000240: 3514 48be 8b92 9e3d 1dbb e7be aa3e 9f3e
00000250: 672a 05bf ac41 113d 3fb2 b83e 8e2b e4bd
00000260: f2a4 f2be 889c c03e 9a1e 8cbe dc69 393e
00000270: de87 e1be 41b5 9c3e bb04 99bd 2d59 16be
00000280: 2e27 3b3e dd68 4b3e 7efd 06bf 4e3b e73e
00000290: 75a9 373d 48b1 40bd 0369 83be e28f 0abe
000002a0: eb6b b73e df2b 693e ab66 973c 018a 4a3e
000002b0: 50be b53e 60c9 d03e c105 bc3d 4872 503e
000002c0: bdf7 3d3f 5832 a13e 7612 08bd cff8 eb3d
000002d0: 7056 9d3e 4958 2f3e e075 d63e 949b db3e
000002e0: bc9b 8fbe f6f9 c03b be43 62be 1bee 6abd
000002f0: 6201 c5be 0acd abbe d476 6abe 45f3 febe
00000300: d83d 41be 4f44 88bd 643c a4be e09a d7be
00000310: ebe8 a0be 1ae3 ce3e 12d4 be3d 3d02 5bbe
00000320: 4b99 80bc b3f0 283e 86f1 f23d a5c3 403e
00000330: 8d47 f23d 7412 ea3d 7703 853d 8a8b ce3d
00000340: 1123 dc3d 12cf dbbd 503b 80bd a646 d73d
00000350: bb7e 96bd 6413 663e ef00 2dbe d2be be3e
00000360: 5955 b1bc d1a4 ffbd be61 e0bd 6a4e 833d
00000370: 6b46 87bd bc30 c13e 107f a13d 2be8 05be
00000380: c2fb f7bd 8108 963d 81bf 71be cde3 3b3f
00000390: b8b3 a9bd 6880 a4bc 9ae1 c23d 64a9 42be
000003a0: c8eb 77be 776b 263e b2ff 53be 7242 10be
000003b0: 5986 813e 8367 a4be 77b0 ca3e 6315 7a3e
000003c0: 3898 e5bd f9ea ac3e 85d4 a9bd d936 c43d
000003d0: 9ae1 6f3e e9d2 7a3d 2bfa d338 7243 be3e
000003e0: e61a 0f3e f8b3 243d bf07 313e 47a2 cdbd
000003f0: 1189 583d 7842 4cbe c1a3 9ebd ddc1 78bd
