models/gru_oracle_decoder.pt (torch_old, 65641 bytes, 7 tensors)

embedding.weight f4 [8, 50]
000000 0c bc a0 3f f0 e9 62 bf 7a 73 b9 bf b0 d2 b2 ba
       1.2557387 -0.8863821 -1.4488366 -0.0013643112
000010 1e 43 b6 bf a6 93 3f be 6c f2 01 bf 6a b9 e5 3f
       -1.4239233 -0.18708667 -0.5076053 1.7947209
000020 6e 4f 27 bf 2f 15 2a 3e 3d db 8b be 68 34 0e bb
       -0.65355575 0.16609643 -0.27315703 -0.0021698717
000030 72 85 9d 3f fc 38 ee ba f2 50 53 3d 20 4f 16 3e
       1.2306349 -0.0018174942 0.051590867 0.14678621
000040 f2 15 62 3f 16 e7 10 be f5 9a 98 bd e8 c8 ad bf
       0.88314736 -0.14150652 -0.07451431 -1.3576937
000050 e1 1e 9b bb c6 ed cb bf 03 c7 f0 bb 41 09 74 bf
       -0.0047339057 -1.5931938 -0.007347943 -0.9532662
000060 31 5e e1 3f a1 3f cf bd 10 a7 73 bb b7 c7 27 bf
       1.760687 -0.10119558 -0.0037178434 -0.65539116
000070 21 31 b9 be be 86 0b 3f c2 fc df bf 7b cf f8 be
       -0.36170295 0.54502475 -1.749901 -0.48595795
000080 fa 8b 0f 3e fc f8 21 3f 1a 14 a0 bb 21 8c b1 bf
       0.1401824 0.63270545 -0.004885209 -1.3870889
000090 f3 dd 98 3f 1e 6b 8e be e9 02 ea be 12 84 2a bf
       1.1942734 -0.278161 -0.45705345 -0.66607773
0000a0 0e 5a 1d 3f 29 57 c9 3f e1 8a df 3e 75 e6 2a 3f
       0.6146554 1.5729724 0.43660644 0.667579
0000b0 8a 46 8d bb 1d ae dd bb a4 4d c7 3d f3 56 77 ba
       -0.0043113874 -0.0067651407 0.09731606 -0.00094352587
0000c0 2d cf 55 be 09 a0 f8 bf fe 00 6c 3f d1 7c cd 3e
       -0.20879813 -1.9423839 0.92189014 0.4013429
0000d0 6f 95 0c 3f aa dc 2b 40 00 36 0d 3e 36 99 e4 3f
       0.5491552 2.6853433 0.1379013 1.7859256
0000e0 3d e4 a2 3e 56 5b 7e 3f 44 a2 f2 be ae e2 e6 bf
       0.31814757 0.9935812 -0.47389424 -1.8037927
0000f0 ce 50 ee bf e2 b7 b0 be 3b 6a dc 3f c7 76 c3 3e
       -1.861841 -0.3451529 1.7219919 0.38176557
000100 5e 51 2f 3e f5 be 30 be 33 fa 84 be 0d b3 84 3f
       0.17120883 -0.17260344 -0.25972137 1.0367142
000110 d7 df ac bf ac a0 93 3e 72 e8 00 be b3 3f e3 be
       -1.350581 0.2883352 -0.12588671 -0.44384536
000120 5c 1a 1b 3f bb c8 b6 3d 8d 7e a6 bf d4 9b a4 bf
       0.60587096 0.08925005 -1.300737 -1.2860055
000130 dd b1 d6 bd 1c df 06 bf 43 7d 09 40 f6 95 3a bf
       -0.104831435 -0.5268419 2.1482704 -0.7288507
000140 ab 31 87 3f 54 9f aa bf e2 b6 8c 3f 10 c0 86 bd
       1.0562032 -1.3329873 1.0993311 -0.06579602
000150 93 a2 6a 40 5c 0e 08 bf da 8c 32 3e 69 7c 19 be
       3.6661727 -0.5314691 0.17436543 -0.14988865
000160 04 a5 5f be f3 b8 72 3e 1b 34 44 bd be f2 56 bf
       -0.21840292 0.23703365 -0.047901254 -0.83964145
000170 b5 4e 30 bf 3b 71 39 3f 08 50 d6 be ac a4 53 3f
       -0.688701 0.724384 -0.41857934 0.82673144
000180 94 66 06 3e 6e f4 56 3f 64 20 29 bf de 22 9c 3e
       0.13125068 0.8396672 -0.6606505 0.30495352
000190 2a dc da ba 0b e7 86 bf e3 b2 32 be d4 d0 93 bb
       -0.0016697694 -1.0539259 -0.17451052 -0.0045109782
0001a0 d9 ae 95 be 1f 0e 6d 3f 7c 9b 08 3f 82 42 80 3e
       -0.2923496 0.9259967 0.5336225 0.2505074
0001b0 d8 04 af bf 9c bc 03 bb a2 47 8b bb 2c 1b 32 3e
       -1.3673353 -0.0020101434 -0.0042504827 0.17393178
0001c0 5e 6a 77 3e 1e 8d 02 bf 51 bf 11 3f 4e 15 00 bf
       0.2416167 -0.5099658 0.5693255 -0.5003251
0001d0 f8 eb 36 bf 1b 21 74 3e 37 03 52 be 4f 40 7d bd
       -0.7145381 0.23840754 -0.20509039 -0.061828908
0001e0 86 c5 d3 be d0 ae ea bb 92 10 0c bb a3 8f 7e bf
       -0.41361636 -0.0071619526 -0.0021372181 -0.9943792
0001f0 f5 3f e1 3d 3d f0 6c be 40 d0 ff bb 2a 9f df be
       0.10998527 -0.23138519 -0.0078068078 -0.4367612
000200 f1 c5 0d bb 19 5b b3 3d 3b ee 1e bb 81 9f 81 ba
       -0.0021632875 0.0875761 -0.0024250883 -0.0009889455
000210 d4 22 83 3e 28 a1 74 bf 67 a7 8b 3f fc 01 d5 3e
       0.2561251 -0.95558405 1.0910462 0.41603076
000220 f7 ba 60 bf 61 ce cc 3e 7d 2f a7 ba 0e 27 15 bb
       -0.87785286 0.40001205 -0.0012755241 -0.0022758874
000230 c6 d2 8a bf 89 9f 5b bb f2 cb 6b bf 7e 5f 77 3f
       -1.0845573 -0.0033511838 -0.9210807 0.96630085
000240 65 2d 14 bf 09 9c 21 ba e9 48 de 3e d7 f2 98 3d
       -0.57881767 -0.00061649136 0.43415 0.07468193
000250 9e 98 7d bd 85 3a f6 3e c0 bd b3 bf 61 a7 60 3f
       -0.061913125 0.48091522 -1.4042282 0.877554
000260 28 1f 50 bb 96 a2 17 bc 98 ce b8 ba 7d 06 01 c0
       -0.0031756852 -0.009255072 -0.0014099656 -2.016021
000270 1a a6 8c 3f 3c 23 4c bf ee ad 3f 3e 89 85 0b bf
       1.098819 -0.79741263 0.18718693 -0.54500633
000280 22 24 93 bf f4 16 c4 bf f8 a0 30 be a0 ab 82 bf
       -1.1495402 -1.5319505 -0.17248905 -1.0208626
000290 43 6a 2b be 7c cf 20 bb 75 2e e7 3e 58 f9 b5 bf
       -0.16739754 -0.0024537733 0.4515263 -1.4216719
0002a0 ed bb 04 c0 2b 6a 6c bf 12 54 29 3f c0 bb 47 bb
       -2.07397 -0.923495 0.66143906 -0.0030476898
0002b0 03 a9 d8 bb 60 3c 1e bf 9b 94 8c bd b6 7e e3 3e
       -0.0066119446 -0.61810875 -0.06864282 0.4443261
0002c0 57 7a 99 ba 1b 68 f2 bf 1c 5d 11 c0 02 60 9c bf
       -0.0011709434 -1.893802 -2.271308 -1.2216799
0002d0 21 64 03 bf 81 8b 08 bc d3 a1 b6 bd 80 ca 32 3f
       -0.5132466 -0.008334042 -0.08917584 0.6984024
0002e0 e1 52 a8 3e 1a 30 b7 bf dd 18 c8 be b4 54 56 3f
       0.32875732 -1.4311554 -0.3908147 0.83722997
0002f0 47 eb 57 bf f3 ea cb bc 60 b0 88 bb d5 60 2e bf
       -0.8434338 -0.024892306 -0.004171416 -0.68116504
000300 0d 27 2a 3e a7 b0 f5 3e 8b a4 b8 bb f4 60 87 bf
       0.16616459 0.47986338 -0.0056348494 -1.0576463
000310 b2 27 d0 be ce 39 43 bb 0d 11 35 bc 0f 40 e9 3f
       -0.40655285 -0.0029789093 -0.0110514285 1.8222674
000320 76 09 01 bf 93 57 83 bb df 71 f1 ba d9 63 ef bf
       -0.5040506 -0.0040082424 -0.0018420777 -1.8702346
000330 60 9b a4 bf 99 f0 0f 3f 86 77 a9 bf f6 fe 2e be
       -1.2859917 0.562265 -1.3239601 -0.17089447
000340 46 68 7e 3e 71 3a 16 bf 2e 3e e4 bf fc 3a 92 bf
       0.24844465 -0.58682925 -1.7831476 -1.1424251
000350 24 3d 30 3f f8 01 c7 bb 87 7e 01 3f a4 8d 9c bf
       0.68843293 -0.0060732327 0.5058369 -1.2230725
000360 71 50 f7 bf b0 06 dd bf e8 3b 90 bf 26 44 a2 bf
       -1.9321424 -1.7267666 -1.1268282 -1.2677047
000370 d3 54 6c be 5e 5a ca bd b5 cd ed ba 92 be 19 3e
       -0.23079233 -0.098805174 -0.001814297 0.15014103
000380 bd d4 71 be 70 e1 93 3e be 94 66 bf 95 a3 6a 3e
       -0.2361631 0.28882933 -0.9007071 0.22913964
000390 0c 35 c4 bf 42 18 17 bf cc b8 80 bf 9b b2 9a 3e
       -1.5328689 -0.5902139 -1.0056396 0.3021439
0003a0 cb 5d 61 3e c1 c6 a4 bf 81 64 a6 bb 30 a7 88 bf
       0.22008435 -1.2873155 -0.005077899 -1.0676022
0003b0 8f cc 00 c0 6a 14 84 be 45 8a ca bf 51 b1 0e 3f
       -2.0124853 -0.25796825 -1.5823447 0.55739313
0003c0 76 de 01 bf de c8 89 be 6c 13 11 be 40 d1 8d 3f
       -0.50730073 -0.26911062 -0.14167565 1.1079483
0003d0 17 bf d9 be fd ba 0c 3e 84 0c 10 3f 2b bf 25 bf
       -0.42528602 0.13743205 0.562691 -0.64744824
0003e0 f3 58 bd bf 72 f0 8c 3f 99 83 99 bf 34 98 5f 3f
       -1.479277 1.1010878 -1.1993285 0.8734162
0003f0 4f 29 d9 bb f9 fb e1 ba 9b 98 9f b9 db d7 9f be
       -0.006627239 -0.0017241231 -0.00030440543 -0.31219372

hidden_layer.weight_ih_l0 f4 [150, 50]
000000 d3 fd 30 be 66 10 66 3f 1c b2 a5 3e 33 4c 28 3f
       -0.17284326 0.8986877 0.3236245 0.6574127
000010 96 57 61 3f 7b 9b f0 3d 7b c2 cf 3d c9 8c eb 3d
       0.8802427 0.117484055 0.10144516 0.11501462
000020 22 3f 51 3e 1a 3b 34 3f 98 99 0b 3d 7a f2 06 3f
       0.2043424 0.7040268 0.034082025 0.5271374
000030 4f 66 76 3e 18 d9 1c 3f 74 ee 3d 3e 11 c5 87 3f
       0.24062465 0.6126876 0.18547994 1.0607015
000040 82 11 73 3e eb cd ac be 64 1c 54 3f cd b1 e4 3d
       0.23737147 -0.33750853 0.8285582 0.11166725
000050 3b a7 39 bd e4 f5 29 3d 08 e0 25 3f c1 6f 02 3e
       -0.0453255 0.041494265 0.6479497 0.12737943
000060 2f f1 8c bb 2b 90 39 3f 84 17 88 3e 13 69 fb 3d
       -0.0043012123 0.7248561 0.2658044 0.12275901
000070 dc a3 3e bd 43 c9 33 be af 55 0d 3f e4 0b 68 3e
       -0.046542987 -0.17557244 0.5520887 0.22660786
000080 99 93 33 3e 0d f9 aa 3e fa 25 88 be 4a a2 31 be
       0.17536773 0.33393136 -0.26591474 -0.17347065
000090 f4 73 62 3f dc e2 61 3d ff 2b 2e be 8a ca 7c 3e
       0.8845818 0.05514799 -0.1700897 0.24686638
0000a0 2c 84 40 3f 9d 59 80 3f f7 b0 04 3f 3d b0 b6 3c
       0.7520168 1.0027348 0.51832527 0.022300834
0000b0 a4 3c 93 3e eb 6b 41 3f 15 6f 12 3d 6e 9d 42 3f
       0.28757203 0.75555295 0.035750467 0.7602147
0000c0 2e fb 85 3f 18 f1 69 3e 03 79 ad 3c 79 70 5b 3c
       1.0467279 0.22845876 0.021175867 0.013393515
0000d0 4c ad 6f bc 6e 83 13 3e 19 57 d8 bd 7f dc 8e 3e
       -0.01462872 0.14405605 -0.105634876 0.279026
0000e0 cd 0f fb 3e 3d f6 5d 3e 6c b1 d0 3d 01 db 0d be
       0.49035493 0.21675964 0.101900905 -0.13853075
0000f0 9f 2e 5e 3e 4b 92 df 3d 29 8d 2a 3d 43 50 88 be
       0.21697472 0.10916575 0.041638527 -0.26623735
000100 08 37 3b 3e c4 94 68 be 2e e2 02 3f 82 cc 70 3e
       0.18282712 -0.22713 0.5112637 0.23515514
000110 31 7e 42 bd 3c 4b aa 3b d9 9e 1a 3e 15 84 4e 3e
       -0.047483627 0.005196957 0.15099658 0.20167573
000120 e8 7d ef bd 3c 99 4c be 5b 80 a5 3c 1a af 8b bc
       -0.116939366 -0.1998033 0.020202806 -0.017051268
000130 a8 e3 9b 3c 66 f4 92 be 1a 07 7f 3e f8 b6 0c 3b
       0.019029453 -0.28702086 0.24905053 0.0021471363
000140 c1 71 1b be 1a 83 54 be 2c 59 66 3e ba 0e 96 3d
       -0.15180112 -0.20753136 0.22494954 0.073270276
000150 de 90 d5 3e a6 b1 71 3e ea 01 89 be 82 37 c1 3e
       0.41712087 0.23602924 -0.26759273 0.37737662
000160 c3 9d 37 3e c6 07 98 3d 5b c1 59 be 68 0d 71 bc
       0.17931275 0.07423358 -0.21265166 -0.014712669
000170 7b c5 b4 bd 1c ae d5 3d 7b b6 86 be 39 5b 56 be
       -0.08826729 0.10433599 -0.26311097 -0.20933236
000180 d2 6d d7 3d 51 8d 1f be 0d 91 88 be 21 5f 5a 3e
       0.105189934 -0.15581252 -0.26673165 0.21325351
000190 0d 7a 2f 3e 68 bd df 3e 32 75 ab 3e 59 1c ab 3d
       0.17136402 0.43699193 0.3348785 0.08355016
0001a0 72 70 ac 3e 0e 27 91 3c 48 4e ae 3e 57 c4 76 3e
       0.3367954 0.017718818 0.340441 0.24098335
0001b0 77 7e 34 3e 5c e8 84 3d fd a4 64 3d 2c 32 ad 3d
       0.17626368 0.064896315 0.055821408 0.08456835
0001c0 e6 fe 82 3c b2 b8 44 3e 6e 5f 04 3e cd 4f 10 3e
       0.015990686 0.1921108 0.12927029 0.14092942
0001d0 54 e1 10 3f 5e ea 62 3e ce 57 d2 3e a4 68 b6 bd
       0.56593823 0.22159716 0.41082615 -0.08906677
0001e0 ae b5 5d bc 6a c6 04 3e ba 96 e8 bc e5 81 fc bc
       -0.013532085 0.12966314 -0.028392185 -0.030823657
0001f0 0b 6a 68 3e c5 e3 7a 3e 9b 7d 46 3d be da ee bd
       0.22696702 0.2450095 0.04845963 -0.116628155
000200 b2 01 d4 3d df cb ac 3e 1e 9c 8a 3e ee ce dd bc
       0.10351886 0.3374929 0.27072233 -0.02707621
000210 de 3e c9 bd 03 69 1d 3f df 29 46 3d 9f a8 3c 3e
       -0.09826444 0.6148836 0.048379775 0.18423699
000220 27 5a b9 3e 10 81 96 3e 83 03 68 3e 0f 07 3b bd
       0.36201593 0.29395342 0.2265759 -0.04566103
000230 1c e4 9f bd f9 7b 5f 3e 8d 5b c9 3e d4 f6 c6 3d
       -0.0780718 0.21824636 0.3932766 0.097150475
000240 47 db 3e 3d e5 f9 8c ba 92 2e c9 bd e0 63 e1 3e
       0.046595838 -0.0010755627 -0.09823336 0.4402151
000250 92 7d 8b 3d 8f 7d 88 3e 41 4d bb 3e 3d b4 1e 3e
       0.0681106 0.26658294 0.36582378 0.15498443
000260 22 15 94 3e 17 4d 4f 3e f2 47 03 3f 6d e1 bc 3e
       0.28922373 0.20244251 0.51281655 0.36890736
000270 87 e3 41 be ca c5 b4 3e 36 dc 8b bd 95 26 ec 3f
       -0.18934451 0.3530715 -0.06829111 1.8449274
000280 35 d9 0f 3f 92 b2 f8 3e a1 75 98 3e b0 2f 87 3f
       0.56190807 0.48573738 0.29777244 1.0561428
000290 49 a2 b3 3e 5c a5 e8 3e ff 9e e0 bc 7b 12 5d 3d
       0.3508475 0.4543866 -0.027419565 0.053972702
0002a0 e2 25 8f 3f eb ff cc 3e 39 bf 44 bd 92 f3 31 bc
       1.1183436 0.40039 -0.048033927 -0.010861294
0002b0 ef 23 b4 3d 69 6a bf 3e f9 52 21 3f 98 d3 a4 3d
       0.08795916 0.37385872 0.6301723 0.08048171
0002c0 f8 b6 86 3d d1 5c ad 3e 4d e8 8e 3e d9 1d a6 3e
       0.06577867 0.33859876 0.27911606 0.32444647
0002d0 54 fb 9f 3f cd 1f ec 3e 44 07 b4 3e 41 6f 1e be
       1.2498574 0.46118012 0.35161793 -0.15472127
0002e0 8b a3 6a 3e af d9 3c 3d 44 ad a9 3f f9 c1 32 3d
       0.22913949 0.046106037 1.3256001 0.043642018
0002f0 f8 e6 9c 3e 3f 43 3e 3e 10 fb 18 3f a5 e9 ce 3f
       0.30644965 0.1858034 0.5975809 1.6165053
000300 e8 67 9e bd 61 31 86 3e f8 30 60 3f c4 2f 08 3f
       -0.07734662 0.26209548 0.8757472 0.53197885
000310 7e 5c 32 3e 98 dd 9c 3f 01 f1 d1 3f 10 c6 87 bd
       0.17418095 1.2255125 1.6401674 -0.06629574
000320 30 4f 33 3f d6 1b ed be 62 16 66 be 2e 40 c0 3d
       0.70042706 -0.463103 -0.22469476 0.09387241
000330 47 3a 55 be 32 86 82 bc cc 47 9d be e0 d6 00 3e
       -0.20823012 -0.01593313 -0.3071884 0.12581968
000340 74 2b df bd bf 7a 44 3e b5 1d 08 3e 21 fe 5e be
       -0.1089696 0.19187449 0.13292582 -0.2177663
000350 ff fa 30 3e 0f c2 97 3e 26 85 c3 be 05 f9 6f be
       0.17283247 0.29640242 -0.38187522 -0.23434837
000360 4b 88 8a 3e 3e c6 df 3d 6f fa b1 be 2a b3 86 be
       0.27057108 0.109264836 -0.34761378 -0.26308566
000370 01 21 af bd fe 27 c4 bd 91 95 9b be 1c 83 4f be
       -0.08551217 -0.095779404 -0.30387548 -0.20264858
000380 99 97 fc 3e 46 71 79 be 2a 22 b0 3e d0 cb 27 be
       0.4933441 -0.24359617 0.34401065 -0.16386342
000390 3b 97 9a 3d 20 f0 9d 3e 9f 65 99 be aa 2e df bd
       0.07548376 0.30847263 -0.29960343 -0.10897572
0003a0 7a f9 2e 3e f5 95 12 3e fc 69 45 3d 8f b9 bc 3d
       0.17087355 0.14315017 0.048196778 0.0921508
0003b0 40 8b 3b 3f 30 55 78 be 6f cd 6c 3e 5e f4 5d be
       0.73259354 -0.24251246 0.23125242 -0.2167525
0003c0 5e cd 3e 3e 3d 0e 73 3e 66 08 33 3e 1c 04 89 bd
       0.18633029 0.237359 0.17483672 -0.06690237
0003d0 0a 5e 39 be f5 50 6f be a7 f1 ea 3d 03 85 c2 be
       -0.1810228 -0.23370726 0.11471873 -0.37992105
0003e0 2c 72 e3 bd 1c 07 38 bd f6 ce c8 3d 7e c1 e4 3e
       -0.11105761 -0.044928655 0.098051 0.44678873
0003f0 d8 64 4e 3e 51 5c 4d be 48 38 a9 3c 61 fd 74 be
       0.20155656 -0.20054747 0.02065672 -0.23924781

hidden_layer.weight_hh_l0 f4 [150, 50]
000000 5c d0 59 3e 5e 38 dd 3e 4e 6b 62 bd 97 59 8f 3e
       0.21270889 0.43207067 -0.055278115 0.2799804
000010 e4 b6 59 3e ed 9e 3a bd 87 74 b7 3e 3d cb 54 3e
       0.21261173 -0.04556172 0.3583109 0.20780654
000020 fe 02 fa be 66 a0 e2 bc b2 60 c8 3b 06 dd b8 bd
       -0.48830408 -0.027664375 0.0061150426 -0.09026532
000030 68 3a 24 3f 07 8a af 3d 0b 38 0b be f6 03 a0 be
       0.6415162 0.085712485 -0.13595597 -0.31253022
000040 5a be c5 3e 1e ec 2c 3e 58 ca 76 3e f0 4e 00 3e
       0.3862179 0.16886947 0.24100626 0.12530112
000050 8e fb 97 3d 45 62 02 bd 80 65 28 bf a2 d9 1f 3d
       0.07421027 -0.031832 -0.65779877 0.03902591
000060 6c 8a 28 bd 43 3b 5a be 88 c6 4e 3e 2e 3a 6f 3e
       -0.041147634 -0.21311669 0.20192921 0.23362038
000070 52 b5 0d 3f 2e 21 f1 3c 1a 11 c0 be 83 f3 ae 3e
       0.553548 0.029434767 -0.37513047 0.3417016
000080 f3 14 0f 3e eb b2 97 bd ed b7 96 3e 6e 8e fa be
       0.13972835 -0.07407173 0.294372 -0.4893679
000090 5c 60 69 3d f8 80 b4 3c 12 69 57 bf d0 55 1b 3f
       0.05697666 0.022034153 -0.841447 0.60677814
0000a0 d6 dc 32 bf af 4f a3 be db 44 19 3d 0b 93 4a bd
       -0.6986822 -0.3189673 0.03741918 -0.049456637
0000b0 ab 4a f0 3c 43 08 b0 3d ce 45 04 3d dd a2 c2 bc
       0.02933248 0.08595326 0.032293133 -0.0237593
0000c0 65 f5 80 3e 9d 7c 3f 3c 01 2b ab be c7 b0 96 bc
       0.2518722 0.011687425 -0.33431247 -0.01839484
0000d0 73 9d 23 3e 06 7b 85 3e 9b 18 76 3e d9 1b 2a bd
       0.15978031 0.26070422 0.24032824 -0.041530464
0000e0 c1 96 27 3f 38 8c 90 be d2 a3 24 be f3 e3 43 3e
       0.6546441 -0.28231978 -0.16078117 0.19129924
0000f0 ee fd 9c be 69 d8 22 3e b7 e8 24 3d 0e 70 3b 3f
       -0.30662483 0.15902866 0.040260997 0.73217857
000100 39 da da 3e 07 34 dd be ec 7b bb 3d 53 93 1e 3d
       0.42744616 -0.43203756 0.091544956 0.038714718
000110 fd 43 16 3f 3c ad 43 3f 06 50 c8 bd 43 af f8 3d
       0.5869749 0.7643621 -0.09780888 0.121428035
000120 89 80 17 bd c5 4d 0a be 55 95 e4 be f2 16 9d bd
       -0.036987815 -0.13506229 -0.4464518 -0.07670392
000130 3f f0 2a be 51 05 b6 3e ad 84 5f 3f 2c 99 51 be
       -0.16693209 0.3555093 0.8731182 -0.20468587
000140 43 67 eb 3e eb 41 1a 3e ba 62 a6 bd a5 10 68 be
       0.4597722 0.15064208 -0.08124299 -0.226626
000150 38 5f b2 3b d0 9b fb be f7 d7 1c be eb 87 a1 be
       0.00544348 -0.49142313 -0.15316759 -0.3154901
000160 56 ba 2c be e6 58 99 3f f2 76 ea bc dc 5f ed be
       -0.16867957 1.1980255 -0.02862117 -0.46362197
000170 05 50 1e 3c bd 37 d3 bc 27 14 63 3e 38 a2 8c 3e
       0.009662633 -0.025783414 0.22175656 0.27467513
000180 89 f7 07 3f 63 f9 6d be d0 a0 41 be aa c7 c4 3e
       0.53112084 -0.23239665 -0.18909001 0.38433582
000190 99 ad 04 bf aa bd c1 be a3 d7 29 bf 9d 0c 9a be
       -0.5182739 -0.37840015 -0.6634466 -0.30087748
0001a0 bc 72 45 bd 53 96 c0 be 48 75 d8 3e 10 9c 36 3f
       -0.048205122 -0.37614688 0.42276978 0.7133188
0001b0 5d e0 fa 3c e3 f7 ee bd ad 41 fa bb 26 ab 2c bd
       0.030624563 -0.116683744 -0.0076372237 -0.042155407
0001c0 e6 d4 ca 3d 2d 10 3d 3e 14 0c bb bd 25 75 8a be
       0.099038884 0.18463202 -0.09133163 -0.270425
0001d0 fd be 35 be 50 be aa 3d d9 d6 42 be e9 49 51 3d
       -0.17748637 0.083370805 -0.1902727 0.051095877
0001e0 16 7d a4 be 42 17 54 be dd 4f 2d 3e 37 dd d2 bd
       -0.32126683 -0.20711997 0.16924997 -0.102961
0001f0 18 2c a8 be 07 72 1c 3d 71 a0 85 bf 56 37 8e 3e
       -0.3284614 0.038194682 -1.0439588 0.27776593
000200 52 9b 90 be ef e4 b6 3e 87 c6 8d bf 9c 1d 24 3e
       -0.282435 0.35721537 -1.1076211 0.1602692
000210 4c 1a a3 3e a2 28 f6 bd 3e 83 a8 be 3b 16 a7 bb
       0.31856 -0.12019469 -0.3291263 -0.0050990856
000220 c1 d8 94 3e 40 00 b1 3e 59 f6 81 bd 1b d5 82 3e
       0.2907162 0.34570503 -0.06345815 0.25553212
000230 c9 a6 49 3d be 7f 0a bd 2c 6b 8d 3e e5 58 0d 3f
       0.049231324 -0.03381323 0.27620828 0.5521377
000240 75 62 c8 3d a8 fe e4 bc ab e4 84 3f 62 d9 e6 3e
       0.09784404 -0.02795346 1.0382284 0.45087725
000250 0e fd c9 bd 4f 1c 84 bf 62 31 a1 be 3b 32 9e 3e
       -0.098627195 -1.0321139 -0.3148299 0.30897698
000260 30 e1 02 bf 23 e3 35 3d c1 dd 8c ba 5d c5 81 be
       -0.5112486 0.044406068 -0.001074724 -0.2534589
000270 5b 3b d5 3e f1 29 10 bd 91 ee 46 be f1 84 39 3e
       0.41646847 -0.03519625 -0.19426943 0.1811712
000280 ee df 9c 3e 83 98 5c 3d 34 76 11 3e bc 32 97 3e
       0.30639595 0.053856384 0.14205247 0.29530895
000290 e6 b6 61 3e 1e 74 30 bf 9c 9d 58 3d 57 f1 97 be
       0.22042426 -0.6892718 0.052884683 -0.29676315
0002a0 8d 80 8b bc 72 c6 35 3e b3 be b1 3e 33 37 41 be
       -0.017029071 0.17751482 0.34715804 -0.18868713
0002b0 f8 ea 20 be 2e 22 ca 3e e4 b7 c5 3c 89 fd df bc
       -0.15714633 0.39479202 0.024135537 -0.027342575
0002c0 45 57 2b be 47 2d fc 3c 11 18 98 be 95 a1 5a 3d
       -0.1673251 0.030783309 -0.2970586 0.053376753
0002d0 b6 97 40 be 3b 25 4a be bd 9e 25 bd 8c bb dd bd
       -0.18807873 -0.19740765 -0.040434588 -0.10826787
0002e0 2b a2 38 be 7f 96 f3 be b4 b5 21 3f 11 2e f6 3c
       -0.18030612 -0.47575757 0.6316788 0.030051263
0002f0 87 6a 7e bf 5d 62 a9 3e 04 e6 f9 be 60 14 d6 be
       -0.993813 0.33082858 -0.488083 -0.4181242
000300 51 d0 7c be 0f 36 61 3e 7c 8b 12 3f 12 da eb be
       -0.24688841 0.21993278 0.57244086 -0.46064812
000310 db d2 1a be 83 18 8b be 14 9a b5 be cf 93 15 be
       -0.15119497 -0.27167138 -0.35469115 -0.14607166
000320 b0 45 ba 3e 41 d9 b2 3e eb 34 fe bd fb 48 e7 be
       0.36381292 0.34931377 -0.12412437 -0.45172867
000330 24 dc 1d bf e0 7e a5 be 03 2d 6d 3e de e5 57 3e
       -0.6166403 -0.3232336 0.23161702 0.21083781
000340 ec 24 eb 3e 5f 17 2b 3e 04 17 1c be b9 0b c2 3e
       0.45926607 0.16708134 -0.15243155 0.3789957
000350 03 8b a4 be cc 5d 86 3e 57 31 cc bd d8 26 c5 be
       -0.32137308 0.26243436 -0.09970348 -0.38506198
000360 97 a3 99 be af 5e 30 bf 20 84 c6 be 44 7e ca 3e
       -0.30007622 -0.68894476 -0.38772678 0.39549458
000370 e9 7e 47 3e c0 ce 13 bf 36 1c b7 3d 90 94 a6 be
       0.19482006 -0.5773735 0.08940928 -0.3253522
000380 f2 3d 14 bf 6f 03 94 3e 49 35 e6 3d 10 c1 40 be
       -0.5790702 0.2890887 0.11240632 -0.18823647
000390 cd c0 c4 3d 88 da b1 be 08 d1 b1 be 11 b7 09 bf
       0.09607086 -0.3473704 -0.3472979 -0.5379496
0003a0 8f eb 59 be 55 a1 2b bd 4c d6 19 bf 35 ad 0c be
       -0.21281265 -0.041901905 -0.60092616 -0.13737948
0003b0 e3 b8 b8 3e 66 7f 5a 3e a0 44 76 be e3 21 3b be
       0.36078557 0.21337661 -0.24049616 -0.18274646
0003c0 93 d0 cf 3e 13 66 13 3e 16 fa 82 bd 6b 31 9c be
       0.40588817 0.14394407 -0.06395356 -0.30506453
0003d0 b5 88 46 3f a1 7a f0 bb ab fa f0 bc 6c c9 1e 3e
       0.7755235 -0.0073388373 -0.029416403 0.15506524
0003e0 81 4b 18 be 3a 79 78 3e ae 1e fd be 23 d0 78 bf
       -0.14872552 0.24264994 -0.4943747 -0.9719259
0003f0 da 53 08 3e 6f d6 13 bf d0 a3 1f be 5c 1c 8a be
       0.13313237 -0.57749075 -0.15589833 -0.2697476

hidden_layer.bias_ih_l0 f4 [150]
000000 48 de ae 3e 34 db 25 3d e8 d4 e8 3d 82 75 97 3e
       0.34153962 0.04049225 0.11368734 0.2958184
000010 3a 09 34 be ee 37 aa bb 7c 5c 3a 3d 45 e4 f4 bc
       -0.17581645 -0.0051946556 0.045498356 -0.029894004
000020 0e 48 88 3d f2 43 6f 3e 74 2f a5 3e 26 88 7b 3e
       0.06654368 0.23365763 0.32262766 0.24563655
000030 2b 13 34 3e 32 4a 21 be c7 db d4 3e b2 27 4b 3e
       0.17585437 -0.1575096 0.41573927 0.19839361
000040 c4 de ca 3c dd 20 c5 3e e4 9c 6f 3e a2 ab 86 3e
       0.024764426 0.38501635 0.23399693 0.2630282
000050 01 50 fe 3c fe 8e 78 3e b0 67 88 3e 9a e0 4e 3d
       0.031044008 0.24273297 0.26641607 0.050507165
000060 b2 51 ab 3d f8 43 c7 3c 48 be 94 3e 3a fe 90 3e
       0.083651915 0.024324402 0.29051423 0.2831896
000070 e3 82 a7 3e 35 73 67 bd 56 05 8e 3d 8b 58 69 be
       0.32717046 -0.056506354 0.069346115 -0.22787683
000080 dc 57 29 3e 49 80 fd 3d 00 40 87 3e 62 78 78 3f
       0.16537422 0.12377984 0.26416016 0.9705869
000090 c7 2f 78 bc a4 dd b2 3e b9 60 10 3e 92 14 8c 3e
       -0.01514811 0.34934723 0.14099397 0.27359444
0000a0 dc ce d0 3d 82 85 9e 3e 5f 34 22 3e 60 4c 0c 3e
       0.10195705 0.30961233 0.1584029 0.1370101
0000b0 5b 81 51 3d 8f 63 12 bd a1 5a 8f 3e a4 33 05 bb
       0.051148754 -0.035739478 0.27998832 -0.002032497
0000c0 8a 57 84 be 11 65 fc 3d bc 80 b7 bd e2 a1 1b 3f
       -0.25848037 0.123239644 -0.08960101 0.6079389
0000d0 fa 77 47 3e fc a8 39 be 1a 44 f8 3d 6b 0c 03 bf
       0.19479361 -0.18130869 0.12122364 -0.51190823
0000e0 eb 60 9a 3e 49 54 07 3e d0 7e 3a 3d a5 9f 4d be
       0.30152068 0.13215746 0.045531094 -0.20080431
0000f0 56 8a 9a 3e 0b 45 86 3d e8 21 bd bd 89 f3 87 be
       0.30183667 0.06556138 -0.09234983 -0.2655299
000100 40 e2 52 3e 91 fe d6 3e 62 2d a8 3e 12 da 09 bd
       0.2059412 0.41991094 0.32847124 -0.033655234
000110 e3 6d 1b 3e dc 0f bc 3d 24 43 a2 3e 9d 0d 1f 3e
       0.15178637 0.091827124 0.3169185 0.15532537
000120 92 cc 17 bd 7f 0d be 3e 01 b4 ae 3d c8 38 bb be
       -0.037060328 0.37119672 0.08530427 -0.36566758
000130 3d 49 81 3d f7 0f f2 3e b5 61 b6 3d d0 f1 0b 3f
       0.06312797 0.47277805 0.08905355 0.5466585
000140 5f 03 07 3e f7 17 2c 3e 37 df b6 3c 07 58 15 be
       0.1318488 0.16806017 0.022323234 -0.14584361
000150 8f bb 8b 3e d0 60 21 3f f7 d0 02 bf ae 4d 32 3d
       0.27291533 0.6303835 -0.51100105 0.043531112
000160 cd 9a 9e 3e a6 b2 e4 3e 5c 4d 9d 3e a1 78 88 3e
       0.3097748 0.44667548 0.30723083 0.26654533
000170 60 74 89 3e ff 19 15 bf 0a 93 03 bd 03 1a ae bc
       0.268466 -0.5824279 -0.03212265 -0.021252638
000180 69 ea 1a be db 01 46 3e 8f 56 f4 bd 96 3c 05 3e
       -0.15128483 0.19336645 -0.11930572 0.13011393
000190 1d ff 9f be 5c 41 94 3d 81 5f a4 be 81 2a 5f be
       -0.31249323 0.07239029 -0.32104114 -0.21793558
0001a0 94 e1 7d be 65 2c 3a be 10 4f 4a 3e bc 45 14 bd
       -0.24793082 -0.18180998 0.19756722 -0.036199316
0001b0 00 a3 cf be ad 36 ae 3d 3d c9 8b 3d 57 23 23 3e
       -0.40554047 0.08506522 0.068254925 0.1593145
0001c0 b1 3e 81 3c 01 c4 9e bd 5d c6 ba 3d 1c 25 3c 3d
       0.015776964 -0.077522285 0.09119866 0.045933828
0001d0 cc 2e 64 3d 25 81 7b bd 82 a9 a8 bd 33 81 fd 3e
       0.05570869 -0.06140246 -0.08235456 0.49512634
0001e0 00 de 75 3c fa 6b 1e be 42 ee 1b 3b 87 b6 bd bd
       0.015006542 -0.15470877 0.0023793136 -0.0926333
0001f0 69 b7 bd be d6 54 8c 3d 6a bb 65 be d7 e0 bc 3e
       -0.37053993 0.06852119 -0.22434774 0.3689029
000200 6f c5 83 be a0 48 ce be 2b 94 d7 bd b1 b6 8a be
       -0.25736567 -0.40289783 -0.10526308 -0.27092507
000210 3c 2d ba be c4 cc 66 3c 87 0d d0 be 5c 25 7d 3c
       -0.36362636 0.014086906 -0.4063532 0.015450802
000220 c2 e5 57 3e af 07 61 3e 85 c8 0c 3e 0e e3 19 3e
       0.2108374 0.21975587 0.13748367 0.1502802
000230 d4 b8 aa 3d 2a fc 1f be 2c 11 3e 3a 4b bb 99 bd
       0.083360344 -0.15623537 0.00072504836 -0.075064264
000240 d5 fa f8 3e 25 e3 83 bd 71 b2 10 3e 9b 84 0f bd
       0.4862887 -0.06439809 0.1413057 -0.03503857
000250 dd a6 04 be 8d aa a5 bd
       -0.12954278 -0.080891706

hidden_layer.bias_hh_l0 f4 [150]
000000 de 67 6b 3e fb 12 1c 3e de da 51 3e 0a f0 cf 3e
       0.22988841 0.15241615 0.20493647 0.40612823
000010 13 0f 95 be 36 09 a2 3c 9f 01 a0 3d c1 a7 d7 3d
       -0.29113063 0.019779783 0.07812809 0.105300434
000020 b3 f5 06 be 3a 60 87 3e d8 90 c5 3e 7f 0e 75 3e
       -0.13179664 0.26440603 0.3858707 0.23931311
000030 db 36 30 3d b2 ad 60 be dd 7e c0 3e ca f6 26 3e
       0.043021064 -0.2194126 0.3759679 0.1630508
000040 d7 77 8a 3d 8b ea a3 3e 88 e3 ac 3e c2 b9 53 3e
       0.06761139 0.3201488 0.33767343 0.2067633
000050 c2 56 ba 3d 2c 5c 0b 3e 8e f8 83 3e 6d 18 0d 3e
       0.09098579 0.1360938 0.2577557 0.13778849
000060 c3 67 4c 3e ad 9f 2e 3c 2a ca 19 3e 28 52 aa 3e
       0.19961457 0.010658187 0.15018526 0.33265805
000070 aa 5c f2 3e 7f 88 af 3c 07 4a 57 3e cf d2 96 bd
       0.47336322 0.021427391 0.21024333 -0.07364427
000080 be 54 74 3e 86 69 3c 3e 5e d8 98 bb 35 59 66 3f
       0.23860452 0.18399629 -0.004664465 0.8997987
000090 56 cb 75 3e 13 d4 f3 3e 79 d5 b3 3d 20 89 99 3e
       0.24003348 0.47622737 0.08780951 0.2998743
0000a0 62 6c 08 3e 6b d2 13 3e 2c d3 bf 3e f3 27 cd 3c
       0.13322595 0.14435737 0.374658 0.025043463
0000b0 c5 c5 9c 3d 19 50 ea 3d 04 5a 44 3e 0e 0f 13 3e
       0.07654909 0.11441059 0.19174963 0.14361212
0000c0 fb e9 73 be 24 4e 0e 3e fc 6c 41 be 7b 12 07 3f
       -0.23819725 0.13896996 -0.1888923 0.52762574
0000d0 0f 6c 66 3e 1f d1 81 bd 7d a4 d6 3c 4c 14 3a bf
       0.22502159 -0.06338715 0.026201481 -0.7268722
0000e0 96 85 98 3e 61 ac 91 3e e7 e5 4d bd f5 d1 76 be
       0.29789418 0.28451827 -0.05026808 -0.2410353
0000f0 bc 56 7b 3e b6 c4 78 3e 11 ed 0a be 9a 0e f8 be
       0.24544805 0.2429379 -0.13566996 -0.4844864
000100 26 29 8e 3e 7e 17 45 3e 64 21 4d 3e 90 f5 89 3d
       0.2776577 0.19247243 0.20032269 0.067362905
000110 ec 12 7e 3e 82 94 6d 3e 03 27 21 3e f3 1b 84 3e
       0.24811906 0.23201182 0.15737538 0.25802574
000120 1a e3 4c be 31 28 bc 3e 03 40 6e 3d 6a a9 50 be
       -0.20008507 0.36749414 0.058166515 -0.20377126
000130 3f 05 dd bd c1 76 fc 3e 74 c3 f5 3c cb 79 2f 3f
       -0.10792016 0.49309352 0.030000426 0.68545216
000140 0b f8 c3 3d 96 3c f1 3d f4 b7 1c 3d 9d ab 22 be
       0.09568795 0.11779134 0.03826137 -0.15885778
000150 dd ce 14 3e b9 a9 09 3f 69 9a 39 bf 1a 63 01 3e
       0.14532037 0.537746 -0.72501236 0.1263546
000160 eb a4 9f 3e 08 96 d2 3e d4 ad cb 3e 17 95 b3 3e
       0.3118051 0.4113009 0.39781058 0.35074684
000170 9a 4e b2 3e ad 18 15 bf 3b aa 53 be c7 aa f3 3d
       0.34825593 -0.5824078 -0.20670407 0.118978076
000180 fc 2c 0a bd 81 c3 49 3c 5b 65 c4 bd 6e 2f 8d 3e
       -0.033734307 0.012314678 -0.095896445 0.27575248
000190 dc 33 9a be fa 81 34 ba e0 43 6f be 56 58 79 be
       -0.3011769 -0.0006885823 -0.23365736 -0.24350104
0001a0 ed 6b d9 bd 47 ea 9f be e8 ef 9c 3e c7 25 14 3e
       -0.10616288 -0.31233427 0.30651784 0.14467536
0001b0 c4 57 85 be 35 62 e4 bd 68 f6 03 be 76 d0 39 3e
       -0.26043522 -0.11151544 -0.12886965 0.18145928
0001c0 59 44 77 3e 5c fb ed bd 90 f7 14 3e c4 c2 61 be
       0.24147166 -0.116202086 0.14547563 -0.22046953
0001d0 66 9f a3 3b 93 bb 1f 3e 2a b7 f8 3c 47 32 c9 3e
       0.004993367 0.15598898 0.030360777 0.3929617
0001e0 17 fe 1c 3e ab af ac bd 38 7d 34 bd 5e d9 ad be
       0.15331303 -0.084319435 -0.04406473 -0.339549
0001f0 9c 2b 21 be b7 61 06 bc 4a 6b cf be 45 14 f7 3d
       -0.15739292 -0.008202008 -0.40511543 0.12064413
000200 e5 29 aa 3d a2 11 07 be 10 d0 ae 3c 5d 66 9b be
       0.08308772 -0.1319032 0.021339446 -0.30351534
000210 16 85 31 bf 34 7f 11 be a3 b3 63 be a1 45 e7 bd
       -0.693437 -0.1420868 -0.22236495 -0.112925775
000220 2a 27 5e 3e ce 95 4c 3e e6 21 23 3e d7 c3 d9 be
       0.21694627 0.19979021 0.159309 -0.42532226
000230 f1 9a 3b 3d c6 cd 4c be 63 b4 2b bd 4a 56 9e 3e
       0.04580206 -0.20000371 -0.041920077 0.30925208
000240 c0 5e fa 3c dc 06 ff 3d a7 ac 96 3e 2b 33 e1 bd
       0.030562758 0.1245248 0.29428598 -0.10996088
000250 80 ed 80 be 35 df ff bd
       -0.25181198 -0.12493745

out.weight f4 [8, 50]
000000 a5 fd 64 bf ac 1f 1b bf 61 1c 79 3f ec e2 9e 3e
       -0.8944953 -0.605952 0.9730893 0.31032503
000010 3f 97 50 bf 67 74 e5 3e 37 7d 49 bf 35 31 49 bf
       -0.81480783 0.4481537 -0.7870669 -0.7859071
000020 ec 1b 22 40 13 f1 7e bf af 28 f2 3e ca be d3 3f
       2.5329542 -0.995866 0.47296664 1.6542599
000030 29 58 ea bf 08 61 b7 3e 35 a7 a6 bd cb c1 88 3f
       -1.8308154 0.35816216 -0.08137361 1.0684141
000040 a0 85 be bf 92 30 52 bf 42 5e 2c be 79 40 80 bf
       -1.4884529 -0.8210536 -0.16832832 -1.0019675
000050 03 ed d8 bf 0a 71 7c 3f 88 26 15 40 6f 31 5a 3b
       -1.694733 0.98609984 2.3304768 0.0033293625
000060 0c 9d 7c 3f b1 ae 92 3f cf d5 8c bf c8 35 d3 be
       0.98677135 1.1459562 -1.1002749 -0.4125197
000070 e7 b0 10 3f cc ec 1b be 61 e8 95 3f 2a 6c 07 bf
       0.5651993 -0.1522705 1.1711541 -0.5289942
000080 be dc c2 3f a4 fc a1 bf f6 8f da 3e ce 43 1b bc
       1.5223615 -1.2655225 0.42687958 -0.009476615
000090 d0 e2 6a bd c6 4d 21 bf f6 d5 f1 3e 47 fe fc 3e
       -0.05734521 -0.630093 0.47233552 0.49412748
0000a0 73 3a 84 3c de d3 1d 40 aa da bf bf 70 98 bd bf
       0.016141152 2.4660563 -1.4988606 -1.4812145
0000b0 f7 08 c7 be 81 4c dd bf 40 70 50 3c 05 0b ee bc
       -0.38874027 -1.7288972 0.012722075 -0.029057989
0000c0 9f 28 76 3e a5 95 c4 3d 62 84 1c 3f 6a 14 7e bf
       0.24038933 0.09598855 0.611395 -0.992499
0000d0 43 ce 45 be 2d 91 cb be 93 f2 54 bf 88 d3 38 bf
       -0.19316964 -0.39759198 -0.8318264 -0.7219777
0000e0 1d 82 ea 3e 3b 05 98 3e cc 4b 15 40 e0 79 7b bd
       0.45802394 0.2969149 2.3327513 -0.061395526
0000f0 4a 47 1f bf 8b 47 bb be a8 a7 e6 be 0c 88 60 bc
       -0.62218153 -0.3657802 -0.45049787 -0.013704311
000100 48 48 5b be f0 41 95 bd 9f 82 e2 3d 4b 80 16 bf
       -0.21414292 -0.07287967 0.1106007 -0.5878951
000110 6e 3a aa be 01 42 43 3f 4a 05 0a 3f 0f e9 85 bd
       -0.33247703 0.7627259 0.5391432 -0.06538593
000120 8c 71 d7 3e ef e2 0d 3e 22 25 5b be 11 c6 74 3d
       0.42078817 0.138561 -0.21400884 0.059759203
000130 74 37 b2 3e eb 14 69 be 29 12 14 bf 52 52 28 3f
       0.34807932 -0.22761886 -0.5784021 0.6575061
000140 74 1f ec 3d e1 f1 47 bf e1 19 be bd 07 91 b7 be
       0.11529437 -0.7810345 -0.0928228 -0.35852835
000150 f0 a8 fd be 9b ce 26 be 38 bd 06 3f d4 9c a1 3e
       -0.49542952 -0.16289751 0.52632475 0.31564963
000160 0f 4f 19 bf ad e5 ed be a8 43 78 3e 5d 51 19 40
       -0.5988626 -0.4646429 0.24244559 2.395591
000170 89 00 1e bd 46 24 c3 3e b7 57 fc 3d 88 14 4d 3e
       -0.03857473 0.38113612 0.12321418 0.20027363
000180 ce e6 d2 be df 72 2c be ab 79 f6 be ee 41 1e 3f
       -0.41191715 -0.16840695 -0.481397 0.6181935
000190 23 7d f0 bf 58 7c 11 3f 70 0b 64 c0 9d ca 80 be
       -1.8788189 0.5683036 -3.563198 -0.25154582
0001a0 fb 97 d6 3e 18 b6 c7 3f 55 0f 7a 3e 7c 50 49 bf
       0.41912827 1.5602446 0.24419911 -0.78638434
0001b0 f4 74 26 bf 49 11 48 3f 83 ca 31 bf 83 3c ac bf
       -0.65022206 0.78151375 -0.69449633 -1.3455967
0001c0 bf 06 25 bf 45 bd a8 bf 9a 55 8e 3f aa 26 ed bc
       -0.6446342 -1.318276 1.1119874 -0.0289491
0001d0 96 75 59 3f a6 30 87 be e7 6a 90 be 3e 65 b2 3d
       0.84945047 -0.26404303 -0.2820656 0.08710717
0001e0 62 12 c1 bf 6e 01 a5 3e 25 7e 22 40 0d 4f 76 3e
       -1.5083735 0.32227653 2.5389493 0.24053593
0001f0 f2 11 40 3f 79 1b a5 be 30 ac a6 3f 03 50 2c bd
       0.7502738 -0.32247522 1.3021297 -0.042068493
000200 c9 ce 65 3f 6d 2c 45 3f d8 f2 be 3b b5 6b 4a 3f
       0.89768654 0.77020913 0.005827289 0.790706
000210 94 9d 9d 3e c8 fa c2 3c 36 96 47 3e 97 32 5a be
       0.30784285 0.023801222 0.19490895 -0.21308361
000220 c6 4e dc bf aa 3b 33 3e 70 bd ea 3e 13 d8 c3 3e
       -1.721154 0.17503229 0.45847654 0.3825079
000230 6d 86 5e bf 31 21 ad be 15 de 15 3f fa db 2e bf
       -0.8692387 -0.33814386 0.58541995 -0.6830441
000240 b0 a7 91 3f c9 b0 21 3f fa a3 bc be 58 13 fc 3d
       1.1379299 0.6316038 -0.36843854 0.12308377
000250 e1 62 1e 3f 23 25 ab bf 8a 7f 75 3f 61 c6 db 3d
       0.6186963 -1.3370708 0.95897734 0.10731197
000260 2a c0 b6 3f 5a 75 13 40 10 9c 29 3e fb 4d ad 3e
       1.4277394 2.3040376 0.1656344 0.33848557
000270 55 12 e7 3d 74 67 09 40 9a 53 8c 3e d0 d3 10 3f
       0.112827934 2.1469393 0.27407533 0.565732
000280 ba 39 87 be b6 62 c8 bf 9c 20 a9 3b f0 9b cd bf
       -0.2641123 -1.5655124 0.005161358 -1.6063213
000290 f3 3e a2 bf 37 8c 0b be b9 ba 84 3e af bf 5d bf
       -1.267546 -0.13627706 0.25923708 -0.8662061
0002a0 fb 7b 18 ba 36 40 46 bd 7e 44 8f c0 6d 29 ca 3e
       -0.00058168144 -0.04840108 -4.477111 0.3948473
0002b0 1c 04 ab bf 66 d8 a6 be 9b 03 7a bf 75 3e 32 bd
       -1.3360629 -0.32586974 -0.9766175 -0.043516595
0002c0 72 1d d7 bf bd 49 16 3e ab 5c 39 3f 6e f7 a6 3e
       -1.6805861 0.14676566 0.72407025 0.3261065
0002d0 a3 6a f8 3e 0c 2b 66 3d c3 0b f4 bd 6d e6 fc 3c
       0.48518857 0.056193396 -0.11916306 0.030871594
0002e0 a6 24 b9 be e9 74 d9 3d 40 60 f8 bf 64 23 43 be
       -0.36160773 0.10618002 -1.9404373 -0.19056469
0002f0 43 23 7c 3e 18 9c 69 bd 7d 82 d4 be 20 17 60 be
       0.24622826 -0.05703363 -0.41505805 -0.21883821
000300 a9 fe cf 3e a4 d9 9a bf 00 7c 5f 3f 5f ff 9c 3f
       0.40623978 -1.2097669 0.87298584 1.2265433
000310 93 0b e8 be 04 e7 59 3d e3 35 0d 3f 86 44 29 bf
       -0.4532133 0.05319883 0.5516035 -0.66120183
000320 ce b5 c3 3e d9 32 40 be 51 3f 85 3e d5 f1 aa 3e
       0.38224643 -0.18769397 0.2602487 0.33387628
000330 cd 6e cc 3e 03 b4 9c 3f 3d 20 ff 3c 07 b6 d1 bf
       0.39928284 1.2242435 0.031143302 -1.6383675
000340 a0 b5 9e be 83 7b 46 3f 13 1e d7 be e6 74 99 40
       -0.30997944 0.77532214 -0.42015132 4.79552
000350 04 a7 65 bd 64 c5 a3 bf 58 62 e9 bf ee fe 72 bd
       -0.05606748 -1.2794614 -1.8233137 -0.05932515
000360 07 49 06 3f 51 2b e3 be b0 51 4b be 30 c1 01 be
       0.5245518 -0.44368985 -0.1985538 -0.12671351
000370 65 9c e0 3f d4 53 09 be 2c 0f 0c bf 13 6b 66 3e
       1.7547728 -0.13410884 -0.5471065 0.22501783
000380 bf 4f 4e 3f 99 19 f3 be 19 57 97 3f d1 da 7c 3c
       0.8059043 -0.47480467 1.1823455 0.015433029
000390 e6 90 6b 3f 63 96 cb 3e aa 2e b1 bd 2b 7e 94 3e
       0.9201797 0.39763173 -0.086514786 0.2900251
0003a0 fb 5e 66 3f 31 53 1d 3e 36 8b 4a 3f 51 e2 48 3d
       0.8998868 0.15363766 0.7911867 0.049043957
0003b0 a7 45 0c c0 43 82 1a 3e 24 2e d6 3e 27 f9 be 3e
       -2.1917512 0.15088753 0.41832078 0.37299463
0003c0 e1 30 d8 3d 39 02 cb be e8 0d ff bf 55 ec bc bf
       0.10556198 -0.39650133 -1.9926119 -1.4759623
0003d0 59 88 47 3f ee 98 49 3f 23 85 04 3d 4d f1 51 bf
       0.77942425 0.7874898 0.03235353 -0.8200882
0003e0 89 44 96 bf 0f 0f 81 bf 1f 5c 08 3d 25 81 21 3e
       -1.1739665 -1.008272 0.03329098 0.15771921
0003f0 06 24 11 be 20 09 df be 67 16 6d 3d 14 17 cb bf
       -0.14173898 -0.4356165 0.057882693 -1.5866418

out.bias f4 [8]
000000 a5 2a a2 c0 8f 9f d2 be 03 47 c5 3e e2 99 cf bd
       -5.0677056 -0.4113736 0.3853074 -0.10136773
000010 b3 08 b1 be 13 6c 26 3e de 53 a0 be 7c 67 02 3f
       -0.3457695 0.16252165 -0.31313986 0.50939155
