models/gru_oracle_encoder.pt (torch_old, 65142 bytes, 5 tensors)

embedding.weight f4 [15, 50]
000000 72 a6 9f be 83 84 08 bf 38 42 27 3c 3d 18 5e 3e
       -0.31181675 -0.53327197 0.010208659 0.21688934
000010 d9 9d 02 3e 30 ad 09 c0 43 f1 73 3f 09 6a 15 bf
       0.12755527 -2.1511955 0.9529001 -0.5836492
000020 23 c6 47 3d 3f fd ce 3f 69 c6 2e 40 b0 f2 da bf
       0.048772942 1.6171035 2.73086 -1.7105312
000030 c7 04 be be 39 40 f8 3f cb a0 84 be 5e 9f 83 3f
       -0.3711302 1.9394599 -0.25903925 1.028301
000040 d0 0f b8 3e f0 e1 ff 3f 8b a1 61 bc 42 05 d2 3e
       0.35949564 1.9990826 -0.013771425 0.41019636
000050 e3 65 01 40 c4 0e 65 bf b7 74 17 c0 c2 45 5d be
       2.0218437 -0.89475656 -2.3664987 -0.21608642
000060 e2 86 ac be 98 73 0c 3f 5e db 3b 3d ee 98 8a 3e
       -0.33696657 0.5486388 0.0458635 0.270698
000070 bb bc 1b 3f 28 cf 18 be fa 20 79 3f 23 81 68 3f
       0.60834855 -0.14922774 0.97315943 0.90822047
000080 e0 98 9e 3e 75 f9 0f 3f 1c 96 bb be 3b e5 46 3e
       0.3097601 0.56240016 -0.36637962 0.19423382
000090 cf 9c f1 3e d4 ce 1e bf f5 ac b7 3e c6 c3 11 3f
       0.47189948 -0.62034345 0.35874143 0.5693935
0000a0 67 ec f3 3e ef 4d f3 3f 08 66 9e bf 33 d0 cf 3e
       0.47641298 1.9008158 -1.2374887 0.4058853
0000b0 aa 77 08 c0 a0 47 0e 40 5a a8 17 3e bf d4 15 bf
       -2.1323037 2.2231216 0.14810315 -0.5852775
0000c0 ba 0a 84 bf 13 57 0f bf 00 57 0e c0 36 1a 86 bd
       -1.0315773 -0.5599224 -2.22406 -0.06547968
0000d0 4c e3 80 3f c5 87 58 3f 71 61 12 40 b7 61 4c 3e
       1.0069366 0.8458217 2.2871974 0.1995915
0000e0 66 c2 8c bf 7b d7 c1 be 3d 73 44 bf 25 b0 34 bf
       -1.0996826 -0.3785971 -0.7673834 -0.70581275
0000f0 0e 93 41 3c e6 9e 54 be b6 7e e6 be ae d1 2c bc
       0.011814846 -0.2076374 -0.45018548 -0.010548038
000100 b9 85 ff bf 87 c9 66 be a4 9d 2e 3f 97 55 ab 3f
       -1.9962684 -0.22537814 0.6820929 1.3385495
000110 26 21 c3 bf 58 7d 82 bf da 75 8a bf cc 69 40 bf
       -1.5244491 -1.0194502 -1.0817215 -0.75161433
000120 d2 0f ba 3e db df b9 3f 06 ff c4 3e c4 1d d2 bd
       0.36340195 1.452144 0.38475817 -0.102595836
000130 e0 dd 9f bf c6 da e6 3e 92 ed 67 bf c7 90 89 bd
       -1.2489586 0.45088786 -0.9059688 -0.06717067
000140 c2 7e 9c 3e af 46 ca 3d 14 18 96 3f 98 05 6f 3e
       0.3056546 0.09876763 1.1726098 0.23341978
000150 49 29 05 bf 4e e0 08 3d 8e a4 fb bd d6 7e b6 3f
       -0.5201612 0.03341704 -0.12287246 1.4257457
000160 e1 24 32 3f da 2a e4 3e 13 a7 94 3e 2b 36 d5 bf
       0.6958752 0.44563943 0.29033718 -1.6657156
000170 35 c7 bb bf b8 c9 07 bf a7 b7 39 bf cb 43 65 bf
       -1.4670168 -0.53042173 -0.72545856 -0.8955657
000180 60 3d 6a bf 29 da 97 bf 8b db 0b bf f4 f3 5f 3f
       -0.914999 -1.1863452 -0.5463187 0.8748162
000190 67 a0 97 bf 25 e9 f0 3e 35 01 73 be ff d6 63 3e
       -1.1845826 0.47052875 -0.23730929 0.22249983
0001a0 ca db 62 bf e5 22 14 3e da bd 61 bf 5d 2c 21 3e
       -0.8861662 0.14466436 -0.88180315 0.1573958
0001b0 7e fb 9e 3f e7 3f b1 bd 64 3f c3 bb 0c be 36 3f
       1.2420499 -0.086547665 -0.0059584845 0.7138374
0001c0 b3 10 9d be 7a 88 ca 3c 2d 72 a1 be 73 31 a5 be
       -0.30676803 0.02472328 -0.31532422 -0.3226429
0001d0 ff e9 a6 bf 6b bc 8c 3e 93 32 56 3e f2 18 a6 be
       -1.304016 0.27487502 0.2091773 -0.32440907
0001e0 56 50 43 bf d7 0c 99 3d 35 23 c8 3f c4 49 72 bf
       -0.7629446 0.07473152 1.5635744 -0.9464381
0001f0 e5 64 11 bf 28 45 ca 3e 54 f5 91 3f 59 38 1f 3e
       -0.5679458 0.39505887 1.1402993 0.15548839
000200 53 8e 7c 3f 64 65 ab 3d 00 07 97 bf 97 2a 1a bf
       0.9865467 0.08368948 -1.1799011 -0.60221237
000210 55 a1 00 bf d0 39 5d bf ab 8a e7 3e 2b b6 b4 3f
       -0.50246173 -0.8641634 0.45222983 1.4118093
000220 02 59 77 bf df d8 0a bf d4 08 e8 bd 4e f6 ce bd
       -0.9662019 -0.5423717 -0.11329809 -0.10105573
000230 c8 5b 12 3d 4a c7 78 bf ad 35 57 3d f9 51 60 3e
       0.03573206 -0.9717909 0.052541424 0.2190627
000240 fd 64 c5 bf 09 86 b6 3f 0e 44 98 be b1 48 4e 3f
       -1.5421444 1.4259654 -0.29739422 0.8057967
000250 65 f8 8e 3f 50 82 14 bf f3 01 54 bf 26 c1 bb 3f
       1.1169554 -0.5801134 -0.82815474 1.4668319
000260 64 d2 2c 3f 13 4f fa 3e 1f 9d 4d bf 3a 0b a3 be
       0.6750853 0.48888454 -0.8031787 -0.31844503
000270 16 d7 a7 bf 73 61 d6 3d 19 f2 f1 3e 85 af 9d be
       -1.3112514 0.10467806 0.47255018 -0.30797973
000280 09 52 35 3f 51 36 9e 3e ec d9 9e 3e e8 7c 92 3f
       0.708283 0.30900815 0.31025636 1.1444368
000290 01 a3 ca 3e 13 4f 85 3f eb ca 8c bf 6f d1 11 3f
       0.39577487 1.0414757 -1.0999426 0.56960195
0002a0 b3 df 88 3e 4e 49 b5 3f 8d e3 83 bf 38 74 88 bc
       0.2673317 1.4162996 -1.0303818 -0.01665698
0002b0 87 b2 94 be ac b7 a7 bd 18 ab 9e be 54 f8 87 bf
       -0.29042456 -0.081893295 -0.3098991 -1.0622659
0002c0 d0 01 e2 3e 85 9e 32 bf 8f 3e ee 3e 93 0f 44 3d
       0.44142008 -0.6977313 0.46532103 0.047866415
0002d0 3e 54 03 bc 07 59 55 bf be c6 3c 3f 08 8d eb bf
       -0.00801569 -0.8333897 0.73740757 -1.8402414
0002e0 d2 a1 d2 3e ed 08 a0 be b6 8f 90 be e0 eb 97 bf
       0.41139084 -0.3125681 -0.28234643 -1.1868858
0002f0 1b c3 8d be 69 b7 b0 bf 86 ab 8a 3e 1e 58 c4 be
       -0.27687916 -1.3805972 0.27083987 -0.38348478
000300 5b 9e c9 3e 43 cf 03 bd 4a 9b c5 be a0 8f e5 3d
       0.39378628 -0.032180082 -0.3859504 0.11209035
000310 4d 22 0b 3f 06 08 83 bf d0 a5 8c be 95 56 00 be
       0.54349214 -1.0236824 -0.27470255 -0.12533028
000320 19 6d cd 3d 67 d8 4f be 99 e5 71 bf 56 98 5d bf
       0.10030574 -0.20297395 -0.94490963 -0.8656057
000330 3a a1 a6 bf a0 23 fb 3c a1 d7 20 bf 75 bd e6 3d
       -1.3017952 0.030656636 -0.62829024 0.11266605
000340 35 f5 8c 3e 61 56 94 3d 7b e8 a7 bf 98 89 a5 3f
       0.27530828 0.07243038 -1.3117822 1.2932615
000350 97 d4 8a 3c 61 e3 92 bf 5f 10 3d 3d ab fc 02 3f
       0.016947074 -1.147564 0.04615819 0.5116679
000360 69 18 60 bf 40 e4 a3 3d b8 59 de 3d 65 a4 05 bf
       -0.87537247 0.080025196 0.10856956 -0.5220397
000370 ce cb f2 be 7d 97 e0 3e dd 60 80 bf b5 2c 06 bf
       -0.47421116 0.43865576 -1.002956 -0.5241197
000380 13 16 d6 3e f6 0e c2 3f 8e 72 11 3f 3f 3f 54 3e
       0.41813716 1.5160816 0.5681542 0.20727251
000390 65 22 1b bd f7 68 64 3f b5 6e cf be 04 81 2b bd
       -0.037874598 0.89222664 -0.4051415 -0.041871086
0003a0 b3 b9 85 3d a9 bc eb 3e eb 61 9b 3f 54 84 e1 3e
       0.0652956 0.46042374 1.2139257 0.4404627
0003b0 b9 23 3e bd 38 73 42 bf 27 4a de bd b4 37 d7 bf
       -0.046420787 -0.7595706 -0.10853987 -1.6813874
0003c0 a9 42 55 bc cb 01 03 be e0 0a 91 3f 99 b4 a0 bf
       -0.013016381 -0.12793653 1.1331444 -1.2555114
0003d0 19 d5 d7 be 21 3a e6 3e ca 7e 07 bf 73 fc 4c be
       -0.42154768 0.44966224 -0.5292784 -0.20018177
0003e0 fb 77 52 3f b5 ab b4 3d 9b fe 9c bc ea 70 e0 3f
       0.82214326 0.08821813 -0.019164374 1.7534459
0003f0 70 9e b7 3f d4 07 dc 3c ce dd 50 3f 8d 0b 9a bf
       1.4345226 0.026859201 0.8158845 -1.2034775

hidden_layer.weight_ih_l0 f4 [150, 50]
000000 00 4f 88 3e da 4d 3b bf 60 c4 a5 bd d0 c5 cf be
       0.26622772 -0.7316567 -0.08094096 -0.40580606
000010 47 75 76 3e 1a b0 65 bd c0 ab 34 3e fb 7b ce be
       0.24068175 -0.056076147 0.17643642 -0.40328965
000020 29 71 46 be 28 f5 d3 be 0c 12 e8 3d 16 42 74 3e
       -0.19379105 -0.41397977 0.11331567 0.23853335
000030 0e fa 2b be 7c 90 03 bd 1c 80 91 bd 9c 46 90 bd
       -0.16794607 -0.032120213 -0.07104513 -0.07044718
000040 12 d2 57 3e eb 0d 1c 3d ab 1a 37 be 1d 80 42 bd
       0.21076229 0.03809921 -0.17881267 -0.04748546
000050 ce 21 41 3d 9d 86 c0 3d f5 40 af bc bb 29 08 3f
       0.04715138 0.094006754 -0.021393279 0.53188676
000060 93 31 80 3e 99 9a dd 3d 1d 60 b7 3e f4 36 8c 3e
       0.25037822 0.10820503 0.35815516 0.27385676
000070 59 87 5f be 5b 86 dd 3d c7 36 bf be 46 c6 f9 be
       -0.21828975 0.10816642 -0.3734648 -0.48784083
000080 1a 74 42 3f 0a 3e 10 bd c6 b2 b7 be d3 a7 8c 3e
       0.75958407 -0.035215415 -0.3587858 0.2747179
000090 7d b6 08 3e 58 e5 95 3c 16 74 80 3c ac ab e2 bd
       0.13350864 0.018297836 0.015680354 -0.110679
0000a0 b9 d6 f6 3c 83 cd 44 be 42 db 4f be e3 43 8c bd
       0.030131685 -0.19219021 -0.20298484 -0.06848886
0000b0 d2 19 b1 be e0 9f b0 bd d5 73 7f 3e f2 9a 13 3e
       -0.34590012 -0.08624244 0.2494653 0.14414576
0000c0 c4 b6 ce be 86 cc 21 bf 15 a5 f9 bd d3 82 0a be
       -0.40373814 -0.63202703 -0.1218969 -0.13526468
0000d0 50 f4 5c 3f 6a 1d 4e bd 4e 3e 30 3f 28 9c 57 3d
       0.8631029 -0.05032102 0.6884507 0.052639157
0000e0 fc 3d 09 be 00 80 18 3b 70 5e cc be 0a 8e ad 3c
       -0.13402551 0.0023269653 -0.399158 0.021185894
0000f0 d5 65 59 3e a5 33 30 3f 53 4e bb 3d bf 72 8f 3e
       0.21230252 0.68828803 0.091457985 0.28017232
000100 1d f0 3d bb e9 13 26 be 82 bd 83 3d ed 8f a6 3e
       -0.002898223 -0.16218533 0.0643263 0.32531682
000110 2d 25 09 3c ac 11 10 be ec 3b a6 3e 48 d1 43 be
       0.00837068 -0.14069241 0.32467592 -0.19122803
000120 5f 1c 14 3e b3 0b 0a 3e 42 1a 46 3e d2 46 4a be
       0.14463948 0.13481025 0.19345954 -0.19753578
000130 db bc 8e be ec 70 69 3e 67 be 6e bd 5f 63 03 bf
       -0.2787846 0.22796983 -0.05828705 -0.51323503
000140 e5 42 a4 3d 38 20 29 3e 52 4b f1 3d 41 63 52 3e
       0.080205716 0.16516197 0.11781944 0.20545675
000150 a9 12 74 be 03 9a 9c be 33 dc 9c bb 4a d3 34 3d
       -0.23835243 -0.30586252 -0.004786992 0.044146813
000160 9a af 7e be f6 d7 a5 bd e7 8e 86 3e 6d 5b 81 3d
       -0.24871674 -0.08097832 0.262809 0.06316266
000170 37 dc ad be b3 e0 59 be cb a5 86 bc b8 5e 38 bd
       -0.33957073 -0.21277122 -0.016436478 -0.045012206
000180 dc 8b d0 bb b6 ea 1b be c6 ce 00 bf 23 78 17 bd
       -0.006364329 -0.15226254 -0.5031551 -0.036979806
000190 ad 1f 87 3e 43 3d f1 bc 1d 71 73 bd 65 4f 3f 3e
       0.26391354 -0.029448157 -0.059434045 0.1868263
0001a0 ee fe 25 3f c8 42 80 3e 1b 32 94 3e e3 ee b0 be
       0.64842117 0.2505095 0.28944477 -0.34557256
0001b0 01 8a 6e be f8 8d 0d bc 5d e3 98 39 0f b7 f8 3d
       -0.23294832 -0.008639805 0.00029161098 0.12144291
0001c0 75 df 26 be fb ea c8 3d 51 ae 98 3d c0 e6 b3 3b
       -0.1629618 0.09810444 0.07455123 0.005490154
0001d0 2f c7 d3 3e 15 77 54 3e 4a d7 9f be 5c 54 6c be
       0.41362903 0.20748551 -0.3121894 -0.23079056
0001e0 3f f9 e4 3d ff 23 41 bd 3b b3 9d 3e b5 6a 07 3f
       0.111803524 -0.04715347 0.30800804 0.52897197
0001f0 36 6a ef 3d 3c e2 91 be 58 79 8d be 9b 9b 3e 3e
       0.1169018 -0.28492916 -0.2763164 0.18614046
000200 3f b0 7e bd 42 c1 3d bd 13 8e 9c bd 75 7b 65 bd
       -0.0621798 -0.046326883 -0.07644286 -0.05602594
000210 01 cd a0 3e 88 4e 36 3f 72 88 ca be f2 9e 20 be
       0.31406406 0.7121358 -0.39557225 -0.15685633
000220 f2 75 5b 3e 13 bd 4a 3e b1 7a a8 bd a4 e1 12 3e
       0.21431711 0.19798689 -0.082265265 0.14343888
000230 95 a9 8d bd 92 b6 1f 3d 40 30 12 be 7d cd 1f 3e
       -0.06917111 0.038992472 -0.14276218 0.15605731
000240 66 02 3f 3e 4b 0d e7 bc 73 05 37 bd 39 f2 da 3c
       0.18653259 -0.02820458 -0.04468293 0.026726829
000250 4c 48 90 bd 9d 64 d3 bd 7f 65 86 3d 05 04 5a be
       -0.070450395 -0.10321925 0.065623276 -0.21290596
000260 e0 74 99 3e e0 e1 a3 bd 28 27 ed 3e c0 56 6d 3e
       0.2997198 -0.080020666 0.46318936 0.23177624
000270 f3 ff 46 3e 34 35 3b 3b ec 1f 97 be 90 3a b5 be
       0.19433574 0.0028565647 -0.29516542 -0.35396242
000280 33 90 bd bd e8 0d 13 3e 3f 19 5d 3e 66 82 98 bd
       -0.092560194 0.14360774 0.21591662 -0.074467465
000290 3f 1f 2f 3e ed 9b 83 bd b7 a8 bc 3e 74 ce 7a bd
       0.17101763 -0.06426225 0.3684747 -0.061232045
0002a0 f7 76 ac 3e 34 0a 2e bd aa 48 ae 3e fa 1f bb be
       0.33684513 -0.0424902 0.34039813 -0.36547834
0002b0 d8 75 d2 3d af 1e ba be 3f 0c f8 3d 75 7f 7a 3d
       0.10276383 -0.36351535 0.12111711 0.06115671
0002c0 c5 08 ef bd 67 14 4e 3e 6d 12 0d be bf 0c ac 3e
       -0.116715945 0.2012497 -0.1377656 0.33603474
0002d0 68 39 2e bd 4b b1 ad 3c 9b 0b ff bd 27 bc 2e 3e
       -0.042535216 0.021202704 -0.124533854 0.17063962
0002e0 8e 9d ef 3d 6a 0f 83 be 0e a9 a3 be 9f 8e a9 bd
       0.11699973 -0.25597697 -0.31964916 -0.08279156
0002f0 36 f3 80 be dd 52 d0 bd 16 18 95 3c 2a a5 81 be
       -0.25185555 -0.10172055 0.018199962 -0.25321323
000300 8a fc 63 be 37 78 d6 3e c3 8c db be b3 e5 1b be
       -0.22264305 0.41888592 -0.4288083 -0.15224342
000310 b1 a5 ca 3e 3a 5c 2c 3e 29 5a 85 be e7 d4 b6 bd
       0.39579538 0.16832057 -0.2604535 -0.08927327
000320 58 70 88 be a5 6b 2e 3e af 52 5b 3e 91 3f be 3e
       -0.2664821 0.1703325 0.2141826 0.37157872
000330 ac f9 9b 3e 67 3e 0c 3e 7a 6d 31 bd d8 2c 87 be
       0.30463922 0.1369568 -0.043317296 -0.264014
000340 e5 e4 a2 be 4d 06 39 bd 7d 45 24 3c 73 3b b0 3c
       -0.31815258 -0.045172025 0.010026333 0.021512723
000350 29 86 08 be a0 d6 6d 3e 31 7b dc be 5c 0e 85 be
       -0.13332428 0.23226404 -0.43062738 -0.25987518
000360 f7 24 5f 3e 92 d2 8d 3e b8 30 c6 be 15 69 25 be
       0.21791445 0.27699715 -0.38709044 -0.16153367
000370 77 f3 25 be 16 61 64 3c 7e 7e 53 3e 2a cf 0f 3e
       -0.16206156 0.013939163 0.20653722 0.1404387
000380 58 e4 dd 3d 0d f7 53 be 23 2c 3d be 98 98 11 3e
       0.10834569 -0.20699711 -0.18473868 0.14218366
000390 dd 19 01 be 3e 12 01 bf 90 cf a4 3d 3a 8a be 3e
       -0.12607522 -0.5041846 0.08047402 0.37214833
0003a0 3c 19 6c bd 37 21 84 3c 08 9c 1e be da c5 44 3e
       -0.057641253 0.01612912 -0.15489209 0.192161
0003b0 c5 52 d9 3d 15 f2 01 3e a7 09 17 3e 9c 31 5b 3e
       0.1061149 0.12690003 0.14749776 0.21405643
0003c0 b4 8d f8 3a 41 92 cf bc ac b3 e0 be d4 23 fb bd
       0.0018963129 -0.025338294 -0.4388708 -0.12262693
0003d0 b5 22 86 bb 0f 3f 2b be a7 c9 c3 be d0 fd 1f be
       -0.004093493 -0.16723274 -0.38239786 -0.15624166
0003e0 08 44 f1 be d0 63 74 3e 05 9b 07 3d 63 5b 30 bd
       -0.47122216 0.238662 0.033106823 -0.043055903
0003f0 48 14 fc 3d 20 69 58 be 19 ce 93 3e 58 dc 92 be
       0.12308556 -0.21133852 0.28868178 -0.28683734

hidden_layer.weight_hh_l0 f4 [150, 50]
000000 67 b6 61 3f 40 e6 8e be 29 2d 90 be fc 8d f4 3e
       0.8816895 -0.27910042 -0.28159454 0.47764575
000010 22 a3 32 be 80 85 1a 3f 18 40 d6 3e 1d 58 ed bd
       -0.17445043 0.60359955 0.41845775 -0.11589072
000020 8f 67 64 3e 9f 32 80 3d 15 39 29 bd 75 f2 4d be
       0.2230513 0.06259655 -0.041314203 -0.20112021
000030 21 20 03 bf ed 13 25 3c 2d af 9d 3d fd da 36 be
       -0.512209 0.010075551 0.07699428 -0.17856975
000040 d0 11 8e 3e 2b 98 e1 be 01 56 16 3e 9a e1 ff 3d
       0.27747965 -0.44061407 0.14681245 0.12494202
000050 cb df 01 bf ee 48 a7 be e0 06 e8 3e 7f ee 14 3d
       -0.50732106 -0.32672828 0.45317745 0.03636026
000060 21 e7 63 be 60 d5 52 3e 02 4c dd 3d 06 39 86 3e
       -0.22256137 0.20589209 0.10805513 0.2621538
000070 88 c2 54 3e ce 9f db 3d c5 c1 77 bf 34 e8 68 3e
       0.20777333 0.1072384 -0.96780044 0.22744828
000080 dc 38 32 be 9e 82 80 be c1 c8 67 bd de b5 0f bf
       -0.17404503 -0.25099653 -0.05658794 -0.5613688
000090 38 1b 32 3e f0 e8 00 3f 1c 6b 9a 3e 35 5a 6b bd
       0.17393196 0.50355434 0.30159843 -0.057459075
0000a0 b2 8b 4d 3d a5 8f 85 bf 2d 1d 91 be c6 ad 46 bf
       0.050182052 -1.0434462 -0.28342572 -0.7760891
0000b0 45 6b 00 bf b2 c7 0a 3f 21 f9 96 be 6e b9 2a 3f
       -0.5016368 0.5421096 -0.29486945 0.66689193
0000c0 6a b8 d8 3e c1 33 6d be f6 9e e6 bd 83 1a 6f bf
       0.42328197 -0.23164274 -0.11260788 -0.9339983
0000d0 d4 f7 17 3e b7 1a 2e be 75 ae 01 3f 6f 5a 1f be
       0.14840633 -0.17002378 0.50656825 -0.15561841
0000e0 a9 83 e7 3d 51 5d 44 bf 47 25 9c bc 26 b1 2d be
       0.11304409 -0.7670489 -0.019060744 -0.16962108
0000f0 3a 03 0a 3e 0a a1 7a be e9 57 02 3f 0c 5a 5c 3e
       0.13477793 -0.24475494 0.5091539 0.21518725
000100 15 8a 45 be 1b 8b 67 bc ae 82 2d 3e 18 74 eb 3e
       -0.19290955 -0.014132286 0.16944382 0.4598701
000110 ac a5 9b bd 30 c5 02 3e d6 96 c6 3e 94 5b c0 3e
       -0.07599959 0.12770534 0.38786954 0.3756987
000120 97 aa 18 bf cb 0a f1 3e 2c b4 9d bd 10 a2 61 3f
       -0.596353 0.47078547 -0.07700381 0.8813791
000130 ae 4a 1f 3f 7c 7e 8f be 47 37 83 3d cf f5 5d be
       0.6222333 -0.28026187 0.06407028 -0.216758
000140 29 04 5d 3f ec 1e b4 3e 4a c6 28 3e 1b b5 78 be
       0.8633447 0.35179842 0.16481891 -0.24287836
000150 b2 19 08 3e 01 83 de bd 25 3c bf 3d 1a 2b 08 bf
       0.13291052 -0.10864831 0.093376435 -0.5319077
000160 dd ff af be 50 c8 8d 3d 44 3f 70 be 25 50 7d 3e
       -0.34374896 0.06922972 -0.23461634 0.24737604
000170 2e 6d 37 3f f4 1c 8c 3e 6b ae 82 be 77 17 e8 be
       0.7165097 0.2736584 -0.25523695 -0.45330402
000180 09 ed 59 bd 43 be e3 3e a2 e6 fe be 0e 87 08 3e
       -0.05320457 0.44481096 -0.49785334 0.1333277
000190 cb d5 f1 3e 33 b1 ac 3e 12 e3 1f bf 9a 97 49 bd
       0.47233424 0.33728942 -0.62455857 -0.049216844
0001a0 25 1d c9 3d f0 47 27 3e 23 65 19 3f 64 12 39 bf
       0.09820012 0.16336036 0.5991995 -0.72293687
0001b0 ec 6c d6 3d ed 97 6c be 90 c1 1e 3e 96 9c f7 be
       0.10469994 -0.2310483 0.15503526 -0.48361653
0001c0 41 fe bc be e7 0a 0c 3f d2 45 ac 3f 5e 95 3f be
       -0.3691273 0.54704136 1.3458807 -0.18709323
0001d0 3c 59 54 bf 44 26 08 3e ce 44 19 3d e3 5c 9d be
       -0.8294866 0.13295847 0.037419133 -0.3073493
0001e0 c2 cc c3 be 43 cd 07 be e5 f6 66 3e 9b 55 b0 bc
       -0.38242155 -0.13261895 0.2255512 -0.021525195
0001f0 d3 06 8e 3e b8 fe 05 3f 19 7d aa 3e 07 6f 8d bd
       0.2773958 0.52341795 0.33298567 -0.069059424
000200 cf d2 4e 3d 59 45 b0 3e 0a c0 6c be ec 47 0e 3e
       0.05049401 0.34427908 -0.23120132 0.13894624
000210 5f d0 27 3d 77 09 4e 3e e1 c8 e6 bd 1e b5 46 be
       0.040970203 0.20120798 -0.11268783 -0.19405028
000220 df 91 42 bf 42 d2 b9 3e aa ae c8 3d b4 49 23 be
       -0.7600383 0.36293226 0.097989395 -0.15946084
000230 fb 55 84 bd af c2 ff be 1c c3 49 3e c5 33 77 be
       -0.06461712 -0.4995322 0.19703335 -0.24140842
000240 6b 49 97 bf 4d 4c e0 3d 93 ca b3 bd 47 98 bf 3b
       -1.181928 0.10952053 -0.08778872 0.0058470103
000250 9e 9e a4 bd 04 9d b4 be 96 3a 84 3e 60 b9 0f bf
       -0.08038066 -0.35276043 0.25825948 -0.56142235
000260 d6 6e 1a 3f 27 dc 27 3e ce 51 a5 bd 46 2e 85 3e
       0.6032537 0.16392575 -0.08072244 0.26011866
000270 55 9c 3c be 05 ee 7b bd ea 6c a0 be c0 cb 4e 3f
       -0.18419011 -0.06150629 -0.31333095 0.8077965
000280 15 2b ab 3d ad 13 3c 3e f3 e6 8a be a0 ec 2e 3e
       0.083578266 0.1836688 -0.27129325 0.17082453
000290 df 59 04 bf da 5b 47 3e af ed 3f 3e ae 19 ad 3a
       -0.5169963 0.19468632 0.18743013 0.0013206506
0002a0 48 af 81 3d 25 30 7f 3e bd b4 0e bd 49 c5 38 be
       0.0633226 0.2492071 -0.034840334 -0.18044008
0002b0 99 ca 3a 3d c4 bb 08 be c1 b4 84 be 0a b2 f3 be
       0.04560337 -0.13352877 -0.25919154 -0.4759677
0002c0 e6 8a 89 bf bd 2d 9e be 30 7d 63 be 31 7b 56 bd
       -1.0745513 -0.3089427 -0.22215724 -0.05236358
0002d0 69 23 58 bf eb b1 5f 3e 29 bc 79 3d 76 6c 18 be
       -0.8442903 0.21845214 0.06097046 -0.14885125
0002e0 95 c9 4e bd 23 ad 32 3e 36 e8 bc bd 76 ac 06 3e
       -0.050485212 0.17448859 -0.09223978 0.13151726
0002f0 47 4d aa 3d 18 ff 0a 3d 62 d3 75 3f 39 f7 f3 be
       0.08315521 0.033934683 0.9602567 -0.47649553
000300 c7 69 0a 3f 91 62 b6 3e b5 5b d8 bd 82 c6 67 3e
       0.54067653 0.35622075 -0.10564367 0.22634318
000310 be 0a ad be 87 86 4e 3e 23 d9 07 be 48 1c e9 3e
       -0.33797258 0.20168506 -0.13266425 0.4552939
000320 e8 7e 95 3d 59 54 63 3e a5 e6 be bd 1d 66 95 3d
       0.07299596 0.22200145 -0.09321336 0.07294867
000330 e2 0c 7c 3f 11 6e 75 be 1c 99 0e be 13 d2 a5 3d
       0.9845716 -0.23967768 -0.13925594 0.08096709
000340 48 ee 83 bd 2b 9f 8e be 03 d1 ad 3d a5 7e e7 be
       -0.06441933 -0.2785581 0.084871314 -0.4521381
000350 8e 4e d7 3e 39 32 95 3f 6d 6a 18 be 4a 9e 3f 3d
       0.4205212 1.1655952 -0.14884348 0.046781816
000360 ce c0 fc 3e 3f 7d 24 3e 0d 64 7a 3d 93 69 b6 3e
       0.49365848 0.16063403 0.061130572 0.35627422
000370 ef 4d a4 3e aa f3 27 3e 83 b1 3a bd 4f 16 de ba
       0.3209071 0.16401544 -0.045579445 -0.0016943904
000380 37 db 62 3e 2f 82 1c 3f d9 a0 6a be bd a3 fc be
       0.22153936 0.61136144 -0.22912921 -0.49343672
000390 e7 5b 34 be db e0 d0 be ba d5 9f be 2d c0 fe 3d
       -0.17613183 -0.4079655 -0.31217748 0.12438998
0003a0 4e 0b 71 3e 62 e9 11 3e a3 17 85 3e d6 58 26 3e
       0.23539469 0.14249185 0.25994596 0.16244826
0003b0 cc 49 41 3e bb de 13 bf 96 e3 98 3e f2 63 94 3e
       0.18875808 -0.57761735 0.29861134 0.28982502
0003c0 75 86 7d 3d 31 97 c2 be b5 67 53 bc 25 45 19 bf
       0.061895806 -0.38005975 -0.012903144 -0.5987113
0003d0 93 90 a7 3e 10 24 17 3e 5d af 4e bf 8a b3 0c 3f
       0.3272749 0.1475985 -0.80736333 0.54961455
0003e0 ac 05 ab 3e 88 f1 bc 3d 7e 4a 1b 3f 19 23 b6 3d
       0.33402765 0.09225756 0.6066054 0.08893413
0003f0 46 19 3d be 98 ca 8e be 10 cf e1 be 67 c7 0a 3f
       -0.18466672 -0.27888942 -0.4410329 0.54210514

hidden_layer.bias_ih_l0 f4 [150]
000000 f8 02 0d bd 32 99 35 3e a3 dd d6 be 19 cc 89 3e
       -0.03442666 0.1773422 -0.4196597 0.26913527
000010 30 dc ea 3c 71 0d 04 be 42 92 b6 3e 31 57 0b 3f
       0.028669447 -0.12895752 0.3565846 0.5442992
000020 33 fe 9c be f0 34 3a be 24 27 5a be b0 f5 b9 bc
       -0.3066269 -0.18184257 -0.21303993 -0.02270016
000030 38 c5 b5 3e 10 b0 22 bb 9b 33 67 3d a7 71 fa bc
       0.35502028 -0.002482418 0.0564457 -0.030571772
000040 f2 18 76 bd cf 07 97 be 55 b6 cf 3d 58 ec fd 3d
       -0.060082383 -0.29498145 0.10142199 0.123985946
000050 fb 51 02 be cf 94 80 bc 08 ab df bd ec c0 0f 3f
       -0.12726586 -0.015695957 -0.109212935 0.5615375
000060 18 0a 90 bd 6d 76 66 bd ea 81 94 3d 9e 06 a0 3e
       -0.07033175 -0.056265283 0.07251342 0.3125505
000070 45 7b 1c 3d c2 55 61 3d 9b 1d e6 be 47 68 b8 bd
       0.038203496 0.055013426 -0.44944462 -0.09004264
000080 b1 65 a3 be 92 94 ab 3d e8 7c 1e 3e be 4d 48 3e
       -0.31913522 0.08377947 0.15477335 0.19560906
000090 4e 78 b1 3d 90 a0 74 bd 28 a1 b2 3e 40 10 8e 3d
       0.086655244 -0.059723437 0.34888577 0.06936693
0000a0 e3 4b 85 be c4 22 bc bd 11 2e b6 3d 12 69 7b 3e
       -0.2603446 -0.091863185 0.08895505 0.245518
0000b0 d8 81 29 be 99 79 64 bd 96 5e aa 3e b5 13 00 bf
       -0.16553438 -0.055780027 0.33275288 -0.5003007
0000c0 26 d9 13 3d a0 70 9f be 08 fb 76 bc ea 83 b5 3e
       0.03609576 -0.31140614 -0.015074499 0.35452205
0000d0 27 8c 80 3e bc 62 9d 3e 8b d8 ab be f6 b8 a8 3d
       0.25106928 0.3073939 -0.33563647 0.082384035
0000e0 01 0c 9f 3e 07 0a 9c 3e a3 7a 0d bf 9d a0 38 3e
       0.31063846 0.304764 -0.55265254 0.18030019
0000f0 86 c0 bb 3e 5b 8b a2 3e a6 9d 57 3e 15 36 bd be
       0.3667032 0.31746945 0.21056232 -0.36955324
000100 98 78 c8 3e 92 82 c8 3e ec 47 73 3e 0a 45 96 3d
       0.39154506 0.39162117 0.23757905 0.07337387
000110 97 67 61 3e 39 dc b6 3e 17 6a a3 3e 65 21 8c 3e
       0.22012173 0.35714892 0.31916878 0.27369228
000120 e6 73 d6 bd 26 4b 09 3e ee 0f aa bd 09 47 76 be
       -0.104713246 0.13407573 -0.083038196 -0.24050535
000130 70 45 03 3e 9e 50 13 3e 30 57 0a 3e 83 7d 2f be
       0.12819457 0.14386222 0.13509822 -0.17137723
000140 75 e3 91 be 5e 00 42 3e 55 97 0d 3e 04 15 e4 3b
       -0.28493848 0.18945453 0.1382726 0.006960513
000150 c3 11 37 3e 95 d0 0d 3e 4d 87 80 bd 0b 65 b2 3d
       0.1787787 0.13849099 -0.062758066 0.08710679
000160 00 17 91 3e 22 a6 64 3e eb b2 df 3e ef 6d 2f bf
       0.2833786 0.22329 0.4369119 -0.6852712
000170 fb ce 92 3e 69 68 52 3e 00 c7 71 be b9 78 23 bf
       0.2867354 0.20547642 -0.23611069 -0.63856083
000180 37 9c 3e bd 81 89 f9 be 11 f4 90 3b 13 28 4d 3e
       -0.046535697 -0.4873772 0.0044236262 0.20034818
000190 96 da 6d be e0 35 af 3d 9f 70 80 3e 0c 85 00 3e
       -0.23227915 0.08555198 0.25085923 0.12550753
0001a0 0b 68 a4 be 8a 57 04 be 0e ac 65 bd 8a ae 55 3e
       -0.32110628 -0.12924019 -0.056072287 0.20867363
0001b0 06 05 91 3e ff 1c 76 be 57 97 04 be 3a 04 c1 bd
       0.28324145 -0.24034499 -0.12948357 -0.09424634
0001c0 11 12 ab 3c 5d 6d fa be e9 8a 1a bd 7c ee ea 3d
       0.020882638 -0.48911563 -0.03773013 0.114712685
0001d0 d7 ac 9c 3e f9 38 f2 3d ae 05 5f 3e 9c 98 07 3c
       0.30600616 0.11827273 0.2177951 0.008276131
0001e0 97 62 14 be f9 7b c7 3d 20 e6 a2 3e 6b 9f a9 bd
       -0.14490734 0.09740443 0.31816196 -0.0828236
0001f0 a6 f2 de bd 6b a9 0b 3c 67 f3 48 3e 08 44 60 3e
       -0.10886125 0.008524279 0.196241 0.21900952
000200 25 22 04 be 74 f1 d4 3e 88 de 1f bf e8 1d a7 bd
       -0.1290365 0.41590464 -0.6244893 -0.08160001
000210 7f 99 a1 be dc 18 e1 be e0 51 4d 3d 4a fa ad be
       -0.3156242 -0.4396428 0.05012691 -0.33980018
000220 4d a5 3b 3e 29 09 f6 3c c4 10 59 3c 62 04 2f 3c
       0.18324776 0.030033665 0.013248626 0.010682197
000230 1f c6 d2 3d 7f d7 8d 3c 6d 9c 17 3e 57 cd b7 bd
       0.10291695 0.01731467 0.14805765 -0.08974712
000240 9f 1d 9b be 58 05 01 be ad f5 19 3e 52 1f 1d 3e
       -0.30296037 -0.12599695 0.15035124 0.15343979
000250 84 37 2f 3e eb 91 3c be
       0.17111021 -0.18415038

hidden_layer.bias_hh_l0 f4 [150]
000000 3d 15 83 be 56 de 67 3d a4 fd 57 be f2 fd 56 3e
       -0.2560214 0.05660852 -0.2109285 0.2099531
000010 7f 6d 0a be 98 79 fc bd 1e 9e a2 3e d3 a8 2d 3f
       -0.13518332 -0.1232788 0.3176126 0.6783573
000020 14 8b 11 be 52 25 c2 be 01 67 3d be 40 b1 22 3d
       -0.1421321 -0.37919098 -0.18496324 0.03971982
000030 ef 63 c7 3e 5a 2d 02 3d 76 1e 6a 3d a1 b5 ed 3d
       0.3894343 0.031781532 0.057157956 0.116069086
000040 92 a7 21 be ac 1b 22 be ae 3a a3 3d 82 09 78 3e
       -0.15786579 -0.15830868 0.07970177 0.24222377
000050 37 13 24 be d3 76 00 3d 23 77 80 be 33 bc e2 3e
       -0.16022955 0.03136332 -0.25090894 0.4428421
000060 77 7f c8 b7 a3 4d bc bd ab 55 c4 bd c4 ba 23 3e
       -2.3901213e-05 -0.091944955 -0.09586652 0.15989214
000070 23 6a 7b 3c 06 e4 02 3d 81 cc c4 be 86 35 0c 3e
       0.015345129 0.03195574 -0.38437274 0.13692293
000080 65 31 ce be fe 3d 92 bc 42 4c ab 3d 35 e4 b1 3e
       -0.4027206 -0.017851826 0.083641544 0.3474442
000090 ab bf ca 3d 97 e7 db bd b2 40 d8 3d c0 62 47 3d
       0.09899839 -0.10737532 0.10559215 0.04867816
0000a0 39 74 61 be 79 88 a4 bd f4 17 20 3c 84 bf 4d 3e
       -0.22016992 -0.080338426 0.009771336 0.20092589
0000b0 86 bf 68 bd 68 ae 5f 3d d8 09 a2 3e da 20 02 bf
       -0.056823276 0.054609686 0.31648135 -0.5083138
0000c0 b2 7c 84 3d c9 ee 2b be 79 c1 08 3e 41 18 6e 3e
       0.06469096 -0.16790308 0.13355054 0.2325144
0000d0 3a 48 62 3e 0a d2 c0 3e e6 5b b5 be c6 5a 86 3e
       0.22097865 0.37660247 -0.35421675 0.2624113
0000e0 01 eb e7 3e cb 90 b8 3d e7 70 18 bf 6b dc 1a 3e
       0.4529648 0.09011992 -0.59547275 0.15123145
0000f0 31 9f e1 3e be e2 3c 3e 6e 1a aa 3e ef 0e d8 be
       0.44066766 0.1844587 0.3322329 -0.42198893
000100 2b 28 a6 3e 31 96 a5 3e e7 42 de 3e 36 74 3a bd
       0.3245252 0.3234115 0.43410417 -0.045520984
000110 26 5a 8d 3e e5 e6 8b 3e 76 5c ce 3e b7 4c 6f 3e
       0.2760784 0.27324596 0.40304917 0.23369108
000120 03 29 e4 bb dc 2f f2 bc 35 07 85 bd b1 e5 77 be
       -0.006962897 -0.029563837 -0.06495515 -0.24208714
000130 0b a9 98 3e 84 b2 a9 3d 3d 80 1f 3e 94 22 72 be
       0.2981647 0.08286002 0.15576263 -0.23646003
000140 d4 a5 83 be 7c b0 b6 3d 55 50 12 3e da 46 8c 3d
       -0.25712454 0.089203805 0.14288457 0.06849451
000150 e8 c3 25 3e 4b 8b 1f 3e 28 e7 9b bc a5 d9 af 3d
       0.16188014 0.1558048 -0.019031122 0.08586434
000160 f6 b4 08 3e ee 19 74 3e 49 77 c3 3e cc 59 1e bf
       0.13350281 0.23838016 0.38176945 -0.6185577
000170 bf 96 d5 3e 3b 09 e9 3d e2 37 83 bd f7 f0 00 bf
       0.41716573 0.11378714 -0.06407143 -0.50367683
000180 77 ea 23 3c 11 a3 e7 be 1f e0 c0 3c 0c 71 1b 3e
       0.010004631 -0.45241597 0.02354437 0.15179843
000190 5f 07 66 3e 1d 6c 54 3d 56 ba 27 bd b6 60 a7 3d
       0.2246375 0.051860917 -0.04094919 0.08172743
0001a0 2a c4 9b bb 75 38 a6 3e f5 ff 06 bd d5 d5 d1 3d
       -0.004753609 0.32464948 -0.032958943 0.10245863
0001b0 e4 11 53 3e 25 67 b0 bd f2 7c 1d be 4f b4 20 bd
       0.20612293 -0.08613423 -0.15379694 -0.039234456
0001c0 a1 39 53 bd 4e 2c e7 bd 38 8c 0f bd 5b dd 3f 3e
       -0.05156863 -0.11287747 -0.035045832 0.18736784
0001d0 b9 1c 6b 3e ed 39 e3 3c 94 61 47 3e 10 3e 83 3d
       0.22960176 0.027737582 0.19470817 0.06408322
0001e0 27 ae c7 bd 66 fd 1a 3d ef 23 a7 3e 4d e9 8f 3d
       -0.09750014 0.037839316 0.32644603 0.070269205
0001f0 85 a2 27 3e f9 8c 1a 3d e3 b0 9f 3d 7e ae 19 3e
       0.1637059 0.0377321 0.0779741 0.1500797
000200 e0 f1 67 3e bc 12 39 3e b8 00 0b be 6f fb ee bc
       0.22650862 0.18073553 -0.13574493 -0.029172627
000210 b5 77 c0 be 34 8b 3d be 13 79 13 3e 5e bb b6 bc
       -0.3759133 -0.18510133 0.14401655 -0.02230614
000220 c7 00 2a 3e 77 fa 6b 3d 2a 8f 85 3d 16 2a 12 be
       0.16601859 0.05761191 0.06521447 -0.14273867
000230 fd 74 16 bc f8 e2 54 be 11 e1 9f 3e 22 51 6e be
       -0.009183166 -0.20789707 0.312264 -0.23273137
000240 80 89 34 be 02 65 5a be cc 7c 2a 3e 4c 79 c5 be
       -0.17630577 -0.21327594 0.16649169 -0.38569105
000250 19 b2 2a 3e 98 09 07 3d
       0.16669501 0.032968134
