models/oracle_gru_decoder.pt (torch_old, 188381 bytes, 15 tensors)

embedding.weight f4 [8, 50]
0	0x3ecaac0c	0.39584386
1	0x3e6bcc3b	0.23027126
2	0x3f2f8713	0.6856548
3	0x3ebea187	0.3723261
4	0x3e535e56	0.20641455
5	0x3fd668ac	1.6750693
6	0x3fb29a87	1.3953408
7	0x3e532a80	0.20621681
8	0xbac131f1	-0.0014739615
9	0xbe400754	-0.18752795
10	0xbf77c0f5	-0.96778804
11	0x3f16d807	0.5892338
12	0xbf94ced6	-1.1625621
13	0xbe8f029d	-0.2793168
14	0xbeec2790	-0.46123934
15	0x3e6c250f	0.23061012
16	0x3f0d492b	0.5518977
17	0x3f6d0176	0.92580354
18	0xbfc2edd0	-1.5228825
19	0x403e10a7	2.9697664
20	0xbf961412	-1.1724875
21	0x3ddede4d	0.10882244
22	0xbdfe52a4	-0.12418106
23	0xbe272b02	-0.16325
24	0xbf0ab686	-0.5418476
25	0x3fbd47dd	1.4787556
26	0xbe8d90e8	-0.27649617
27	0x3e451cec	0.19249314
28	0x3d5429e0	0.051797748
29	0x3f7fe0ec	0.9995258
30	0x3fa11291	1.2583791
31	0x3d36699e	0.04453432
32	0xbfde080d	-1.7346207
33	0xbd19f5a8	-0.03758779
34	0x3e5f97ee	0.218353
35	0xbeb9e1c5	-0.3630506
36	0x3ecff586	0.40617007
37	0xbee18b89	-0.4405177
38	0x3d0e57c8	0.034751683
39	0xbf673162	-0.9030973
40	0xbd027cb3	-0.031857204
41	0x3f8f1677	1.1178731
42	0x3ca84543	0.020540839
43	0xbe9ebd89	-0.3100398
44	0xbe62e9fb	-0.22159569
45	0x3f23f63d	0.64047605
46	0x3e77872e	0.2417266
47	0xbe0a4e6d	-0.1350648
48	0x3eb5c9c2	0.35505491
49	0xbed82dae	-0.4222235
50	0xbf94096d	-1.1565377
51	0x3f866931	1.0500852
52	0xbf42f4c2	-0.7615472
53	0xbe4cc6a1	-0.19997646
54	0x3f854524	1.0411725
55	0xbf63f382	-0.8904344
56	0x3f46c889	0.7764974
57	0x3eea4427	0.4575512
58	0x3e7ea212	0.24866512
59	0x3ecccfdc	0.40002334
60	0x3fda3803	1.7048343
61	0x3f5b9f1d	0.8578966
62	0xbf7f1999	-0.99648434
63	0x3f87e890	1.0617847
64	0xc0008097	-2.0078485
65	0xbe57a1cb	-0.21057813
66	0xbf8add54	-1.0848794
67	0x3f56c57f	0.83895105
68	0x3ed5844e	0.41702503
69	0x3fac54bf	1.3463362
70	0x3ec0014b	0.37500986
71	0xbf621e12	-0.88327134
72	0xbf22cd1d	-0.6359423
73	0xbf761d22	-0.96138203
74	0xbefb7b08	-0.49117303
75	0xbf738fa4	-0.95141053
76	0x3f8c35c8	1.0953913
77	0x3ee3c0bc	0.44482982
78	0xbb4ec58a	-0.0031550848
79	0x3fc3272b	1.5246328
80	0x3eea1859	0.457217
81	0xbf4f9ee6	-0.81101835
82	0x3e823f20	0.25438786
83	0xbe9137fa	-0.2836302
84	0x3fc9c7d7	1.5764111
85	0x3f480a1d	0.7814043
86	0x3c3ce21f	0.011528521
87	0xbeebbc96	-0.46042317
88	0xbfa0173e	-1.2507093
89	0xbf8dad2d	-1.1068474
90	0xbfc87d6e	-1.5663278
91	0xbea5bc01	-0.32369998
92	0xbea21f1c	-0.3166436
93	0x3e7ae570	0.24501586
94	0xbedb10b7	-0.4278619
95	0xbf9839ee	-1.1892679
96	0x3fcb2bc7	1.5872735
97	0xbf086044	-0.5327189
98	0x3f00b4f0	0.5027609
99	0xbd5708bb	-0.05249856
100	0x3db1ba08	0.08678061
101	0xbf632ad9	-0.88737255
102	0xbf75f254	-0.9607289
103	0xbfe5e6a0	-1.7961006
104	0x3f1048d1	0.5636111
105	0x3e9de8c8	0.3084166
106	0xbe786e2b	-0.24260776
107	0x3fc59bd5	1.5438181
108	0xbc68ad5b	-0.014201487
109	0xbe95e796	-0.2927825
110	0x3f515144	0.81764627
111	0x3ec164a2	0.3777209
112	0x3f637ba9	0.88860565
113	0xbf1b4fe3	-0.6066877
114	0x3f07c9ec	0.53042483
115	0x3e388e99	0.18023147
116	0x3ead4e2d	0.33848706
117	0xbf94a35b	-1.1612352
118	0xbeac559d	-0.33659068
119	0x3f503f02	0.8134614
120	0xbf360501	-0.71101385
121	0xbd251bc6	-0.04030969
122	0xbdc33186	-0.0953093
123	0xbedfef88	-0.43737435
124	0xbf0031f2	-0.5007621
125	0x3f012e16	0.50460947
126	0xbeda8038	-0.42675948
127	0x3f662c4a	0.8991133
128	0xbbb39489	-0.0054803533
129	0xbe8c5f95	-0.27416673
130	0xbf1eb0e1	-0.61988646
131	0x3e89d6ab	0.2692159
132	0x3f4858ea	0.7826067
133	0x3f8c68af	1.0969447
134	0xbf6b82d6	-0.91996515
135	0x3f62d425	0.88604957
136	0xbe6fb3ea	-0.23408476
137	0x3eb800c3	0.3593808
138	0x3eebd3db	0.4606007
139	0xbf1e2e07	-0.6178898
140	0xbc421611	-0.011846081
141	0xbd8ba707	-0.06818967
142	0xbd43b833	-0.047783088
143	0xbec95f4d	-0.3933052
144	0xbe0ed9b0	-0.13950229
145	0x3f802887	1.0012368
146	0x3f1c6bc2	0.61101925
147	0x3f46db0a	0.7767798
148	0x3f9f2e3b	1.2435983
149	0xbbedec7b	-0.0072608567
150	0xbfb6a5d9	-1.4269363
151	0xbe4cb20d	-0.19989796
152	0xbfa22cd0	-1.2669926
153	0xbe101022	-0.14068654
154	0xbe4111d9	-0.18854465
155	0x3f826d6b	1.0189642
156	0x3e12894f	0.14310192
157	0x3de819a6	0.11333017
158	0x3d027630	0.031850994
159	0x3fc99a8b	1.5750288
160	0x3e44566f	0.19173597
161	0x3f39d5c3	0.725918
162	0x3fb78454	1.4337258
163	0x3dd60ca0	0.10451627
164	0xbee03adc	-0.43794906
165	0xbcf5c963	-0.030003255
166	0xbda9e6c1	-0.08295966
167	0xbfab7678	-1.3395529
168	0xbdd90d47	-0.105982356
169	0xbfb26b16	-1.393893
170	0xbe33bf6b	-0.17553489
171	0x3c7c8b83	0.015414122
172	0xbe67973f	-0.2261629
173	0x3ea191e4	0.31556618
174	0xbe8bf5ed	-0.27336064
175	0xbeb68fa3	-0.3565646
176	0xbea400fe	-0.32032007
177	0xbec64bca	-0.38729697
178	0x3ddc9444	0.10770467
179	0xbf9bb395	-1.2164179
180	0x3f1d6e25	0.6149619
181	0x3fe6ee85	1.804154
182	0x3f288e20	0.65841866
183	0x3fa69738	1.3014898
184	0xbf26fb69	-0.6522737
185	0x3ecd8bf4	0.40145838
186	0xc00ac0b4	-2.1680117
187	0x3d3e576a	0.046470083
188	0xbf85ddd8	-1.0458326
189	0xbf6a17e2	-0.9144269
190	0xbd124efd	-0.03571986
191	0xbecbf39c	-0.39834297
192	0xbda96b64	-0.08272436
193	0x3e16f767	0.14742814
194	0xbbc5f3f8	-0.006041046
195	0x3e17d9ff	0.14829253
196	0x3f3dd388	0.74150896
197	0x3d288be0	0.04114902
198	0x3eaad75a	0.33367425
199	0xbe43790f	-0.19089149
200	0x3defe55c	0.11713669
201	0xbfaa859b	-1.3322023
202	0xbf8aebcd	-1.0853211
203	0x3f242d4d	0.64131624
204	0x3eaeea0e	0.34162945
205	0xbe530e0d	-0.20610829
206	0x3e945e34	0.2897812
207	0x3ee34bee	0.44393867
208	0x3cb8cade	0.022557672
209	0x3e9801f1	0.2968898
210	0x4004f63c	2.077529
211	0x3de8d669	0.113690205
212	0x3fad3181	1.3530732
213	0xbf355d89	-0.7084585
214	0xbe956d18	-0.29184794
215	0xbeeb600f	-0.45971724
216	0x3f8394a8	1.0279741
217	0xbeef0348	-0.4668219
218	0x3f0a4f8c	0.5402763
219	0xbe3a561b	-0.18196909
220	0xbf860124	-1.0469098
221	0x3cc754a2	0.024332348
222	0xbe355428	-0.17707884
223	0xbf18b3e2	-0.5964948
224	0xbeed5499	-0.46353605
225	0x3f079797	0.5296568
226	0x3e9e69fa	0.3094023
227	0xbea33b4e	-0.31881183
228	0x3b490bae	0.0030677128
229	0xbfa138a7	-1.2595414
230	0x3f97a2fa	1.1846611
231	0x3e51c618	0.20485723
232	0x3ee6bec7	0.45067427
233	0xbf110eda	-0.56663287
234	0x3efea2b8	0.4973352
235	0x3e9ccbde	0.30624288
236	0xbf0b187c	-0.54334235
237	0x3d0844db	0.03326879
238	0xbf07cf62	-0.53050816
239	0xbea5f952	-0.3241678
240	0xbcb20ebe	-0.021735545
241	0x3e5584b7	0.20851408
242	0xbd4fd239	-0.050737593
243	0x3e0bc207	0.13648234
244	0xbe4ca6da	-0.19985524
245	0x3ec24e27	0.3795025
246	0x3f981239	1.1880561
247	0x3e702072	0.23449877
248	0x3feb1add	1.8367573
249	0xbf0b2b78	-0.54363203
250	0x3cdd2425	0.026994774
251	0xbbf10d0a	-0.0073562907
252	0xbd62a500	-0.055333138
253	0x3be071a7	0.006849486
254	0xbb7b12b5	-0.003831071
255	0x3df2c90e	0.118547544

attn.weight f4 [100, 100]
0	0xbee1dae0	-0.441123
1	0x3dd6745c	0.104714125
2	0x3e5c0b42	0.2148867
3	0xbeb44e27	-0.35215876
4	0xbdd5c840	-0.10438585
5	0xbf1efd1e	-0.62104976
6	0xbe50b1ca	-0.20380321
7	0xbe47552e	-0.19466087
8	0xbe1675d7	-0.1469339
9	0x3ed82e05	0.4222261
10	0x3e03ef09	0.12884153
11	0xbf25edef	-0.6481618
12	0xbecede97	-0.40404198
13	0x3efea27d	0.49733344
14	0x3c9067cc	0.01762762
15	0xbd5f9039	-0.0545809
16	0xbe0b87f9	-0.13626088
17	0x3d683c0e	0.056697898
18	0x3dfe7efb	0.12426563
19	0xbe2ad495	-0.16682656
20	0x3e28c177	0.16480051
21	0x3ec84781	0.39117053
22	0xbbe96aeb	-0.0071233413
23	0x3eee0ba5	0.4649326
24	0x3ec05d64	0.3757125
25	0xbe183a38	-0.14865959
26	0x3f2abeb7	0.6669726
27	0xbe3af116	-0.1825603
28	0xbe11a75d	-0.14224
29	0x3d8cfe01	0.06884385
30	0x3e362ed7	0.17791305
31	0xbdd883d0	-0.10572016
32	0xbe6f9b65	-0.23399122
33	0xbd99edb5	-0.07516042
34	0xbeadd0e2	-0.33948427
35	0xbe8c2ce4	-0.27378
36	0xbeb43eb5	-0.35204092
37	0x3e013cb3	0.12620811
38	0x3ec37e37	0.38182232
39	0x3ef54183	0.47901544
40	0x3d12bf33	0.035826873
41	0xbdd0911d	-0.10183928
42	0x3e1f702a	0.15570131
43	0xbe2b342f	-0.16719125
44	0x3e62c6a2	0.22146085
45	0xbca99669	-0.020701604
46	0x3eb8f192	0.36121804
47	0xbdacade5	-0.08431605
48	0xbee7e14e	-0.4528908
49	0x3f054ab6	0.52067125
50	0xbe636c6a	-0.22209325
51	0x3f04d7a3	0.51891536
52	0x3da962cc	0.08270797
53	0x3f05c57b	0.52254456
54	0xbe7d6c38	-0.24748313
55	0xbdff087e	-0.12452792
56	0xbd980434	-0.07422677
57	0x3da1f112	0.07907309
58	0x3db89c0f	0.09014141
59	0xbd3059b0	-0.043054283
60	0x3e798c3f	0.24369906
61	0xbe04fb7b	-0.12986557
62	0xbf85f1a6	-1.046437
63	0xbea997d8	-0.3312366
64	0xbd2605c0	-0.040532827
65	0xbd351a99	-0.04421482
66	0x3d995baf	0.074881904
67	0x3e1de8e3	0.1542087
68	0xbda4e665	-0.08051757
69	0xbe2cfcd9	-0.16893329
70	0xbf18576a	-0.59508383
71	0x3eeff710	0.4686818
72	0xbea5deb6	-0.32396477
73	0x3d688132	0.056763835
74	0xbdd8fa91	-0.10594667
75	0x3e9a4983	0.3013421
76	0x3f2fcb5c	0.68669677
77	0xbd45354f	-0.048146542
78	0xbed2851a	-0.41117173
79	0x3d2564d7	0.04037937
80	0xbf1e0557	-0.617269
81	0xbd3364de	-0.043797366
82	0xbdb9dc5a	-0.09075232
83	0xbf1f738a	-0.62285674
84	0x3e8a09cd	0.26960602
85	0x3e0b20b9	0.13586701
86	0x3e104b22	0.14091161
87	0x3dbd6f94	0.092497975
88	0xbe6a8f38	-0.22906196
89	0x3e8f9b54	0.28048193
90	0x3ed3fda2	0.41404444
91	0x3e0aef16	0.13567767
92	0x3f1914b2	0.59797204
93	0xbdf91d43	-0.12163784
94	0x3e47112b	0.19440143
95	0x3eaa6286	0.33278292
96	0xbf0a7247	-0.54080623
97	0x3ebdc99c	0.37067878
98	0xbdd23ebf	-0.10265874
99	0x3bdd7c21	0.006759182
100	0xbecc9f53	-0.39965305
101	0x3e590542	0.21193412
102	0x3f3bfdb3	0.7343399
103	0xbec3ca33	-0.38240203
104	0xbe854c12	-0.260346
105	0xbf595107	-0.8488926
106	0xbed66c62	-0.41879565
107	0xbf14a6eb	-0.58067197
108	0xbef5e20e	-0.4802403
109	0x3ec9ccca	0.39414054
110	0x3e781e95	0.24230416
111	0xbf3837ef	-0.7196035
112	0xbece4dfe	-0.40293878
113	0x3f123431	0.5711089
114	0xbcbd0e34	-0.023078062
115	0xbdc101b2	-0.094241515
116	0xbe31f0d2	-0.17377022
117	0x3f0ad2c3	0.54227847
118	0x3e0cd163	0.1375175
119	0x3dbc4383	0.09192564
120	0x3daf7e5b	0.08569022
121	0x3e068bc2	0.13139251
122	0x3eeb7cc8	0.45993638
123	0x3f2f49c2	0.6847192
124	0x3f355637	0.7083468
125	0xbdd5db8e	-0.10442267
126	0x3f28d065	0.65942985
127	0xbc12d478	-0.008961789
128	0xbea198f5	-0.3156201
129	0x3e80d605	0.25163284
130	0x3e3f3df3	0.18675976
131	0xbea8649b	-0.32889256
132	0xbf0d360c	-0.55160594
133	0xbe62a485	-0.22133072
134	0xbed095ce	-0.40739292
135	0xbf0cbf80	-0.54979706
136	0xbed07b1e	-0.4071893
137	0xbd9116a8	-0.070843995
138	0x3f22eadd	0.6363962
139	0x3f4e5a53	0.80606574
140	0xbe14e61e	-0.14540908
141	0xbded792a	-0.11595376
142	0x3e12abf7	0.14323412
143	0xbe97a5ed	-0.2961878
144	0x3e8c9230	0.27455282
145	0xbddaf931	-0.10692061
146	0x3e9d72ad	0.30751553
147	0xbd68899a	-0.056771852
148	0xbf14ed37	-0.5817446
149	0x3f43d4c7	0.7649655
150	0xbe69a9d1	-0.22818686
151	0x3f39d078	0.72583723
152	0xbe518927	-0.20462476
153	0x3f53838a	0.8262259
154	0x3eb63241	0.35585216
155	0x3e2578ce	0.16159365
156	0x3ebe4089	0.3715861
157	0xbd5f6535	-0.054539878
158	0x3e7f997e	0.24960896
159	0xbe8663f9	-0.26248148
160	0x3f06d9b2	0.52675927
161	0xbf2389f7	-0.6388239
162	0xbf158e69	-0.58420426
163	0xbdfd5cb4	-0.12371197
164	0xbe7a498d	-0.2444212
165	0x3d115d45	0.03548934
166	0x3d8ebcea	0.06969626
167	0x3ec11eb6	0.37718743
168	0xbc7a281e	-0.015268354
169	0xbdec8849	-0.11549432
170	0xbf0be38c	-0.54644084
171	0x3eebfbeb	0.46090636
172	0xbebda90c	-0.37043035
173	0x3d681733	0.05666275
174	0xbd1799b3	-0.037011813
175	0xbd2ae065	-0.041717906
176	0x3e9ad259	0.30238608
177	0x3ede450e	0.4341206
178	0xbe5ee74b	-0.21767919
179	0x3d83271c	0.06403944
180	0xbef03b2f	-0.46920153
181	0xbdec1246	-0.11526923
182	0x3f2abd98	0.6669555
183	0xbf51f107	-0.82008404
184	0x3e947879	0.28998163
185	0x3da4223f	0.080143444
186	0xbb547312	-0.003241722
187	0x3e405b47	0.1878482
188	0xbdbe9399	-0.09305496
189	0x3f099592	0.5374385
190	0x3ed03e2f	0.40672442
191	0x3df0fd5a	0.11767073
192	0x3f30597a	0.6888653
193	0xbe1a55f9	-0.15071858
194	0x3de005e0	0.109386206
195	0xbbcacc97	-0.00618894
196	0xbecb7f02	-0.39745337
197	0x3f17b623	0.59262294
198	0xbe2c9928	-0.168553
199	0x3df59da2	0.11992957
200	0xbe49b427	-0.19697629
201	0x3e9eb517	0.30997536
202	0x3f1558e7	0.5833878
203	0xbe6f888b	-0.23391931
204	0xbe68549e	-0.22688529
205	0xbec0ed93	-0.37681255
206	0xbc90b358	-0.017663643
207	0xbf21ae07	-0.6315617
208	0x3d8256d9	0.06364221
209	0x3d149310	0.036273062
210	0x3d93d3aa	0.07218106
211	0xbe995ea2	-0.29955012
212	0xbd730d87	-0.059339073
213	0x3eabf3a6	0.33584327
214	0xbccd2835	-0.025043586
215	0x3db6b9c3	0.0892215
216	0xbe406a19	-0.18790473
217	0x3edd15e1	0.43180755
218	0xbdfb661e	-0.12275337
219	0x3da5f892	0.08104052
220	0xbc201643	-0.009770933
221	0x3d66feb8	0.056395262
222	0x3e8f735b	0.28017697
223	0x3dadfd9a	0.08495636
224	0x3e1b7913	0.15182905
225	0x3dc0a1c9	0.09405858
226	0x3e3dfd02	0.18553546
227	0xbd94e0f4	-0.07269469
228	0x3d4703ef	0.048587736
229	0x3e0fc9f7	0.14041887
230	0x3e613889	0.21994223
231	0xbe18941c	-0.14900249
232	0xbec728dc	-0.3889836
233	0xbcc9bae0	-0.024625242
234	0xbe447f5a	-0.19189206
235	0xbe1c2604	-0.15248877
236	0xbe2cbbdf	-0.16868542
237	0x3e1498fb	0.14511482
238	0x3ea9f205	0.3319246
239	0x3f0bda95	0.54630405
240	0xbe306963	-0.17227702
241	0x3d09b658	0.033621162
242	0xbdefa5ec	-0.11701569
243	0xbe9da443	-0.30789384
244	0xbe0c8a23	-0.1372457
245	0xbd30bb0f	-0.043147143
246	0x3d9e835b	0.07739898
247	0xbe3db06a	-0.18524328
248	0xbe070f61	-0.1318946
249	0x3e882f89	0.26598766
250	0xbdb7df62	-0.08978154
251	0x3ec29780	0.3800621
252	0xbd7deaca	-0.06199149
253	0x3e8dd683	0.27702722
254	0x3e874d04	0.26425946
255	0x3da9275d	0.08259461

attn.bias f4 [100]
0	0xbf3cf0a1	-0.7380467
1	0xbf8124b7	-1.008933
2	0xbed02fa7	-0.40661356
3	0xbe7190fa	-0.2359046
4	0xbecb84c1	-0.3974972
5	0xbe42f3f6	-0.19038376
6	0xbd240662	-0.04004515
7	0x3ebab71a	0.3646782
8	0x3e866c8c	0.2625469
9	0x3d8917cd	0.06693993
10	0xbec4377a	-0.38323575
11	0xbf84ab7c	-1.0364833
12	0xbf04d332	-0.5188476
13	0xbf4d07b3	-0.80089873
14	0xbf573a39	-0.84073216
15	0xbf40edfb	-0.7536313
16	0xbf558508	-0.83406115
17	0xbf34e918	-0.7066817
18	0xbf3e4020	-0.74316597
19	0xbf2cb8af	-0.67469305
20	0xbf1b8638	-0.60751677
21	0xbf0fab0c	-0.5612037
22	0xbf3eddc8	-0.7455716
23	0xbf4ccb0f	-0.7999734
24	0xbf154a77	-0.5831675
25	0xbf2596d8	-0.64683294
26	0xbf48f6d0	-0.78501606
27	0xbf5c2b9a	-0.8600403
28	0xbf40aa27	-0.7525963
29	0xbf588c4f	-0.84589094
30	0xbee1df90	-0.44115877
31	0xbf20f5c7	-0.62875026
32	0xbf519a71	-0.81876284
33	0xbf263230	-0.6492033
34	0xbf563d53	-0.83687323
35	0xbf4bc74c	-0.7960098
36	0xbf31b4a7	-0.6941628
37	0xbf5aeeef	-0.85520834
38	0xbf2a6c91	-0.6657191
39	0xbf444a81	-0.76676184
40	0xbf156cd8	-0.5836921
41	0xbf38f029	-0.72241455
42	0xbf30d3d3	-0.6907322
43	0xbf3116b3	-0.6917526
44	0xbf196310	-0.5991678
45	0xbf283ae4	-0.6571486
46	0xbf0e4010	-0.555665
47	0xbf3dc2fa	-0.74125636
48	0xbf2ae6cd	-0.66758424
49	0xbf27ba41	-0.65518576
50	0xbf3ab0fc	-0.72926307
51	0xbf59396b	-0.8485324
52	0xbf081a86	-0.5316547
53	0xbf6e6f06	-0.9313816
54	0xbf0e42c1	-0.5557061
55	0xbf293c1e	-0.66107357
56	0xbf66f40c	-0.90216136
57	0xbf18a2b5	-0.5962327
58	0xbf2f6a0d	-0.68521196
59	0xbf179fa6	-0.5922798
60	0xbf5d5de6	-0.864714
61	0xbf80ccee	-1.006254
62	0xbf42a686	-0.76035345
63	0xbf4096b2	-0.7522994
64	0xbf2e4ef2	-0.6808921
65	0xbf5247c0	-0.8214073
66	0xbf50452f	-0.81355566
67	0xbf3c3300	-0.7351532
68	0xbf04c70b	-0.51866215
69	0xbf3a1e0b	-0.7270209
70	0xbf460b87	-0.7736134
71	0xbf0c9911	-0.5492106
72	0xbd8ae0ae	-0.067811355
73	0xbf8202e3	-1.0157131
74	0xbf5cc7e7	-0.86242527
75	0xbf119c80	-0.56879425
76	0xbf22f5d1	-0.63656336
77	0xbf180def	-0.5939626
78	0xbf1c9a8a	-0.6117331
79	0xbf2cbdc4	-0.6747706
80	0xbf3da1fe	-0.74075305
81	0xbf25d943	-0.6478464
82	0xbef76718	-0.48320842
83	0xbf089016	-0.5334486
84	0xbf4661ae	-0.774928
85	0xbf3e5b67	-0.7435822
86	0xbf2170cb	-0.63062733
87	0xbf27f5f1	-0.6560965
88	0xbf2a1eee	-0.66453445
89	0xbf09ea3e	-0.5387305
90	0xbf278938	-0.65443754
91	0xbf1524e2	-0.58259404
92	0xbf520d52	-0.82051575
93	0xbf499ebf	-0.7875785
94	0xbf4d7ab4	-0.80265355
95	0xbf346554	-0.70467114
96	0xbf11d16e	-0.5696019
97	0xbf4ddad5	-0.80412036
98	0xbf141b3b	-0.5785405
99	0xbf1fd5e0	-0.6243572

attn_combine.weight f4 [50, 100]
0	0xbe5ff705	-0.21871574
1	0xbdd3c472	-0.10340203
2	0x3e120251	0.14258696
3	0xbe0ae1f0	-0.13562751
4	0xbdb048c5	-0.0860763
5	0xbe8b1212	-0.27162224
6	0xbe2ea037	-0.17053305
7	0xbdcdab1e	-0.10042404
8	0x3ad6f4c6	0.0016399852
9	0x3dacea5c	0.08443138
10	0x3eb4379b	0.35198674
11	0xbef92af0	-0.4866557
12	0xbe031cfd	-0.12804027
13	0x3ea1b2cb	0.3158172
14	0x3e38e614	0.18056518
15	0xbe47e078	-0.19519222
16	0x3ddc648c	0.10761365
17	0x3e2cca6d	0.16874094
18	0x3e0baebc	0.13640875
19	0x3d6a3688	0.05718091
20	0xbc320c61	-0.010867209
21	0xbde07212	-0.10959257
22	0x3e355e8c	0.17711848
23	0x3e7aefe7	0.24505578
24	0x3dee99d9	0.11650438
25	0xbdeceb1b	-0.1156828
26	0x3ec821c0	0.3908825
27	0x3d9f6ef3	0.07784834
28	0xbe382bda	-0.17985478
29	0x3e0b33a3	0.13593917
30	0x3e08ddeb	0.13365905
31	0xbdfc4f75	-0.12319843
32	0xbe18490d	-0.14871617
33	0xbd9f089a	-0.077653125
34	0xbe779bad	-0.2418048
35	0xbd9aa970	-0.07551849
36	0xbad52387	-0.0016261198
37	0x3de1061f	0.10987496
38	0x3e8aa395	0.27077928
39	0x3ed43dab	0.414533
40	0x3dbffa19	0.09373874
41	0xbde1bdfe	-0.11022566
42	0x3eaae1a7	0.33375284
43	0xbe0eef3d	-0.1395845
44	0x3e4f3d89	0.20238318
45	0xbd6bb4af	-0.05754536
46	0x3e36f790	0.17867875
47	0xbcb00d31	-0.021490665
48	0xbe49e1c1	-0.19715025
49	0x3ea70fac	0.32629144
50	0xbda0bad8	-0.078481376
51	0x3e27d366	0.16389236
52	0xbcee5ba2	-0.029096428
53	0x3e14865f	0.14504384
54	0x3ebccef7	0.36876652
55	0x3d0b7943	0.03405119
56	0x3dd1b940	0.10240412
57	0x3ea00a6d	0.31257954
58	0x3e098f45	0.13433559
59	0xbe7f7bfc	-0.2494964
60	0x3d7b33dc	0.061328754
61	0xbd8bb457	-0.068215065
62	0xbe586b38	-0.2113465
63	0x3d140e44	0.036146417
64	0xbe9d69ac	-0.30744684
65	0xbe498d12	-0.1968272
66	0x3d2b434e	0.041812234
67	0x3dfbee30	0.1230129
68	0x3e448c69	0.19194187
69	0x3ceff4ed	0.029291594
70	0xbe808c56	-0.25107068
71	0xbe7252d8	-0.23664415
72	0xbe7c35ea	-0.24629942
73	0xbe7d6c37	-0.24748312
74	0xbdaded1b	-0.0849249
75	0x3eca0a28	0.39460874
76	0xbe9b5a12	-0.30342156
77	0xbc4bda53	-0.012442189
78	0xbea47e3b	-0.32127556
79	0x3eac8d44	0.33701527
80	0x3d92d30a	0.07169159
81	0x3dcc1f9a	0.09966965
82	0x3c629782	0.013830068
83	0xbebd8f95	-0.37023607
84	0x3ba160c1	0.004924864
85	0xbf4087d0	-0.75207233
86	0xbe85de38	-0.26146102
87	0xbe94f94b	-0.29096445
88	0x3dfeb088	0.124360144
89	0xbb534fdf	-0.0032243652
90	0x3b12e185	0.0022412252
91	0x3e59511f	0.21222351
92	0xbe9c50dd	-0.30530444
93	0x3cfb862d	0.030703628
94	0xbe1d16af	-0.15340684
95	0xbd3e4033	-0.046447944
96	0xbc2e8586	-0.010651952
97	0xbe19aace	-0.15006563
98	0x3eaf9f4f	0.3430123
99	0x3dbba0c7	0.09161525
100	0x3c8a58d2	0.016888056
101	0x3d967497	0.073464565
102	0x3c92f5bf	0.017939446
103	0x3d13e232	0.03610439
104	0xbda688ab	-0.08131536
105	0xbd063176	-0.032762013
106	0x3d036903	0.03208257
107	0xbe0128b4	-0.12613183
108	0xbc9159cc	-0.017743014
109	0x3edec0fa	0.43506604
110	0x3e5e2178	0.21692455
111	0xbf12aa1a	-0.57290804
112	0xbe2edd50	-0.17076612
113	0x3ea1ecd5	0.31626
114	0x3d90ad3c	0.07064292
115	0xbe3e32ac	-0.18574017
116	0x3e2fede1	0.17180587
117	0x3da1d06e	0.07901083
118	0x3ca43bf7	0.020048125
119	0x3e436e02	0.19084933
120	0xbe22d977	-0.15903269
121	0xbd6eaf65	-0.058272738
122	0xbd2864fc	-0.04111193
123	0x3ec6b5c2	0.38810545
124	0x3cc0b855	0.023525396
125	0xbda44a8b	-0.080220304
126	0x3eaa07d6	0.33209103
127	0x3d9ea6d9	0.077466674
128	0xbd97d89a	-0.0741436
129	0xbd3f305f	-0.04667699
130	0x3e9f14c8	0.31070542
131	0x3dadb60f	0.084819905
132	0xbdf3365d	-0.11875603
133	0x3e2aced2	0.16680458
134	0xbe7e9fc1	-0.24865629
135	0xbcea770f	-0.028621225
136	0xbda3ac1f	-0.07991814
137	0xbe572549	-0.21010317
138	0x3d216a6a	0.039408125
139	0x3e1060f6	0.14099488
140	0x3dc88eeb	0.097928844
141	0x3d598f96	0.05311545
142	0x3dd35f8a	0.10320957
143	0x3cd741f2	0.026276562
144	0x3d0e694f	0.0347684
145	0xbe0d6153	-0.13806657
146	0x3e44cd6c	0.19218987
147	0xbd9c4d88	-0.076319754
148	0xbe5a7071	-0.21331955
149	0x3eea1bd5	0.4572436
150	0xbeaecc17	-0.34140083
151	0xbc39dc04	-0.01134396
152	0xbec02a57	-0.37532303
153	0xbdd0208f	-0.1016246
154	0xbc060e9e	-0.008182196
155	0x3ed08c98	0.40732265
156	0xbf0aa542	-0.54158413
157	0x3e05e9d7	0.13077484
158	0xbe19914e	-0.14996836
159	0xbed8e6e5	-0.4236366
160	0xbdcd6d6d	-0.10030637
161	0xbdc48ac5	-0.09596781
162	0xbcd71450	-0.026254803
163	0x3ecf1a18	0.40449595
164	0xbe5b735d	-0.21430726
165	0xbb7c1176	-0.0038462556
166	0xbd09b04c	-0.033615395
167	0x3e13ef75	0.14446814
168	0x3db01352	0.08597435
169	0xbde09aea	-0.109670475
170	0xbe4cb093	-0.19989233
171	0xbd7512f9	-0.059832547
172	0x3dbacf4d	0.09121571
173	0xbe2dcb6b	-0.16972129
174	0xbd275e2f	-0.040861305
175	0xbd451cf9	-0.048123334
176	0x3df956b9	0.12174744
177	0xbdc20e9d	-0.094754435
178	0xbe7c21d5	-0.24622281
179	0x3bc1a187	0.005909148
180	0xbe9def73	-0.30846748
181	0x3d95e250	0.07318556
182	0x3dc3670a	0.095411375
183	0xbe41e587	-0.18935214
184	0x3e29888e	0.16555998
185	0xbe9456aa	-0.2897237
186	0x3d2ef601	0.042715076
187	0xbd0c4470	-0.034244955
188	0x3e97e0fc	0.29663837
189	0xbe1ec378	-0.15504253
190	0x3dfb2da2	0.12264563
191	0xbdb00817	-0.08595293
192	0xbcbc8bfb	-0.023015967
193	0xbea0521d	-0.31312647
194	0x3e9513d0	0.29116678
195	0xbd5c067f	-0.053717133
196	0xbd0b3121	-0.0339824
197	0x3e960efd	0.2930831
198	0xbd7f8b48	-0.06238869
199	0x3e35d558	0.17757165
200	0xbdb37c6e	-0.087639675
201	0x3cbf8199	0.023377227
202	0x3e0596a7	0.1304575
203	0xbd8eb67e	-0.06968401
204	0xbd5604d6	-0.052250706
205	0xbd4eb30d	-0.050463725
206	0xbdd56244	-0.10419133
207	0xbd8fc08f	-0.070191495
208	0x3c1dd5b1	0.0096334675
209	0x3d05f94f	0.032708462
210	0x3e173c53	0.14769106
211	0xbda90495	-0.08252827
212	0xbdaa5876	-0.08317654
213	0xbb274ecc	-0.0025529144
214	0x3cea92cf	0.028634457
215	0xbe03a2ca	-0.12855068
216	0xbdb902b0	-0.09033716
217	0xbcfbbeaf	-0.030730573
218	0xbd62dbe7	-0.055385496
219	0xbd576225	-0.052583832
220	0xbd166c93	-0.03672464
221	0xbd591732	-0.053000636
222	0x3e102036	0.14074787
223	0x3e90439e	0.28176588
224	0x3dc6544b	0.09684046
225	0xbe13e593	-0.14443044
226	0x3e309bfe	0.17247006
227	0xbdaa6bb7	-0.08321326
228	0x3cc72445	0.024309287
229	0x3e349608	0.17635357
230	0xbd131f25	-0.035918374
231	0xbc1cf574	-0.009580005
232	0xbbaebac9	-0.005332325
233	0x3d5e8746	0.054328226
234	0xbdc80a32	-0.097675696
235	0x3c9a319c	0.018822484
236	0xbd852df5	-0.06502906
237	0x3e25317d	0.1613216
238	0x3c93eb94	0.018056668
239	0x3e2f7696	0.1713508
240	0x3d02854d	0.031865407
241	0xbd2475d3	-0.04015143
242	0x3df736c4	0.120709926
243	0xbd0f6c62	-0.03501547
244	0x3db745f1	0.08948887
245	0xbde77b7a	-0.11302848
246	0xbd0a2197	-0.03372344
247	0x3c012e2d	0.007884544
248	0xbe146f12	-0.14495495
249	0x3e21ae4b	0.15789144
250	0xbde4b4a6	-0.111672685
251	0x3dcccfd5	0.10000578
252	0x3c71bc8c	0.014754426
253	0xbd993e97	-0.07482641
254	0x3eabd2d6	0.33559293
255	0x3e109f82	0.14123347

attn_combine.bias f4 [50]
0	0xbefad1ee	-0.4898829
1	0xbe79dec5	-0.24401386
2	0xbe49dd94	-0.19713432
3	0xbe5e08a8	-0.2168299
4	0xbe9c6290	-0.30543947
5	0xbd52fe3e	-0.051511995
6	0xbedbde6c	-0.42943132
7	0x3e1478c6	0.14499196
8	0xbec851d2	-0.39124924
9	0xbe4b0a56	-0.19828162
10	0xbd35d3a2	-0.044391282
11	0xbd6fe7cb	-0.058570664
12	0xbe88471e	-0.26616758
13	0xbe147566	-0.14497909
14	0xbe6978a0	-0.22799921
15	0xbea2222d	-0.316667
16	0xbe26f463	-0.16304164
17	0xbf136e30	-0.5759001
18	0xbe31131f	-0.1729245
19	0xbdfd7d40	-0.12377405
20	0xbf16381b	-0.5867936
21	0xbeca67e9	-0.39532402
22	0xbe72dbd4	-0.2371667
23	0xbea08518	-0.31351542
24	0xbf0b892e	-0.54506195
25	0xbe8d7be2	-0.27633578
26	0xbeaf43bc	-0.34231365
27	0xbebfb5ca	-0.37443382
28	0xbe97c4a9	-0.29642227
29	0xbf014b40	-0.5050545
30	0xbe74c57b	-0.23903458
31	0xbe4cd814	-0.20004302
32	0xbea0cc9e	-0.3140611
33	0xbf132cda	-0.57490313
34	0xbe87699b	-0.26447758
35	0xbe3b2c5f	-0.18278645
36	0xbea70ec8	-0.32628465
37	0xbe891e03	-0.2678071
38	0xbe876512	-0.26444298
39	0xbe833662	-0.25627428
40	0xbe2a6d25	-0.16643198
41	0xbeac3836	-0.33636636
42	0xbf026c4a	-0.50946486
43	0xbdda5034	-0.10659829
44	0xbf14ce40	-0.5812721
45	0xbf203385	-0.6257861
46	0xbe9db35a	-0.30800897
47	0xbe95d736	-0.29265755
48	0xbe69098d	-0.2275755
49	0xbe596a36	-0.21231923

hidden_layer.weight_ih_l0 f4 [150, 50]
0	0xbdc428b8	-0.09578079
1	0x3e71b2c6	0.23603353
2	0xbf304de3	-0.68868846
3	0xbd4af37c	-0.04954861
4	0xbd88db15	-0.066824116
5	0x3e54c858	0.2077955
6	0x3ea4a115	0.32154146
7	0xbeb04e3c	-0.34434688
8	0xbea6f37b	-0.32607636
9	0x3e07b6e2	0.13253358
10	0xbdf20de3	-0.11819055
11	0x3e512780	0.20425224
12	0x3daec144	0.08532956
13	0x3eae2a73	0.3401676
14	0x3e51c6c6	0.20485982
15	0x3e8fa4ab	0.2805532
16	0x3b52b106	0.0032148971
17	0xbd343eab	-0.044005077
18	0x3e2b0291	0.16700198
19	0x3eabd4c6	0.3356077
20	0x3edf800e	0.43652385
21	0xbd1e3036	-0.038620196
22	0xbe614fcf	-0.22003101
23	0x3dfe62b1	0.12421168
24	0x3eb5f661	0.35539535
25	0x3ec897d6	0.39178342
26	0xbe15c778	-0.14626873
27	0x3e0f990e	0.1402323
28	0xbf49d8cb	-0.78846425
29	0xbd38c357	-0.045108166
30	0xbf6c2671	-0.92246157
31	0xbe7df3a3	-0.24799971
32	0x3e8c9b8c	0.27462423
33	0xbeacfbff	-0.33786008
34	0xbe5d5694	-0.21615058
35	0xbe0af6e4	-0.13570744
36	0x3e84d86e	0.25946373
37	0x3e880bc9	0.2657149
38	0x3cdb0d11	0.026739629
39	0xbeac1fdc	-0.33618057
40	0x3cd2aaf4	0.025716282
41	0x3ebf9324	0.37416947
42	0x3e5711c1	0.21002866
43	0x3e4073cd	0.18794174
44	0xbbf71592	-0.007540413
45	0x3dfd721c	0.1237528
46	0x3e540faa	0.207091
47	0x3dc81473	0.097695254
48	0x3d616d24	0.055035725
49	0x3d188e55	0.037245113
50	0x3e07eb8f	0.13273452
51	0x3e1f421f	0.15552567
52	0x3c996c58	0.01872842
53	0x3e5cbd66	0.21556625
54	0x3e13ab8d	0.1442091
55	0x3ebe5ef0	0.37181807
56	0xbe7a5720	-0.24447298
57	0x3eb733fd	0.3578185
58	0xbd660e7d	-0.05616616
59	0x3d5b199e	0.053491227
60	0x3f108d78	0.56465864
61	0xbd0a620c	-0.03378491
62	0x3e74d18f	0.23908065
63	0xbdb9fb99	-0.090811916
64	0x3df84d8e	0.121241674
65	0x3e31180b	0.17294328
66	0x3ebf748a	0.373936
67	0xbd4a657a	-0.04941318
68	0xbbdddaad	-0.006770453
69	0x3db0247d	0.086007096
70	0xbd02d372	-0.03193993
71	0x3e874452	0.26419312
72	0x3da3fdf8	0.08007425
73	0x3e061866	0.13095245
74	0x3daea771	0.08528031
75	0xbcdda187	-0.027054561
76	0x3e52bed8	0.20580614
77	0x3e4f43a8	0.20240653
78	0x3cc9752d	0.024592007
79	0xbbad5f49	-0.0052909
80	0x3dd03561	0.10166431
81	0x3e77125b	0.24128096
82	0x3d97cdd8	0.074123085
83	0xbe649a8f	-0.22324584
84	0x3cd9f956	0.02660815
85	0xbce7e1d7	-0.028305931
86	0x3e0cbc07	0.13743602
87	0x3dc1da6e	0.0946549
88	0x3d3f001b	0.04663096
89	0x3e4bf911	0.1991923
90	0x3e7f7ec2	0.24950698
91	0xbd4a96c8	-0.049460202
92	0x3d5e4df8	0.054273576
93	0xbd874340	-0.06604624
94	0x3da07815	0.07835404
95	0xbee1423d	-0.43995848
96	0x3ea5247f	0.32254407
97	0x3ddd45fb	0.10804363
98	0x3e2d0b2f	0.16898797
99	0x3df02392	0.117255345
100	0x3c306a5c	0.010767546
101	0xbedb4d55	-0.42832437
102	0x3e299e41	0.16564275
103	0x3de0f9d8	0.10985154
104	0x3dcbe87a	0.09956451
105	0xbe5b71c0	-0.21430111
106	0xbe2d01be	-0.16895196
107	0xbd748042	-0.05969263
108	0x3db378bd	0.087632634
109	0xbd225485	-0.039631385
110	0x3b765963	0.00375899
111	0xbe92977c	-0.28631198
112	0x3cd7b7ff	0.026332853
113	0xbe92948a	-0.2862895
114	0xbe08a5ee	-0.13344547
115	0xbe2efc9f	-0.17088555
116	0xbed51f17	-0.41625282
117	0xbee804b9	-0.45316103
118	0x3e306e1f	0.17229508
119	0xbb872c4e	-0.0041251546
120	0x3ddb62f5	0.10712234
121	0xbc953618	-0.01821427
122	0x3e05c927	0.13065015
123	0xbda41ca3	-0.080132745
124	0xbe922a9c	-0.28548133
125	0xbe8ee351	-0.27907804
126	0xbd0a5df0	-0.033780992
127	0xbdafb8ef	-0.08580195
128	0x3eeb98a4	0.46014893
129	0xbe80d501	-0.2516251
130	0x3ea70207	0.32618734
131	0xbbe9127e	-0.0071128
132	0x3eb83367	0.35976717
133	0xbf115c47	-0.5678143
134	0xbc7b5dd1	-0.015342192
135	0x3c7c32c7	0.015392966
136	0xbec936f8	-0.3929975
137	0xbe0bd919	-0.13657035
138	0xbdc02a46	-0.09383063
139	0x3d959498	0.07303733
140	0x3ead2b8b	0.33822283
141	0xbeea31d2	-0.45741135
142	0xbe39705d	-0.1810927
143	0xbe91af1c	-0.2845391
144	0x3dc02b66	0.093832776
145	0xbe84efa5	-0.25964084
146	0xbe848e9f	-0.2589006
147	0xbdb6a209	-0.089176245
148	0xbe283302	-0.16425708
149	0xbd16e392	-0.03683812
150	0x3e1b9c3f	0.15196322
151	0x3e61a58b	0.22035806
152	0xbe907dbe	-0.28220934
153	0x3e00583e	0.12533662
154	0xbe13fb60	-0.1445136
155	0xbd603bc5	-0.0547445
156	0x3d5f3e88	0.054502994
157	0x3e86ce6b	0.2632936
158	0xbf1500c9	-0.58204323
159	0xbdfdfd6a	-0.124018505
160	0x3cb97dc7	0.022642983
161	0xbe40750e	-0.18794653
162	0x3e92218c	0.2854122
163	0xbe6088dc	-0.21927208
164	0x3caf3d02	0.021391395
165	0x3e067a8a	0.13132682
166	0xbecff797	-0.40618584
167	0xbe35244a	-0.17689624
168	0xbd0f2831	-0.03495044
169	0x3da6b1fb	0.08139416
170	0xbca1ece9	-0.019766288
171	0x3e1df583	0.15425687
172	0xbe4e7715	-0.20162614
173	0x3dc8b37f	0.09799861
174	0x3d9b64f4	0.07587615
175	0x3e2c8bc7	0.16850196
176	0xbdadc5a4	-0.084849626
177	0xbeb3eb72	-0.35140568
178	0xbf031d64	-0.5121672
179	0xbebeea08	-0.37287927
180	0xbf0d596f	-0.5521459
181	0x3dc67b54	0.09691492
182	0xbd2e61cf	-0.042573746
183	0xbeb8695e	-0.3601789
184	0xbe04ea85	-0.12980087
185	0xbb2cf7d0	-0.0026392825
186	0xbda65955	-0.081225075
187	0x3e010b8c	0.12602061
188	0xbd32ba71	-0.043634836
189	0xbd905d52	-0.070490494
190	0x3e4f45a9	0.20241417
191	0xbe7e6cbd	-0.24846168
192	0x3e6d168f	0.23153137
193	0xbd7aee0e	-0.061262183
194	0x3dcccabe	0.099996075
195	0x3db8020a	0.08984764
196	0x3ef2d412	0.47427422
197	0xbdd1d9cf	-0.10246622
198	0x3d8d528e	0.06900512
199	0xbe32e8f7	-0.17471682
200	0x3b650047	0.0034942792
201	0x3ed18133	0.40918884
202	0x3db298a8	0.08720523
203	0xbe52913a	-0.20563212
204	0xbd76d570	-0.060262144
205	0x3eb4853e	0.35257906
206	0xbcd463bb	-0.025926461
207	0x3cd59e98	0.0260766
208	0x3e2fcd37	0.17168127
209	0x3da043b3	0.078254126
210	0x3d407299	0.04698429
211	0xbe1d9e57	-0.15392433
212	0x3e5ce29c	0.2157082
213	0x3eeda20e	0.464127
214	0x3e0d6854	0.1380933
215	0x3e5b89f1	0.21439339
216	0x3e92f63f	0.28703496
217	0x3e63a9f2	0.22232798
218	0xbe44a911	-0.19205119
219	0xbd0a30a3	-0.03373779
220	0x3f785f5c	0.97020507
221	0x3b178f8d	0.0023126334
222	0x3e43dd57	0.19127403
223	0x3db2268a	0.08698757
224	0x3e962009	0.29321316
225	0x3d35313c	0.044236407
226	0x3e2317ca	0.15927044
227	0x3dedeedf	0.11617827
228	0x3b4411a8	0.002991775
229	0x3e16668d	0.14687558
230	0xbe27571a	-0.1634182
231	0xbd3f1bd0	-0.046657383
232	0x3e636bb8	0.2220906
233	0xbd2715a1	-0.04079211
234	0x3daa18e3	0.08305528
235	0xbceb4218	-0.02871804
236	0x3ef05694	0.46941054
237	0xbe2055af	-0.15657686
238	0x3e8aa92d	0.27082196
239	0x3dc73d9c	0.09728548
240	0xbcb9648e	-0.022630956
241	0x3e6985fb	0.22805016
242	0xbc12e778	-0.008966319
243	0x3ea8eb3f	0.3299198
244	0x3b97a34d	0.0046276213
245	0x3ea934ae	0.33048004
246	0x3d874a36	0.066059515
247	0x3dbc01cc	0.0918003
248	0x3e5ad3e5	0.21369894
249	0x3d3c0b44	0.04590918
250	0xbde70e31	-0.11282004
251	0xbe58270d	-0.21108647
252	0xbc082312	-0.008309143
253	0x3ce2a19d	0.027664954
254	0x3d866c3d	0.065636136
255	0xbd8a0a8c	-0.06740293

hidden_layer.weight_hh_l0 f4 [150, 50]
0	0xbe0633a8	-0.13105643
1	0x3e6df782	0.23238948
2	0xbe29033c	-0.1650514
3	0x3ddb5f48	0.10711533
4	0x3dc4275a	0.09577818
5	0x3e43400e	0.19067404
6	0x3e93746c	0.2879976
7	0xbe450974	-0.19241887
8	0xbebb6fde	-0.36608785
9	0xbd87e99a	-0.06636353
10	0xbe89bf7a	-0.26903898
11	0xbd014670	-0.031561315
12	0x3e360524	0.17775398
13	0x3eab1fe6	0.33422774
14	0x3f02497d	0.50893384
15	0x3e887ffe	0.2666015
16	0xbeaf5ef2	-0.34252125
17	0x3da9788c	0.082749456
18	0x3e5c33af	0.2150409
19	0x3ec2fc7a	0.3808325
20	0xbc7e9afc	-0.015539881
21	0xbd9b47f0	-0.0758208
22	0xbf5d8d5e	-0.86543834
23	0xbeb4784f	-0.35248038
24	0xbd2581c6	-0.040406965
25	0xbd0bc93e	-0.034127466
26	0x3d7de1de	0.06198298
27	0xbe394749	-0.180936
28	0xbeb9b4b1	-0.3627067
29	0xbe250ac9	-0.16117395
30	0x3d18bada	0.03728757
31	0x3e87e357	0.26540634
32	0xbd411e6d	-0.047148157
33	0xbeb1db7c	-0.34737766
34	0xb95e3988	-0.00021193002
35	0xbf49df9a	-0.78856814
36	0xbec851ee	-0.39125007
37	0x3e778d7f	0.2417507
38	0x3ea80949	0.32819584
39	0xbe2e2c05	-0.1700898
40	0x3e16ce4a	0.1472713
41	0x3e9935a5	0.2992374
42	0x3da0cf53	0.07852044
43	0xbf107b73	-0.5643837
44	0x3deb77d8	0.11497468
45	0xbec721b3	-0.38892898
46	0x3e8d98b7	0.27655575
47	0xbe24e441	-0.16102697
48	0x3e8680e8	0.26270223
49	0x3f843ce9	1.0331088
50	0x3d94f801	0.072738655
51	0xbda0ed5f	-0.07857775
52	0x3c5d09d7	0.0134911155
53	0x3d8b6863	0.068070196
54	0xbf34cd53	-0.706258
55	0xbebf3fe7	-0.3735344
56	0x3d3bb605	0.045827884
57	0xb9f25823	-0.00046223504
58	0x3ea95db8	0.33079314
59	0xbd967d19	-0.07348079
60	0x3e27f467	0.16401826
61	0x3eddb202	0.43299872
62	0xbde28db1	-0.11062182
63	0xbe8429d4	-0.25813162
64	0xbd07ce92	-0.033155985
65	0x3f31a641	0.6939431
66	0x3f3a0c81	0.7267533
67	0xbe6b3642	-0.22969916
68	0xbe0a11b1	-0.13483311
69	0xbe7e4d1e	-0.24834105
70	0x3ed3bc50	0.4135461
71	0xbd98e166	-0.07464866
72	0x3f67c944	0.9054148
73	0x3ddc7eac	0.10766348
74	0x3f0b5adb	0.5443551
75	0x3f0bb074	0.5456612
76	0x3d739b6b	0.05947439
77	0x3e468aab	0.19388835
78	0xbf1d0c03	-0.61346453
79	0x3f3472a0	0.70487404
80	0xbe862166	-0.26197356
81	0xbf3a4f18	-0.7277694
82	0x3e4cd4a2	0.20002988
83	0x3d822951	0.06355537
84	0x3ecefe72	0.404285
85	0x3de12a50	0.109943986
86	0x3dd1c39a	0.10242386
87	0xbeb35b6a	-0.3503068
88	0x3d597ea4	0.05309929
89	0x3e832ba7	0.25619242
90	0x3f224b71	0.63396364
91	0xbd538a12	-0.051645346
92	0xbef645ec	-0.4810022
93	0x3ed44e60	0.41466045
94	0x3ca80ac9	0.020512955
95	0xbe85ff69	-0.26171425
96	0xbf3408f8	-0.70326185
97	0xbed08af7	-0.40731022
98	0x3e2fee6b	0.17180793
99	0x3e5d2da6	0.21599445
100	0x3e4aef62	0.1981788
101	0xbd96591c	-0.07341215
102	0xbe9eec3b	-0.31039605
103	0xbd15e73d	-0.03659748
104	0x3b98eea9	0.0046671224
105	0x3edc08ca	0.42975456
106	0x3edc0d9b	0.4297913
107	0xbe07fdfc	-0.13280481
108	0xbe5b4e07	-0.21416484
109	0x3dadb0ee	0.08481012
110	0x3eab4158	0.3344829
111	0xbe9cf4d9	-0.30655554
112	0xbe2d535e	-0.16926333
113	0x3e8cf536	0.2753083
114	0xbdb8e5ef	-0.09028231
115	0xbe6cc8f4	-0.23123533
116	0xbf245f5b	-0.64208
117	0x3f00268a	0.50058806
118	0xbd42ef7d	-0.047591675
119	0x3f1ef041	0.6208535
120	0xbe4e6a07	-0.20157634
121	0x3e6d6d0d	0.23186131
122	0xbe0255bd	-0.12728019
123	0xbee783be	-0.452177
124	0xbd543e62	-0.051817305
125	0xbe857304	-0.26064312
126	0x3dda58d6	0.10661475
127	0xbce32466	-0.027727317
128	0xbcb2b151	-0.021813067
129	0xbef57f58	-0.47948718
130	0xbe92affd	-0.28649893
131	0x3f3512cb	0.707318
132	0xbf00829e	-0.50199306
133	0xbe59343f	-0.21211337
134	0x3ea02582	0.31278616
135	0xbcea5d30	-0.028608888
136	0xbf7265d8	-0.9468665
137	0xbf49e21b	-0.78860635
138	0x3e9cba8e	0.3061108
139	0xbedc0cbc	-0.42978466
140	0x3d861fd5	0.0654904
141	0x3e1acd45	0.15117367
142	0xbd7bcc0a	-0.061473884
143	0xbf00a130	-0.5024595
144	0xbe33a9f1	-0.17545296
145	0xbdd1cb44	-0.10243848
146	0x3ecfd74d	0.4059395
147	0x3ecda7a4	0.40166962
148	0xbea5b4d0	-0.3236451
149	0xbde1b442	-0.110207096
150	0xbe868a89	-0.2627757
151	0x3edc8853	0.43072757
152	0xbc843a0d	-0.016140962
153	0x3ec18ade	0.3780126
154	0x3de4777d	0.11155603
155	0x3e5ef5c2	0.21773437
156	0x3f14ad0d	0.58076555
157	0x3dd93cb3	0.106072806
158	0x3eee0bc1	0.46493343
159	0xbe9e3376	-0.30898637
160	0x3e8d0eb7	0.2755029
161	0xbe5835b4	-0.21114236
162	0xbf05334c	-0.520314
163	0xbc83da09	-0.016095178
164	0x3f0f52f9	0.5598598
165	0x3dfdff7c	0.124022454
166	0x3ddd86d0	0.10816729
167	0x3ea81c09	0.3283389
168	0x3e3ef441	0.18647863
169	0xbe8b9d97	-0.2726867
170	0xbdf525d8	-0.11970109
171	0x3e958783	0.2920495
172	0xbe41ea68	-0.18937075
173	0x3d9ab2d2	0.075536385
174	0xbdb05a59	-0.086109824
175	0x3e6d1791	0.23153521
176	0x3e38e666	0.1805664
177	0x3ed60ed1	0.4180818
178	0xbea5b3bf	-0.32363698
179	0x3f09718a	0.5368887
180	0xbee26a4e	-0.4422173
181	0xbe905b7f	-0.28194806
182	0x3e389f97	0.18029629
183	0xbf105697	-0.56382126
184	0xbe0a8723	-0.13528113
185	0x3e8a6f10	0.2703786
186	0xbd593a03	-0.05303384
187	0x3cf836ce	0.03029957
188	0xbef86916	-0.48517674
189	0x3e4a8e3b	0.19780819
190	0x3efa3290	0.488667
191	0x3e428984	0.1899777
192	0x3eb1abc6	0.34701365
193	0x3ddfff38	0.10937351
194	0x3e09baff	0.1345024
195	0x3eabfb17	0.33590004
196	0xbef24327	-0.47316858
197	0x3e703cf2	0.23460749
198	0xbdd0bfd0	-0.10192835
199	0xbc991e45	-0.018691191
200	0x3eea06b6	0.45708245
201	0x3e055979	0.13022412
202	0x3f02af4c	0.5104873
203	0xbd3a869a	-0.045538522
204	0xbf6d8724	-0.92784333
205	0x3e08a1c7	0.13342963
206	0xbddd56ad	-0.10807548
207	0x3cd0a513	0.025469339
208	0x3e95385c	0.2914456
209	0xbf04e12f	-0.519061
210	0xbdfabced	-0.12243066
211	0x3de9c3a6	0.1141427
212	0xbc386b2c	-0.0112560205
213	0xbea9042d	-0.33010998
214	0xbe50bb82	-0.20384029
215	0xbe64391a	-0.22287408
216	0xbd0d429d	-0.034487356
217	0x3e2e5711	0.170254
218	0xbef838cc	-0.48480833
219	0xbc79dcf5	-0.015250434
220	0x3e0b7018	0.13616979
221	0xbdc8d2af	-0.0980581
222	0x3f0ea41b	0.55719155
223	0xbd120068	-0.03564492
224	0x3c2d47f1	0.010576234
225	0xbf1adb2f	-0.604907
226	0xbe32ad25	-0.17448862
227	0x3e0f672a	0.14004198
228	0x3e00d1ae	0.12579986
229	0x3db8d13b	0.090242825
230	0x3f48da8a	0.78458464
231	0x3c584c11	0.013201729
232	0xbed35b3b	-0.4128054
233	0x3d4bce8e	0.049757533
234	0x3dcbefd0	0.0995785
235	0x3eff84b6	0.49905938
236	0xbf5c28f9	-0.8600002
237	0xbf028d8c	-0.50997233
238	0x3e5b3064	0.21405178
239	0x3e0e0a57	0.13871132
240	0xbf07e340	-0.5308113
241	0x3e1cf69c	0.15328449
242	0xbee852c7	-0.45375654
243	0x3e7ca639	0.24672784
244	0x3e53f7b1	0.20699956
245	0xbe13982f	-0.14413522
246	0x3d7c3b2d	0.061579872
247	0x3e6c7b9f	0.23094033
248	0xbf543560	-0.82893944
249	0x3eced36c	0.40395677
250	0xbdc9569b	-0.09830972
251	0xbea4f92b	-0.3222135
252	0xbeaaf6f2	-0.3339153
253	0xbea19867	-0.31561586
254	0xbf28db52	-0.65959656
255	0xbebc8a77	-0.3682439

hidden_layer.bias_ih_l0 f4 [150]
0	0xbe5bb006	-0.21453866
1	0x3de5ed15	0.112268604
2	0xbe09c46f	-0.1345384
3	0xbee9bac0	-0.4565029
4	0xbe0108dc	-0.12601036
5	0x3ebb87f2	0.36627156
6	0xbf0fbd18	-0.5614791
7	0x3d13c805	0.036079425
8	0x3e1c904e	0.15289423
9	0x3e134e44	0.14385325
10	0x3d8de290	0.06927979
11	0xbe91046d	-0.2832369
12	0xbecbfd9a	-0.3984192
13	0x3dea9921	0.11454988
14	0x3d974d41	0.07387782
15	0xbefdc954	-0.49567664
16	0xbe1dbebc	-0.1540479
17	0xbee7c5dc	-0.45268142
18	0xbe4c37d7	-0.19943176
19	0x3d0022be	0.031283133
20	0x3e55df75	0.20886023
21	0x3ecfef5f	0.40612313
22	0xbdecf774	-0.115706354
23	0x3e529000	0.20562744
24	0xbe106204	-0.1409989
25	0x3e6cf660	0.2314086
26	0x3de42a71	0.111409076
27	0xbe8c0f32	-0.27355343
28	0xbdfcaf01	-0.12338067
29	0x3eb15be1	0.3464041
30	0xbec60d7e	-0.3868217
31	0x3f13c468	0.5772157
32	0x3e3cb978	0.18430126
33	0xbeed933b	-0.4640139
34	0x3db905ce	0.0903431
35	0x3df5d9d7	0.1200444
36	0xbd9f8ae7	-0.077901654
37	0x3ebdcba6	0.37069434
38	0x3d94a6ce	0.07258378
39	0x3ddfa983	0.10921004
40	0xbe2df588	-0.16988194
41	0x3e2418e3	0.16025119
42	0x3ea77784	0.3270837
43	0x3e2e531f	0.17023896
44	0xbeb06350	-0.3445077
45	0x3d5da59f	0.054113027
46	0xbdd8ab17	-0.10579508
47	0xbcfd3502	-0.030909065
48	0xbde119fa	-0.10991283
49	0x3e00a9fa	0.12564841
50	0xbec00b0d	-0.3750843
51	0xbe2ac33b	-0.16676037
52	0xbe835a5c	-0.25654876
53	0x3e186610	0.14882684
54	0x3d57c8b2	0.052681632
55	0x3d3b05a6	0.045659684
56	0xbdc00747	-0.09376388
57	0x3e63f6a8	0.2226206
58	0xbd4372a5	-0.047716755
59	0xbe7d73a0	-0.24751139
60	0x3d881ac9	0.06645734
61	0x3e0e05c7	0.13869391
62	0x3e8372a7	0.2567341
63	0xbebf40aa	-0.37354022
64	0xbe99a05a	-0.3000515
65	0x3c26bab5	0.01017635
66	0x3dd568d2	0.104203835
67	0x3e470b3a	0.19437876
68	0x3f19ac14	0.60028195
69	0x3f1f666e	0.6226567
70	0xbe2d0a7c	-0.1689853
71	0x3dc2dae9	0.0951441
72	0x3d5ed03f	0.054397818
73	0x3f42ce28	0.7609582
74	0xbee6a91a	-0.4505089
75	0x3f2078ec	0.6268451
76	0xbe3cca37	-0.18436514
77	0xbe414670	-0.18874526
78	0x3e122334	0.14271241
79	0x39e189e8	0.00043018092
80	0xbde41148	-0.11136109
81	0x3d5a9f18	0.05337438
82	0x3e3951e7	0.1809765
83	0x3ddfffdc	0.10937473
84	0xbed25db9	-0.4108713
85	0x3e9358da	0.28778726
86	0x3e7d12c6	0.24714193
87	0x3e947865	0.28998104
88	0xbe5e3066	-0.2169815
89	0xbd27b4e4	-0.040943995
90	0xbeecc79a	-0.46246034
91	0x3e87a95f	0.26496407
92	0xbca9baee	-0.020719018
93	0x3e38f646	0.18062696
94	0x3f0a8831	0.5411406
95	0xbded5f84	-0.11590484
96	0xbca2fa47	-0.019894732
97	0x3d8a1676	0.06742565
98	0xbe6b9477	-0.23005854
99	0xbed8ebda	-0.4236744
100	0x3edcf4ca	0.4315551
101	0xbe8b9c98	-0.2726791
102	0xbccb5b93	-0.02482394
103	0xbc6e34d1	-0.01453896
104	0xbb7dc52a	-0.0038722255
105	0xbe888179	-0.2666128
106	0x3d204945	0.039132375
107	0x3cc166fd	0.023608679
108	0xbe3dfdc7	-0.1855384
109	0x3d79fa49	0.061029706
110	0xbe30dcef	-0.1727178
111	0xbe497c93	-0.19676428
112	0xbe9f1056	-0.3106715
113	0x3e3f761f	0.18697403
114	0xbdb4963a	-0.08817716
115	0xbe846a95	-0.25862566
116	0xbe0d2a93	-0.13785772
117	0xbe00c861	-0.12576438
118	0x3ebfd1ef	0.37464854
119	0xbdd594a6	-0.10428743
120	0xbdfa12cf	-0.12210619
121	0xbc595a57	-0.013266168
122	0xbdab6dbb	-0.08370539
123	0x3f01d684	0.5071795
124	0x3e0bbd7e	0.13646504
125	0x3e30b972	0.17258242
126	0xbe913072	-0.28357273
127	0xbdd58e78	-0.104275644
128	0x3e328e22	0.17437032
129	0xbea86f7d	-0.3289756
130	0x3ebbb01c	0.36657798
131	0x3f013cad	0.5048321
132	0xbee39472	-0.44449192
133	0x3e004f06	0.12530145
134	0xbea1004a	-0.31445533
135	0xbed4b4b7	-0.41544124
136	0xbd8e6d12	-0.06954397
137	0xbe0ebcb3	-0.1393917
138	0x3c76be01	0.015059949
139	0xbe2c51dc	-0.16828102
140	0xbe2dca40	-0.16971684
141	0xbc53af3e	-0.012920199
142	0xbe6fc14e	-0.23413584
143	0xbebf7865	-0.3739654
144	0xbdecc3f4	-0.115608126
145	0xbe41f8f9	-0.18942632
146	0x3e1b2ccd	0.15153809
147	0x3e18d677	0.14925562
148	0x3dd6988c	0.10478315
149	0x3cd25e92	0.02567986

hidden_layer.bias_hh_l0 f4 [150]
0	0xbd0e1418	-0.03468713
1	0x3e553d6c	0.20824212
2	0xbe1e27af	-0.15444826
3	0xbeeef1b0	-0.46668768
4	0xbe01910f	-0.12652992
5	0x3e587d07	0.21141444
6	0xbf03c832	-0.5147735
7	0xbd7d6ee5	-0.061873335
8	0x3ec0c91c	0.37653434
9	0xbb8aabc1	-0.0042319004
10	0x3c391f75	0.011299004
11	0xbe961de3	-0.29319677
12	0xbe778c19	-0.24174537
13	0x3e20d00f	0.15704368
14	0xbdca8515	-0.09888665
15	0xbef5d526	-0.48014182
16	0xbe183606	-0.14864358
17	0xbe67aa7e	-0.22623631
18	0xbe40141c	-0.18757671
19	0xbc44f482	-0.012021186
20	0x3dc3b39f	0.095557444
21	0x3ee5bd01	0.4487076
22	0xbe32137b	-0.17390244
23	0x3d81d94b	0.063402735
24	0xbe1ff44e	-0.15620539
25	0x3ea0e3e4	0.31423867
26	0x3e018eb7	0.12652098
27	0xbec2c525	-0.38041034
28	0xbe38c64a	-0.18044391
29	0x3e88cc98	0.26718593
30	0xbf06722c	-0.5251796
31	0x3ef5c0c0	0.4799862
32	0x3e2db51b	0.16963618
33	0xbf1268cb	-0.5719115
34	0x3e97b99c	0.29633796
35	0x3e8d1df7	0.27561924
36	0xbe656327	-0.22401105
37	0x3ede2ddf	0.43394372
38	0x3e55e9df	0.20889996
39	0xbd3edbb4	-0.046596244
40	0x3c8d6269	0.01725884
41	0x3c05755c	0.008145656
42	0x3e8907d0	0.26763773
43	0x3e388c12	0.18022183
44	0xbe623c75	-0.22093375
45	0xbb7dfe37	-0.003875626
46	0x3e08598a	0.13315406
47	0x3e53675b	0.20644896
48	0xbd4aea00	-0.049539566
49	0xbb935e53	-0.0044973283
50	0xbeafa19a	-0.3430298
51	0xbe0be251	-0.13660552
52	0xbd71ee2c	-0.05906503
53	0x3e4481d1	0.19190146
54	0xbda15b72	-0.0787877
55	0x3e19aec0	0.15008068
56	0xbe4b3ea8	-0.1984812
57	0x3d93316a	0.07187159
58	0xbd431f17	-0.04763707
59	0xbe320447	-0.17384444
60	0x3db60ce3	0.08889177
61	0x3e46db48	0.19419587
62	0x3eaf9f07	0.34301016
63	0xbea96283	-0.3308297
64	0xbea23462	-0.3168059
65	0x3d450c3a	0.048107363
66	0xbd79063c	-0.06079696
67	0x3ddcc3f7	0.10779565
68	0x3f26ea5e	0.65201366
69	0x3f4930fc	0.7859037
70	0xbd4bcd88	-0.049756557
71	0x3d7b3f69	0.06133977
72	0xbcffd4a9	-0.031229334
73	0x3f3e2d1e	0.74287593
74	0xbe8b31fe	-0.2718658
75	0x3f34a0bc	0.7055776
76	0xbdd40528	-0.10352546
77	0xbeb075d5	-0.344649
78	0x3e884b1d	0.26619807
79	0x3d9c2f89	0.07626254
80	0xbe2366ec	-0.1595723
81	0x3e535389	0.20637335
82	0x3e6de341	0.23231222
83	0x3d248e27	0.04017463
84	0xbe1897f4	-0.14901716
85	0x3e6527fe	0.22378537
86	0x3e025e37	0.12731253
87	0x3e996686	0.29961032
88	0xbe074de4	-0.13213307
89	0xb98d44ef	-0.00026944975
90	0xbeec874b	-0.4619697
91	0x3db15080	0.08657932
92	0xbe1720cb	-0.14758603
93	0x3e0332ea	0.12812391
94	0x3ef9ed9c	0.48814094
95	0xbe88b1f5	-0.2669827
96	0x3e30f2d1	0.17280127
97	0x3e1284cf	0.14308475
98	0xbe61912e	-0.22028038
99	0xbe1b6821	-0.15176441
100	0x3ca3e9df	0.02000898
101	0xbf1a3402	-0.6023561
102	0xbea310e4	-0.31848824
103	0xbc652833	-0.013986635
104	0x3d67d8bf	0.05660319
105	0xbbf5f7ee	-0.007506362
106	0x3d7d596d	0.06185286
107	0xbe178ce2	-0.14799836
108	0xbea71177	-0.32630512
109	0x3e9927a6	0.29913062
110	0x3dab2edd	0.08358548
111	0xbd962889	-0.0733195
112	0xbd99ba74	-0.07506266
113	0x3c9d8190	0.01922682
114	0x3c5e6fe3	0.013576481
115	0xbd1edc73	-0.038784456
116	0x3d66d04f	0.056351002
117	0x3e73124e	0.23737451
118	0x3bc6925f	0.0060599293
119	0xbbad3659	-0.0052860198
120	0x3d7c6380	0.061618328
121	0xbd5ef639	-0.054434035
122	0x3c66965c	0.014073934
123	0x3e549451	0.20759703
124	0xbdecf6a1	-0.11570478
125	0xbe18f4a3	-0.14937072
126	0xbe8b663d	-0.2722644
127	0xbcdfa63a	-0.027300943
128	0x3c1fb0ca	0.00974674
129	0xbee04e8b	-0.43809924
130	0xbcd041e1	-0.025422039
131	0x3f140345	0.5781749
132	0xbe9d27b3	-0.3069435
133	0x3d2852d9	0.041094635
134	0xbe44021d	-0.19141431
135	0xbe9f19a9	-0.31074265
136	0xbda7e629	-0.081981964
137	0xbdd0f489	-0.102028914
138	0x3e2eb4d7	0.17061172
139	0xbea8bca4	-0.3295642
140	0xbd4b0dbc	-0.049573645
141	0xbe1c94d3	-0.15291147
142	0xbd9df575	-0.07712833
143	0xbe914aa7	-0.28377268
144	0xbe7a2f8f	-0.24432205
145	0xbe407279	-0.18793668
146	0xbb598540	-0.0033190995
147	0x3ee51374	0.44741404
148	0x3bd06d1b	0.0063606626
149	0xbdc43425	-0.09580258
