models/oracle_gru_encoder.pt (torch_old, 65132 bytes, 5 tensors)

embedding.weight f4 [15, 50]
0	0x3f1208fd	0.57044965
1	0xbf245018	-0.64184713
2	0x3d8bfd76	0.06835453
3	0xbf495dbe	-0.78658664
4	0xbfe5fc4d	-1.7967621
5	0xbe8cef55	-0.27526346
6	0x3f96b34c	1.1773467
7	0x3f066105	0.5249179
8	0x3fd584a0	1.6681099
9	0xbd825825	-0.063644685
10	0xbf124fc9	-0.5715299
11	0x3f47b6c2	0.7801324
12	0xbef9440e	-0.48684734
13	0xbedc7eb1	-0.43065408
14	0xbebae5fb	-0.36503586
15	0x3f04a1cb	0.51809376
16	0xbf64baec	-0.8934772
17	0x4036334f	2.8468816
18	0x3fd12b05	1.6341254
19	0xbf2caf68	-0.6745515
20	0x3f5e8685	0.8692401
21	0x3f2b6a15	0.66958743
22	0xbe50a9ac	-0.20377225
23	0xbfeadf01	-1.8349305
24	0x3e4b5f18	0.19860494
25	0x4023541e	2.552009
26	0x3f89bf69	1.0761539
27	0x400a1353	2.1574295
28	0xbe2db7b2	-0.16964605
29	0xbfc21d1e	-1.5165136
30	0xbeaf6248	-0.3425467
31	0xbf1b2059	-0.60596234
32	0xbf1f645f	-0.6226253
33	0x3eed75f7	0.46379063
34	0xbf372f98	-0.71557
35	0xbe11ad0a	-0.14226165
36	0x3fc84ab9	1.5647804
37	0x3ab97776	0.0014149982
38	0x3f630612	0.8868114
39	0xbf875f2a	-1.0575917
40	0xbfa903a2	-1.3204234
41	0xbf259b4b	-0.64690083
42	0x3f6dd855	0.9290822
43	0x3e221874	0.1582964
44	0xbe97ee8c	-0.29674184
45	0x3e8e810a	0.27832824
46	0xbd2c6682	-0.042089947
47	0xbef9edb8	-0.48814178
48	0x3de5b026	0.11215238
49	0xbf6a5448	-0.91534853
50	0x3fd32448	1.6495447
51	0x3f2c9ebf	0.6742973
52	0xbf082aa8	-0.5319009
53	0xbee8b078	-0.45447135
54	0xbed79e42	-0.4211293
55	0xbf5a1ad6	-0.851972
56	0xbe17ab99	-0.14811553
57	0xbe8bbe3f	-0.27293584
58	0x3e8d7923	0.27631482
59	0x3efa99f6	0.48945588
60	0x3e318b24	0.17338234
61	0x3f6f4117	0.93458694
62	0x3f3e3e2c	0.74313617
63	0xbe9ed0f8	-0.31018806
64	0xbe6fe070	-0.2342546
65	0x3d9431c7	0.07236057
66	0x3ea3c7e3	0.3198844
67	0xbb84c3d7	-0.0040516662
68	0x3f0786f2	0.52940285
69	0x3e0bdee8	0.1365925
70	0xbf1dcf21	-0.6164418
71	0x3e414c16	0.1887668
72	0xbc1440cb	-0.009048651
73	0x3e9c68f7	0.30548832
74	0x3de225ef	0.110423915
75	0x3d73aec0	0.059492826
76	0x3f8d8512	1.1056235
77	0xbf134886	-0.57532537
78	0xbf5b28d1	-0.85609156
79	0xbec33a35	-0.38130346
80	0xbfb518a8	-1.414815
81	0xbf11e595	-0.5699094
82	0x3cd124ac	0.025530182
83	0x3ea9a1c2	0.33131224
84	0x3e74e4bf	0.23915385
85	0xbf054e0d	-0.5207222
86	0x3f003794	0.50084805
87	0xbffcd32b	-1.9751943
88	0xbe9c223c	-0.3049487
89	0xbe8dd3e8	-0.27700734
90	0x3e826f84	0.25475705
91	0x3f420734	0.7579224
92	0x3f6b2ba6	0.9186348
93	0x3dffa7c3	0.1248317
94	0xbd80363b	-0.06260344
95	0xbfa76a73	-1.3079361
96	0x3e0f6bd3	0.14005975
97	0xbf1e6397	-0.6187071
98	0x3e6ea765	0.23306043
99	0x3f009e6a	0.5024172
100	0x3d00d0a4	0.031448975
101	0xbcc15f18	-0.023604915
102	0x3ee5b921	0.44867805
103	0xbf4ee91b	-0.8082444
104	0x3ffe4186	1.9863746
105	0xbf2cfab5	-0.6757005
106	0xbf2454ca	-0.6419188
107	0xbf0117bb	-0.50426835
108	0x40249f1f	2.572212
109	0xbf4788fb	-0.7794339
110	0xbe526b37	-0.20548712
111	0xbfc4a2a9	-1.536214
112	0x3e88493b	0.2661837
113	0xbfedccb3	-1.8578094
114	0x3f95bf07	1.1698922
115	0x3f2d8d23	0.6779348
116	0xbedf592e	-0.43622726
117	0x3f92be29	1.1464282
118	0xbebb816f	-0.36622187
119	0xbeaf9507	-0.34293386
120	0xbf0482f3	-0.5176231
121	0xbe70efb8	-0.23528945
122	0x3e9d97be	0.30779833
123	0xbf012934	-0.50453496
124	0xbd7cbda8	-0.061704308
125	0x3d09fa0d	0.033685733
126	0xbe803056	-0.25036877
127	0xbe3baae2	-0.18326905
128	0x3e7ea152	0.24866226
129	0xbe3bf141	-0.1835375
130	0x3e78431b	0.24244349
131	0xbf8c5ff8	-1.0966787
132	0xbf5bc4df	-0.85847276
133	0x3e4287d1	0.18997122
134	0xbecfc209	-0.40577725
135	0x3f62bc10	0.8856821
136	0x3f467834	0.77527165
137	0x3e3dd153	0.18536882
138	0x3e1466db	0.14492361
139	0xbecff475	-0.40616193
140	0xbf9d9c75	-1.2313372
141	0x3fb57fee	1.4179666
142	0xbe869dab	-0.26292166
143	0x3ebf1d26	0.37326926
144	0x3f12e0bb	0.5737416
145	0x3f556428	0.8335595
146	0xbe18ecd3	-0.14934091
147	0x3f0b43e8	0.5440049
148	0x3e41c7bb	0.18923847
149	0xbe7fe7c0	-0.2499075
150	0xbf534886	-0.82532537
151	0xbcb78376	-0.022401553
152	0x3ebb90d3	0.3663393
153	0xbe40a9a6	-0.18814716
154	0x3e51fdce	0.20506975
155	0x3f9026bf	1.1261824
156	0xbf5d1463	-0.8635923
157	0xbf210511	-0.62898356
158	0x3e0c89da	0.13724461
159	0x3f126b2f	0.571948
160	0x3f28cc50	0.65936756
161	0xbf9e1933	-1.235144
162	0xbed5a723	-0.41729078
163	0xbd90d46a	-0.07071765
164	0x3e410e7c	0.18853182
165	0x3f85eb13	1.0462364
166	0xbef29f3f	-0.4738712
167	0xbf94bfeb	-1.1621069
168	0xbd99ce8b	-0.07510098
169	0x3f88047c	1.0626369
170	0xbf230e01	-0.63693243
171	0xbfa3d688	-1.2799845
172	0x3ee8582c	0.4537977
173	0x3bd46ac9	0.0064824563
174	0xbe716ed5	-0.23577435
175	0x3ee6e694	0.45097792
176	0x3e8b2508	0.2717669
177	0x3e766828	0.2406317
178	0xbf5d762b	-0.86508435
179	0xbf005c79	-0.501411
180	0x3f4152a3	0.7551672
181	0xbee4e9f4	-0.44709742
182	0x3c15bd0b	0.00913931
183	0xbf5b3260	-0.8562374
184	0xbe4d4a6b	-0.2004792
185	0xbf014fd8	-0.50512457
186	0x3e1a56ba	0.15072146
187	0x3f8c40df	1.0957297
188	0xbece539c	-0.40298164
189	0xbf73c37b	-0.95220155
190	0x3e977c87	0.29587194
191	0x3fe7eb0f	1.8118609
192	0xbf2a977d	-0.666374
193	0x3f5de684	0.86679864
194	0x3ef00aba	0.46883184
195	0x3ba9d4fc	0.0051828604
196	0x3de71f18	0.112852275
197	0xbf6926b4	-0.9107468
198	0x3e73fd24	0.23827034
199	0xbf2f820c	-0.6855781
200	0x3c81037b	0.01574873
201	0x3e21a84b	0.15786855
202	0x3f5c6b95	0.8610166
203	0xc00af5fb	-2.1712635
204	0x3f38f2ee	0.7224568
205	0x3e2d9340	0.16950703
206	0xbedbe7d4	-0.42950308
207	0xbf865577	-1.0494832
208	0x3c44b2eb	0.012005548
209	0xbf2dd7e5	-0.67907554
210	0xbf266991	-0.6500483
211	0xbe28780c	-0.16452044
212	0xbe81b452	-0.25332886
213	0xbf4b4c6c	-0.79413486
214	0x3f8bc397	1.0919064
215	0x3fcaeb1f	1.5853003
216	0xbf7b6348	-0.98198366
217	0xbea0a3c4	-0.31374943
218	0xbe2f7a48	-0.1713649
219	0xbea08103	-0.31348428
220	0xbfb188fd	-1.386993
221	0xbf82666b	-1.0187505
222	0xbf179424	-0.5921042
223	0xbf7a7834	-0.97839665
224	0xbef9c21c	-0.48780906
225	0x3fd60108	1.6719065
226	0x3fc068d3	1.503199
227	0x3f6400c4	0.8906367
228	0x3f0e68c7	0.5562863
229	0xbd1d184a	-0.038353242
230	0x3cac8e2c	0.021063887
231	0xbe244b19	-0.16044272
232	0xbf299ffc	-0.6625974
233	0xbede0d4c	-0.4336952
234	0xbe788f4b	-0.24273412
235	0x3ea88411	0.3291326
236	0x3f763fcf	0.96191114
237	0x3de876ee	0.11350809
238	0x3f472354	0.7778828
239	0x3eac74be	0.33682817
240	0x3e85a37f	0.261013
241	0xbefa4398	-0.48879695
242	0x3e9c96ff	0.3058395
243	0x3f86edd2	1.0541327
244	0xbe1d5c75	-0.15367301
245	0xbefe0913	-0.49616298
246	0x3f956eae	1.1674402
247	0xbf554f8f	-0.8332452
248	0xbeff1cbe	-0.49826616
249	0x3f2d8114	0.6777508
250	0xc0317a3b	-2.7730854
251	0xbea8b269	-0.32948616
252	0x3fb73527	1.4313096
253	0xbfb117c1	-1.3835374
254	0x3e1d5418	0.1536411
255	0x3d9d9160	0.07693744

hidden_layer.weight_ih_l0 f4 [150, 50]
0	0xbe5430a2	-0.20721677
1	0x3eac49cd	0.33650056
2	0x3ee38453	0.44436893
3	0xbe4744d0	-0.19459844
4	0xbe1d6d5e	-0.15373752
5	0x3e9951e0	0.29945278
6	0xbabdf6d8	-0.0014493121
7	0x3e1179ad	0.14206572
8	0xbeb56f18	-0.3543632
9	0xbdae4a55	-0.085102715
10	0x3db2d313	0.087316655
11	0x3c957253	0.01824299
12	0xbef5d716	-0.4801566
13	0x3cef0be8	0.029180482
14	0x3c55e36d	0.013054711
15	0xbe066128	-0.13123
16	0xbd8cc0ad	-0.068726875
17	0x3da784d1	0.081796296
18	0xbdf40ba4	-0.11916283
19	0xbe66636e	-0.22498867
20	0x3e2a0c6f	0.16606306
21	0xbe142af5	-0.14469512
22	0x3e13305a	0.14373913
23	0xbeab920a	-0.33509856
24	0x3ba7383b	0.0051031387
25	0x3e9ab1be	0.30213732
26	0x3d740dd1	0.05958349
27	0x3b2f4fe8	0.0026750509
28	0x3dad9ee2	0.0847757
29	0x3d6ada88	0.057337314
30	0xbe0e3456	-0.13887152
31	0x3e85a795	0.26104417
32	0xbd32753b	-0.04356883
33	0xbe9cf1b2	-0.3065315
34	0xbdeb4737	-0.114881925
35	0xbd9fa32d	-0.07794795
36	0xbe04977a	-0.12948409
37	0x3e35a9a7	0.17740498
38	0x3db5eab3	0.08882656
39	0x3edcb70c	0.43108404
40	0xbd032eb3	-0.032026958
41	0xbec2277d	-0.37920752
42	0xbda66e74	-0.08126536
43	0xbd867f00	-0.06567192
44	0xbe98fcbd	-0.29880324
45	0x3d5e86d2	0.054327793
46	0x3efaf776	0.49016923
47	0xbeaa7fa3	-0.33300504
48	0xbddc7f02	-0.10766412
49	0x3e1394f4	0.1441229
50	0x3e1c2b4d	0.15250893
51	0x3d8893f4	0.06668845
52	0xbe524f03	-0.20537953
53	0xbe80530c	-0.2506336
54	0xbf109cb2	-0.564891
55	0x3e7f7401	0.24946596
56	0xbe24b7bf	-0.16085719
57	0x3e5e5baf	0.21714662
58	0xbf008f06	-0.50218236
59	0x3e5008b9	0.20315827
60	0x3e4b6ecd	0.19866486
61	0xbdd41a51	-0.10356582
62	0xbd07ff55	-0.033202488
63	0x3e9e5ffb	0.30932602
64	0xbf0f86fc	-0.56065345
65	0xbe4391ec	-0.19098634
66	0x3ed48945	0.41510978
67	0xbca05d93	-0.01957587
68	0x3e3d351d	0.18477292
69	0xbefb712c	-0.4910978
70	0x3e77d594	0.24202567
71	0x3e795ec2	0.24352553
72	0xbe420b76	-0.18949685
73	0xbc5f0a89	-0.013613352
74	0x3ea9047a	0.33011228
75	0x3e6d2415	0.23158295
76	0x3e837db8	0.25681853
77	0xbe8e5421	-0.2779856
78	0x3d7ba10f	0.061432894
79	0x3e728593	0.23683767
80	0xbe0999d3	-0.13437586
81	0x3e86b6a3	0.26311216
82	0xb81fc641	-3.8093192e-05
83	0x3e156ab9	0.14591493
84	0x3e6dc627	0.2322012
85	0xbe9a9ea0	-0.30199146
86	0xbe948971	-0.2901111
87	0xbdf2fa75	-0.11864177
88	0x3d43abee	0.047771387
89	0xbea8cd83	-0.32969293
90	0xbc5647f5	-0.013078679
91	0x3e8617b5	0.26189962
92	0x3ef81b2e	0.48458236
93	0xbe821921	-0.25409797
94	0xbed6240f	-0.41824386
95	0x3e7affd3	0.24511652
96	0x3e94dafe	0.29073328
97	0xbd93232a	-0.071844414
98	0xbea06890	-0.31329775
99	0xbe1426b5	-0.1446789
100	0x3e9bba04	0.30415356
101	0x3e5ac19d	0.2136292
102	0xbf0fcc09	-0.5617071
103	0xbe28a4a4	-0.16469055
104	0x3ea45add	0.32100573
105	0xbdec46eb	-0.11536964
106	0xbe775b81	-0.24156
107	0xbe1d4475	-0.15358146
108	0x3d83db70	0.06438339
109	0x3d266aec	0.040629312
110	0x3e8204c2	0.25394255
111	0xbec6b742	-0.3881169
112	0x3ea47437	0.32119915
113	0x3dd0f870	0.10203636
114	0x3e50cd60	0.20390844
115	0x3cfde349	0.030992167
116	0xbcd1eec4	-0.025626548
117	0xbda14fba	-0.07876535
118	0xbe8a31ad	-0.26991025
119	0x3e09c483	0.1345387
120	0xbeba0132	-0.36329037
121	0xbed1358e	-0.4086117
122	0x3dc4fb62	0.0961826
123	0xbe62a082	-0.22131541
124	0xbeac4889	-0.3364909
125	0x3ef1a62e	0.47197098
126	0x3ed8e07e	0.42358774
127	0xbe8340fd	-0.2563552
128	0x3d78f2b9	0.060778353
129	0x3e03a5d3	0.12856226
130	0x3efd507d	0.4947547
131	0xbdbb74f0	-0.091531634
132	0x3e564803	0.20925908
133	0xbc391c4f	-0.011298253
134	0xbc447c20	-0.011992484
135	0xbeb84789	-0.35992077
136	0x3ee6c50a	0.45072204
137	0x3ed55194	0.41663802
138	0xbe4a8dac	-0.19780606
139	0xbf1fd0e6	-0.6242813
140	0xbdffa967	-0.12483483
141	0x3c82ec1f	0.015981732
142	0xbe96d120	-0.29456425
143	0x3dff68ef	0.12471186
144	0x3e5f43a4	0.21803147
145	0x3da7d244	0.08194402
146	0xbb8c460a	-0.0042808102
147	0xbd1df35d	-0.038562167
148	0x3e117256	0.14203772
149	0x3e537a24	0.20652062
150	0xbe55edf6	-0.20891556
151	0x3eb3d2ed	0.3512186
152	0x3f0a1ca1	0.53949934
153	0x3c8de703	0.017322069
154	0xbbfdd108	-0.0077458657
155	0xbdc4636e	-0.09589277
156	0x3e8b5ac8	0.27217698
157	0xbe861f5b	-0.26195797
158	0xbb05325b	-0.0020324204
159	0xbead0ae0	-0.3379736
160	0xbddde769	-0.108351536
161	0xbe915f9d	-0.2839326
162	0xbcb09ab6	-0.021558147
163	0x3ea614d0	0.32437754
164	0xbd15ff74	-0.036620572
165	0xbdecd447	-0.11563926
166	0x3e2c5340	0.16828632
167	0xbdde3d10	-0.108514905
168	0xbe473b20	-0.19456148
169	0xbec9e8cc	-0.39435422
170	0xbf027fe9	-0.50976425
171	0x3e0f6f77	0.14007364
172	0xbe4aa4e9	-0.1978947
173	0xbe5e2abd	-0.21695991
174	0xbf0a867c	-0.54111457
175	0xbe1d851a	-0.15382805
176	0x3e38f8f4	0.18063718
177	0x3d275ac3	0.04085804
178	0xbe5b171e	-0.21395537
179	0x3cf21723	0.029552048
180	0x3dd73656	0.10508411
181	0x3e19ee06	0.15032205
182	0xbd3e54b6	-0.046467505
183	0x3b1c288c	0.0023827879
184	0x3efa82bc	0.48927867
185	0xbe2bc99d	-0.16776128
186	0xbea19cbc	-0.3156489
187	0x3d99813c	0.074953526
188	0xbd9f85ca	-0.0778919
189	0xbe865911	-0.26239827
190	0xbe74e52c	-0.23915547
191	0x3d13d82b	0.036094826
192	0x3eb92dcb	0.3616775
193	0xbee01c48	-0.43771577
194	0xbdbb7b67	-0.091543965
195	0x3ea4c168	0.32178807
196	0x3d81f26a	0.06345065
197	0x3ed6713e	0.41883272
198	0x3e84e2b2	0.25954205
199	0x3d311d98	0.043241113
200	0xbdc4bd61	-0.09606434
201	0xbe6bdaa2	-0.2303262
202	0x3e7cf1d1	0.2470162
203	0x3e39aa8d	0.18131466
204	0xbd7a306e	-0.061081342
205	0x3e5f0e13	0.21782713
206	0xbe04a0de	-0.12951991
207	0xbe7cd7d8	-0.24691713
208	0x3e1a0c58	0.15043771
209	0x3ea97737	0.33098766
210	0x3cfc5b10	0.03080514
211	0xbd41bc00	-0.04729843
212	0xbf40fcd9	-0.75385815
213	0x3e90b5e6	0.28263777
214	0x3e9ea491	0.3098493
215	0xbce9e232	-0.028550241
216	0x3d474123	0.048646104
217	0xbeaf26f4	-0.34209406
218	0x3e8673f0	0.26260328
219	0x3e6a74ad	0.22896071
220	0xbe2596e4	-0.16170841
221	0xbe36ab69	-0.17838825
222	0x3db7d8f4	0.089769274
223	0x3e06deb6	0.13170895
224	0xbd93d7f2	-0.07218923
225	0x3da67156	0.08127086
226	0xbdd872d2	-0.10568775
227	0x3c2e4cf6	0.010638466
228	0xbed545c0	-0.41654778
229	0xbe990a96	-0.2989089
230	0x3c75de79	0.015006655
231	0x3d549282	0.051897533
232	0xbea5c2c6	-0.32375163
233	0xbf07ee28	-0.5309777
234	0x3e3ac3d1	0.1823876
235	0xbe68447a	-0.22682372
236	0xbe350e2c	-0.17681187
237	0x3e967585	0.29386535
238	0xbdc085e4	-0.094005376
239	0xbe2c67ee	-0.16836521
240	0x3d45a746	0.048255228
241	0x3f026e9c	0.50950027
242	0xbe9895d8	-0.29801822
243	0x3e5005a2	0.20314649
244	0x3ecacca6	0.3960926
245	0x3d8aa84b	0.067703806
246	0x3ed4324b	0.4144462
247	0xbe9e229f	-0.3088579
248	0x3ea10938	0.31452346
249	0xbe9ac37c	-0.30227268
250	0x3e491b52	0.19639328
251	0x3d01f850	0.03173095
252	0x3e387709	0.18014158
253	0xbe214bc2	-0.15751556
254	0xbedb1409	-0.42788723
255	0x3e12f428	0.1435095

hidden_layer.weight_hh_l0 f4 [150, 50]
0	0xbd88988b	-0.0666972
1	0xbe3c8468	-0.18409884
2	0x3cb8efa7	0.022575213
3	0x3cf97108	0.030449405
4	0xbf500e35	-0.8127168
5	0x3eda1493	0.42593822
6	0xbe8bd536	-0.27311105
7	0xbeafb154	-0.34314978
8	0xbc9f30b7	-0.019432409
9	0x3ded9899	0.11601371
10	0x3e9c74bd	0.30557814
11	0xbbad1ae6	-0.0052827476
12	0x3d37890f	0.044808444
13	0x3f11facd	0.57023317
14	0x3ddfe8c0	0.109330654
15	0xbe11459d	-0.14186712
16	0x3ec8b89e	0.39203352
17	0x3f085ba4	0.5326483
18	0x3ee08c7d	0.43857184
19	0x3e081347	0.13288604
20	0x3e28f903	0.1650124
21	0xbf214641	-0.62997824
22	0xbe991f63	-0.2990676
23	0xbeb27a82	-0.3485909
24	0xbe3e441b	-0.18580668
25	0x3f26742e	0.65021026
26	0xbf0d9724	-0.5530875
27	0x3e1f133f	0.15534686
28	0x3ec5cf4e	0.38634723
29	0xbe640ae9	-0.22269787
30	0xbf367531	-0.7127257
31	0x3f0ad3a1	0.5422917
32	0xbe70cb21	-0.23514988
33	0x3eb2b67a	0.34904844
34	0x3d3b8672	0.045782514
35	0x3f18b702	0.5965425
36	0xbe5627fe	-0.20913693
37	0x3eb43ec2	0.3520413
38	0x3f5a1017	0.851808
39	0x3edcdb82	0.4313622
40	0xbc3caedd	-0.0115163
41	0x3ed8225d	0.42213717
42	0xbf14a566	-0.5806488
43	0x3f0d27cc	0.5513885
44	0x3e8d730f	0.27626845
45	0x3e1e117e	0.1543636
46	0x3d6a8ed5	0.05726512
47	0x3f2ce3c3	0.67535037
48	0x3c51316a	0.012768129
49	0xbe9081fd	-0.28224173
50	0x3ea37069	0.319217
51	0xbeae3a51	-0.34028867
52	0x3eef0b8b	0.46688494
53	0x3e7e6366	0.24842605
54	0x3da99573	0.08280458
55	0xbe0a05a2	-0.13478711
56	0xbdf0be08	-0.117549956
57	0xbe8bdc21	-0.27316383
58	0x3d8e17f5	0.06938163
59	0x3c65a86c	0.014017206
60	0x3e33080c	0.17483538
61	0x3d124e8e	0.035719447
62	0xbdf94312	-0.12170996
63	0x3d6be9a7	0.057595875
64	0xbe0b7871	-0.13620164
65	0x3d6f7f15	0.058470804
66	0xbf40b24d	-0.75272065
67	0xbe0aaffd	-0.13543697
68	0x3ddac6d5	0.106824555
69	0x3d13a57a	0.036046483
70	0x3e9810d2	0.29700333
71	0xbde94ee1	-0.11391998
72	0x3da1e79f	0.07905506
73	0xbd2d0aa7	-0.042246487
74	0xbe6d9161	-0.23199989
75	0x3f7e2076	0.9926828
76	0x3e1b719a	0.15180054
77	0xbc0559d3	-0.008139092
78	0xbea060fa	-0.31323987
79	0x3deed7ac	0.1166223
80	0x3efa3b50	0.48873377
81	0xbd536367	-0.05160847
82	0x3eaf2439	0.34207323
83	0x3d4f9d0f	0.050686892
84	0xbe01bf9c	-0.1267075
85	0x3d5bde13	0.053678583
86	0x3d83fab3	0.064443015
87	0xbd0b116d	-0.033952165
88	0xbe30d133	-0.17267303
89	0x3ea56620	0.32304478
90	0xbe0b4320	-0.13599825
91	0xbe8626ea	-0.26201564
92	0x3ecc854b	0.39945444
93	0xbdc8e66e	-0.09809576
94	0xbefb24df	-0.49051568
95	0x3e588251	0.21143462
96	0xbda620f8	-0.08111757
97	0x3e7a6ded	0.24455996
98	0xc004fe9c	-2.0780401
99	0x3dfd29d8	0.12361497
100	0xbe11c5f0	-0.14235663
101	0xbf2dae76	-0.6784433
102	0xbebf7f09	-0.37401608
103	0xbea9d717	-0.33171913
104	0xbed50498	-0.41605067
105	0x3e1aa0d0	0.15100408
106	0xbeb6277d	-0.35577002
107	0xbe35ed5e	-0.1776633
108	0x3e94b123	0.29041395
109	0x3f385b81	0.72014624
110	0xbda3ddff	-0.08001327
111	0x3e93422f	0.28761432
112	0x3defe4b2	0.11713542
113	0x3cccc1f9	0.024994837
114	0xbf06d4d0	-0.52668476
115	0x3e3a8a67	0.18216859
116	0x3f1fa55a	0.6236168
117	0xbc2ee032	-0.0106735695
118	0xbe042cdf	-0.12907742
119	0xbec3e733	-0.38262329
120	0x3e31f4ec	0.17378587
121	0x3e28c3b1	0.164809
122	0x3dbaeba2	0.09126975
123	0x3efc2615	0.49247804
124	0x3d285c43	0.041103613
125	0xbea3e7d2	-0.32012802
126	0xbefcb6c2	-0.49358183
127	0xbe597d4d	-0.21239205
128	0x3ee12f6f	0.439815
129	0x3cc2c2f7	0.023774607
130	0xbe2a6f2a	-0.16643968
131	0x3edae82a	0.42755252
132	0xbecb4b7e	-0.39706033
133	0x3f02ff3b	0.511707
134	0xbd8bf4af	-0.06833779
135	0xbdbbff4c	-0.091795534
136	0xbe03bfb8	-0.12866104
137	0xbf2e6f3a	-0.6813847
138	0xbd8cd368	-0.0687626
139	0x3e837fba	0.25683385
140	0xbe8e5376	-0.2779805
141	0x3ef749fa	0.48298627
142	0x3c8a9da1	0.016920866
143	0xbe1059fa	-0.14096823
144	0x3e3bc862	0.18338159
145	0xbdba547a	-0.09098144
146	0x3f050097	0.51954025
147	0xbe7d00f8	-0.24707401
148	0xbd02a715	-0.031897623
149	0xbe095f1c	-0.13415188
150	0x3e75501d	0.23956342
151	0x3ea948c1	0.3306332
152	0xbd27396f	-0.040826257
153	0xbe33bc5c	-0.17552322
154	0x3e304e59	0.17217387
155	0x3e440758	0.19143426
156	0xbdf74019	-0.120727725
157	0x3ec31d58	0.38108325
158	0xbeb91312	-0.36147362
159	0x3e7d3deb	0.24730651
160	0x3ec8aa9f	0.39192674
161	0xbcd7ca40	-0.026341558
162	0xbedde975	-0.43342176
163	0xbcac3b5f	-0.021024404
164	0xbe20801a	-0.15673867
165	0x3f0d6b54	0.55241895
166	0xbe5103bf	-0.20411585
167	0x3ea5dc75	0.32394758
168	0x3f12b360	0.57304955
169	0x3e02956b	0.12752311
170	0xbd55c9b7	-0.052194323
171	0x3eabd1ad	0.33558407
172	0x3c09bfac	0.008407515
173	0xbf10253e	-0.5630683
174	0x3f1bec98	0.6090789
175	0x3ec69083	0.3878213
176	0x3f11bdb8	0.5693011
177	0xbe26ed75	-0.1630152
178	0xbed1fb3f	-0.41011998
179	0xbdb3abae	-0.0877298
180	0x3db2d659	0.0873229
181	0x3d09dabd	0.03365587
182	0x3e2da423	0.16957144
183	0xbdde1dd6	-0.108455345
184	0xbd5ff12b	-0.054673355
185	0xbf049c67	-0.5180115
186	0xbe685010	-0.22686791
187	0xbe2c6d21	-0.16838504
188	0xbdb66ebf	-0.08907842
189	0xbe36b78a	-0.17843452
190	0x3e73f048	0.23822129
191	0xbe7525b4	-0.23940164
192	0x3dcddb1a	0.10051556
193	0xbedb20cd	-0.42798463
194	0x3ee8184a	0.4533103
195	0xbd928c44	-0.0715566
196	0x3db01ec4	0.08599618
197	0x3eb39c37	0.3508012
198	0x3d9da868	0.076981366
199	0xbd90a26b	-0.07062229
200	0x3d873530	0.066019416
201	0xbd0a65bb	-0.033788424
202	0x3e1aed92	0.15129688
203	0xbe0721b2	-0.13196447
204	0xbe171eca	-0.14757839
205	0x3e3112fd	0.172924
206	0x3eb4cf18	0.3531425
207	0xbc6d9a86	-0.014502173
208	0xbe0b29a6	-0.13590106
209	0x3e500e67	0.20317994
210	0x3ecf6f98	0.40514827
211	0x3a95ba70	0.001142336
212	0xbe831ed0	-0.25609446
213	0x3e138261	0.14405204
214	0xbd65b933	-0.056084823
215	0x3e5e0a1c	0.21683544
216	0xbe22ebc6	-0.15910253
217	0x3f0ed90a	0.55799925
218	0x3f0e4675	0.5557626
219	0x3db84865	0.08998183
220	0xbdd4f46f	-0.103981845
221	0xbf877494	-1.0582452
222	0xbd3fd5c9	-0.04683474
223	0xbeeb91f8	-0.46009803
224	0x3d0f160e	0.034933142
225	0x3f0d864a	0.55283034
226	0xbdfe8b89	-0.12428958
227	0xbdba8aaa	-0.09108479
228	0x3e674ed1	0.2258866
229	0x3d7317ea	0.059348978
230	0xbd217bb8	-0.039424628
231	0x3e97c053	0.2963892
232	0xbed32d9d	-0.41245738
233	0x3e8a6d6f	0.27036616
234	0x3ea8feae	0.33006805
235	0x3e6bad40	0.23015308
236	0xbe97fcb1	-0.29684976
237	0xbe77a622	-0.24184468
238	0xbda67f7f	-0.08129787
239	0xbe50c3e6	-0.2038723
240	0x3f0a57ab	0.5404002
241	0xbe9490a3	-0.290166
242	0xbe66e685	-0.22548874
243	0x3ef6c49c	0.48196876
244	0x3f23dfe9	0.64013535
245	0x3e4eebfa	0.20207205
246	0x3d6bdc63	0.057583224
247	0x3e086c25	0.13322504
248	0xbdc6c516	-0.0970556
249	0xbebec70c	-0.37261236
250	0xbcc86e23	-0.02446658
251	0x3e82edab	0.2557195
252	0xbf0bace8	-0.5456071
253	0xbe0782c3	-0.13233475
254	0xbe47b197	-0.19501339
255	0x3e6d7c71	0.23192002

hidden_layer.bias_ih_l0 f4 [150]
0	0xbe5b2ea9	-0.21404518
1	0xbdb2348e	-0.0870143
2	0x3e3700ab	0.17871349
3	0x3e1d3312	0.15351513
4	0xbdbc901c	-0.09207174
5	0x3e0c694a	0.1371204
6	0xbd04b32f	-0.032397445
7	0xbeadae54	-0.33922064
8	0xbcdeadfc	-0.027182572
9	0xbe23de5e	-0.16002795
10	0xbeb3a0f3	-0.35083732
11	0x3e83b95a	0.2572735
12	0xbccdef98	-0.025138661
13	0xbea626a2	-0.3245135
14	0x3c59ac65	0.013285731
15	0xbc82536a	-0.015908916
16	0xbe32a411	-0.17445399
17	0xbcd4e220	-0.025986731
18	0x3c4abed9	0.012374603
19	0x3e47698f	0.19473861
20	0xbdefe735	-0.11714021
21	0xbd10a50d	-0.035313655
22	0xbd9ed8ae	-0.07756172
23	0xbebc60ee	-0.367927
24	0xbe67bb6c	-0.2263009
25	0x3e81a09d	0.2531785
26	0xbe0df8f7	-0.13864504
27	0x3eaf8525	0.3428127
28	0x3d926e04	0.0714989
29	0xbe4c8307	-0.19971858
30	0xbd998396	-0.07495801
31	0xbea6bf72	-0.32567936
32	0x3d832365	0.06403235
33	0xbe5813f8	-0.21101367
34	0x3e381f70	0.17980742
35	0x3e32d321	0.17463352
36	0x3d371412	0.044696875
37	0xbf080612	-0.5313426
38	0xbca6e443	-0.020372516
39	0xbf0fe588	-0.5620961
40	0x3e7e9fe8	0.24865687
41	0xbe81d24c	-0.25355756
42	0x3e4d129a	0.20026627
43	0xbe57dba4	-0.2107988
44	0xbf1921c8	-0.5981717
45	0x3dd80270	0.1054734
46	0xbf10fe99	-0.56638485
47	0xbe26b14e	-0.16278574
48	0xbd72bac5	-0.05926015
49	0x3ecdbe79	0.40184382
50	0x3f08ccc7	0.53437465
51	0xbea38b4e	-0.3194222
52	0xbd4b7bb7	-0.04967853
53	0x3ece554a	0.40299445
54	0xbea6cf6f	-0.32580134
55	0x3e93212f	0.28736255
56	0x3e0abc80	0.1354847
57	0x3ea56c21	0.32309058
58	0x3eb2eb62	0.34945208
59	0x3e158517	0.14601551
60	0x3d0299d1	0.031884972
61	0xbd8f4caa	-0.069970444
62	0x3e2abf6e	0.16674587
63	0xbd91114f	-0.070833795
64	0x3ea86f8e	0.3289761
65	0x3ea79ab4	0.32735217
66	0x3e366c5a	0.1781477
67	0xbeb926c1	-0.3616238
68	0x3dd7597c	0.10515115
69	0x3e4b7c79	0.19871701
70	0x3e5d7194	0.21625358
71	0xbda0c3e4	-0.07849863
72	0x3dea9747	0.11454635
73	0xbc9046f2	-0.017611954
74	0x3e315e39	0.173211
75	0xbe919b09	-0.28438595
76	0x3ec5c925	0.38630024
77	0x3e5ba734	0.21450502
78	0x3eaa26a2	0.332326
79	0x3d459fba	0.04824803
80	0x3d6e6931	0.058205787
81	0x3e2b9ea8	0.16759741
82	0xbc9b793b	-0.018978706
83	0x3e6e74a3	0.23286681
84	0x3de0073f	0.10938882
85	0x3dc11235	0.09427301
86	0x3edec60a	0.43510467
87	0x3ea62168	0.32447362
88	0x3e82a3f2	0.25515705
89	0x3eecf076	0.46277207
90	0x3d9290af	0.071565025
91	0x3e2f0802	0.17092898
92	0xbe00b3df	-0.12568615
93	0xbec0ae73	-0.37633094
94	0xbdba83df	-0.09107184
95	0x3e80fa3c	0.25190914
96	0xbe84ca18	-0.25935435
97	0xbdae215c	-0.085024565
98	0xbe6da129	-0.23206009
99	0x3e18fa82	0.14939311
100	0xbc82640e	-0.01591685
101	0x3e7d5b18	0.24741781
102	0x3e546c27	0.20744382
103	0x3e86f2db	0.2635716
104	0x3e71190f	0.23544715
105	0x3e5f2f22	0.21795323
106	0x3bfad1c4	0.0076544005
107	0x3e8c18be	0.27362627
108	0xbe27e2de	-0.16395137
109	0x3f1ec920	0.6202564
110	0x3e8b2939	0.27179888
111	0xbb0fd6c8	-0.0021948088
112	0x3ede6717	0.43438026
113	0x3e117899	0.1420616
114	0xbdc2c64b	-0.09510478
115	0x3e719430	0.23591685
116	0x3d704b73	0.058665704
117	0xbe78a801	-0.24282838
118	0xbe237153	-0.15961199
119	0x3d846d6d	0.06466184
120	0xbea2d3b0	-0.3180213
121	0x3e92e468	0.28689885
122	0xbd4231e8	-0.047410876
123	0x3df0ea7d	0.11763475
124	0x3ea47146	0.3211767
125	0xbe3869b3	-0.18009071
126	0x3e3cdb8f	0.1844313
127	0xbd8500c0	-0.06494284
128	0xbd688f73	-0.05677743
129	0xbf1bfb93	-0.60930747
130	0xbdce9fca	-0.10089071
131	0x3f31317b	0.69216126
132	0x3d052cf1	0.032513563
133	0x3e3cbd99	0.18431701
134	0x3e4563f6	0.19276413
135	0xbd917ccd	-0.07103882
136	0xbea6de85	-0.32591644
137	0x3e4cc798	0.19998014
138	0xbe7be8a4	-0.24600464
139	0x3d66af76	0.056319676
140	0xbe5237b6	-0.20529065
141	0xbb979c3b	-0.0046267784
142	0xbd0e7b79	-0.03478572
143	0x3da4f2cc	0.08054122
144	0xbde9c845	-0.114151515
145	0x3e6dae41	0.23211004
146	0xbd263d3b	-0.040585738
147	0x3d9b98d4	0.07597509
148	0xbe12b59c	-0.14327091
149	0xbe2599eb	-0.16171996

hidden_layer.bias_hh_l0 f4 [150]
0	0xbe114329	-0.14185776
1	0xbe12a068	-0.14319003
2	0x3e32f568	0.17476428
3	0xbd568923	-0.052376878
4	0xbcb06aa0	-0.021535218
5	0x3de668e6	0.112504765
6	0xbd89b8a6	-0.06724672
7	0xbeea703a	-0.45788747
8	0xbdc20adb	-0.09474727
9	0x3b6f0dfd	0.0036476844
10	0xbedb4a5f	-0.42830178
11	0x3e4daab7	0.20084654
12	0x3dcb2817	0.09919756
13	0xbeaf78c1	-0.34271815
14	0x3b0f5983	0.0021873422
15	0x3e6c0d92	0.23052052
16	0xbe0bd183	-0.13654141
17	0x3e036747	0.12832366
18	0xbdd1c1e8	-0.10242063
19	0x3e3efb99	0.18650664
20	0xbcbf248e	-0.02333286
21	0xbd1bc648	-0.038030893
22	0x3d1ba651	0.03800041
23	0xbeb821fb	-0.35963425
24	0x3cf7ca88	0.030247942
25	0x3e4f89a4	0.2026735
26	0xbd839879	-0.06425566
27	0x3e44531e	0.19172332
28	0xbdc5d174	-0.09659091
29	0xbda81fc6	-0.08209185
30	0xbd36d2ce	-0.044634633
31	0xbe85ea09	-0.26155117
32	0x3e1612d7	0.14655624
33	0xbe30864a	-0.17238727
34	0x3c9feebf	0.019523023
35	0x3e3cb4c0	0.18428326
36	0xbe1e0042	-0.15429786
37	0xbedb9d3c	-0.42893398
38	0xbe80c97c	-0.2515372
39	0xbf027156	-0.50954187
40	0x3e081cd4	0.13292247
41	0xbe81bab1	-0.25337747
42	0x3e62a389	0.22132696
43	0xbe2ff94b	-0.17184941
44	0xbec6468e	-0.38725704
45	0x3e592488	0.21205342
46	0xbf2c4efa	-0.6730801
47	0xbeb9d235	-0.36293188
48	0x3e01e75b	0.12685911
49	0x3e403c67	0.18773042
50	0x3ee8d34d	0.4547371
51	0xbe6a88a2	-0.22903684
52	0x3d733ccc	0.059384152
53	0x3ea44448	0.32083344
54	0xbea4dd61	-0.3220015
55	0x3e3864c5	0.1800719
56	0x3c51f0f0	0.012813792
57	0x3e3b237d	0.18275256
58	0x3ee1a61b	0.4407204
59	0x3e469563	0.19392924
60	0x3de67ae7	0.112539105
61	0xbd8471ce	-0.06467019
62	0x3e8ed332	0.27895504
63	0xbe2a6c41	-0.16642858
64	0x3e7bf972	0.24606875
65	0x3e86b771	0.2631183
66	0x3eda05db	0.42582592
67	0xbee17c94	-0.44040358
68	0x3caa8eae	0.020819988
69	0x3e7f7955	0.24948628
70	0x3e494309	0.19654478
71	0xbdf48ef4	-0.11941329
72	0x3e9b16ad	0.30290738
73	0xbd59d016	-0.05317696
74	0x3da48f9f	0.08035206
75	0xbec73666	-0.3890869
76	0x3e5d703f	0.2162485
77	0x3d25089f	0.040291425
78	0x3e97604f	0.29565665
79	0x3cd27b45	0.025693545
80	0xbdc727e8	-0.097244084
81	0x3cf7cde0	0.030249536
82	0x3d64fc47	0.055904653
83	0x3e710e77	0.23540674
84	0x3cd90d89	0.026495712
85	0x3e94c98e	0.29060024
86	0x3e6e4232	0.23267439
87	0x3eb6504d	0.3560814
88	0x3e5cd274	0.21564656
89	0x3eb55d6d	0.3542284
90	0x3e1ecdfe	0.15508267
91	0x3ce88838	0.028385267
92	0xbda1f8d3	-0.079087876
93	0xbed77d7d	-0.42087927
94	0x3d307b98	0.04308662
95	0x3e69f9c0	0.22849178
96	0xbdc5ec4f	-0.09664213
97	0x3d09d167	0.033646967
98	0xbec0caca	-0.37654716
99	0x3cfdd100	0.030983448
100	0x3e0c5dda	0.13707677
101	0xbedece92	-0.43516976
102	0x3eb846b0	0.3599143
103	0xbc5fc98e	-0.013658894
104	0x3ebc2499	0.36746672
105	0xbd54afc4	-0.051925436
106	0xbdb09a79	-0.08623213
107	0x3d8f85c2	0.07007934
108	0xbeb6b975	-0.35688367
109	0x3f046a63	0.51724833
110	0x3dfdde3b	0.12395903
111	0x3b456cf3	0.0030124753
112	0x3e8680b5	0.2627007
113	0xbbd3c00b	-0.0064621023
114	0xbe2de17b	-0.16980545
115	0x3ed0aeaa	0.40758258
116	0xbdb6f543	-0.08933499
117	0xbe98a560	-0.2981367
118	0xbdbe0066	-0.0927742
119	0xbd4b05ab	-0.049565952
120	0xbe21bba5	-0.15794237
121	0x3e9fd0df	0.31214043
122	0xbd336b00	-0.043803215
123	0x3e67c96d	0.22635432
124	0x3e65924a	0.22419086
125	0xbdf655c4	-0.12028077
126	0x3e11286b	0.14175574
127	0xbe7f880b	-0.2495424
128	0x3d8aae62	0.06771542
129	0xbee8a8cf	-0.4544129
130	0x3db2cebf	0.0873084
131	0x3eaf0d81	0.3418999
132	0xbe0a6c14	-0.13517791
133	0x3c581810	0.013189331
134	0x3ee9c7a6	0.45660132
135	0xbe6418a5	-0.22275026
136	0xbe0c8708	-0.13723385
137	0xbcfffd70	-0.031248778
138	0xbcbef56e	-0.02331039
139	0x3c6cf918	0.014463685
140	0xbe002e57	-0.12517677
141	0x3dbba637	0.09162562
142	0xbd1efeba	-0.038817145
143	0xbd74a846	-0.05973079
144	0xbef5c0a6	-0.47998542
145	0x3ddcb4aa	0.107766464
146	0x3e0714f0	0.13191581
147	0x3c37fe51	0.011230067
148	0xbf20e865	-0.62854606
149	0xbe04b045	-0.12957866
