models/oracle_gru_decoder.pt (torch_old, 126761 bytes, 11 tensors)

embedding.weight f4 [8, 50]
000000 3f 4d 84 bf 84 ba a1 3e e1 bc 70 bf 6a 0b de bf
       -1.0336074 0.31587613 -0.94038206 -1.7347233
000010 0d 7b 3d 3d a9 1c 26 bf 0a 15 f3 3c c5 43 d6 3c
       0.04625993 -0.6488748 0.029673118 0.026155362
000020 ba 46 50 3c 89 c1 30 bd 30 8c 28 3f 5d 8a be 3d
       0.012712175 -0.04315332 0.6583891 0.093037345
000030 a8 3b a2 3f 05 56 c2 bc f3 7e 8a 3d 1f 48 b4 bc
       1.2674456 -0.023722658 0.06762495 -0.022007046
000040 7c 6c 3e 3e 88 d1 bd 3b 7a 4c 83 bb b3 f7 96 be
       0.18596071 0.0057928003 -0.0040069195 -0.29485855
000050 63 56 ab 3c d1 ea 3b be 60 3f ce 3e 53 d4 33 3d
       0.020915216 -0.18351294 0.40282726 0.04390366
000060 e4 fd d4 be 3a 2b 9d 3c 0c ae 97 be e3 8b 66 3c
       -0.41599953 0.019185651 -0.29624975 0.0140714375
000070 97 88 9a 3d bf f9 4c 3c a4 2e d4 be 1c f8 62 3c
       0.07545584 0.012510716 -0.41441834 0.013853099
000080 86 8e fb 3e 46 7e 14 be da 9a 85 3c 8e 1c d2 be
       0.49132174 -0.14501294 0.01630919 -0.4103741
000090 dc 5c 72 bc 86 28 59 be 98 d7 42 3d a3 a7 f7 3e
       -0.014792647 -0.21206865 0.047568887 0.48370084
0000a0 fa 94 b7 3d 50 b6 ad 3d 62 15 a8 bf 45 bb 36 3f
       0.08963962 0.08482039 -1.3131526 0.713795
0000b0 32 02 9a 3e 49 22 6a bc 80 64 65 3c 40 a6 13 3f
       0.300798 -0.014290401 0.014001012 0.5767555
0000c0 8b 92 05 3e 6e 1a 48 3e 6c 20 92 be 88 a7 0a 40
       0.13044183 0.19541332 -0.2854036 2.1664753
0000d0 3b 77 4f 3e ef 2c 8d bf 87 98 d1 3e 68 5f a0 3f
       0.20260327 -1.1029338 0.40936682 1.2529116
0000e0 aa af b6 be bc 4b 25 3e 49 84 2d 3f a9 9b c6 bf
       -0.35680896 0.16142172 0.67779976 -1.5516254
0000f0 2e 5f 03 c0 15 40 71 bf fe ac 8a 3f a5 9f 0b 40
       -2.0526843 -0.94238406 1.0834043 2.181619
000100 cf c4 9a bd 7b 22 85 3f c5 71 b1 bf 37 2d ae bf
       -0.075570695 1.0401148 -1.3862845 -1.3607548
000110 b2 44 1d 3f 00 87 93 3d 74 57 87 3f a6 86 a8 3f
       0.61432946 0.072034836 1.0573564 1.3166091
000120 0f cd 23 3f a3 5c 17 3e a5 e1 a5 bd be d2 a9 be
       0.6398477 0.14781432 -0.08099679 -0.33168596
000130 90 60 dc be 82 8b 90 3f 96 e8 35 be f7 ea 3f bf
       -0.4304242 1.1292574 -0.17764506 -0.749679
000140 81 00 19 3f 31 9a 54 3f e8 35 be 3f d0 54 44 3f
       0.59766394 0.8304778 1.4860201 0.76691914
000150 fd 14 93 bf ba 8f df bf 15 3a f5 3f 6d 06 e0 3f
       -1.149078 -1.7465737 1.915835 1.7501961
000160 24 b0 41 bf de 10 d0 bc 13 19 c9 3f 95 3e d4 3f
       -0.75659394 -0.025398668 1.5710777 1.6581599
000170 ce b3 17 3d 07 d4 86 bf d3 aa 86 3e d9 68 0c 40
       0.03703671 -1.0533456 0.26302204 2.1938994
000180 86 43 96 3e 93 14 d2 3f 71 72 a6 3f d8 8b c7 bf
       0.2934839 1.6412529 1.3003675 -1.5589552
000190 c7 8b 70 be ad 45 14 bc d1 3d c2 3d ce 28 1d bd
       -0.23490821 -0.009049815 0.09484447 -0.038368993
0001a0 3f cc c5 be a0 56 16 bf dc ab ff bd 82 f2 26 3c
       -0.3863239 -0.5872593 -0.124839514 0.010189654
0001b0 e8 0e 8c b8 38 13 bb bc a2 83 91 bf fe 7d 47 3d
       -6.678497e-05 -0.022836313 -1.1368296 0.04870414
0001c0 0b fa 47 be ab a5 90 bc 5a f1 96 be ab 68 31 bd
       -0.19528978 -0.017657122 -0.29481012 -0.04331271
0001d0 ad d4 c4 3d a8 c8 88 3d 8b 20 cc 3c 66 1c ce bd
       0.09610877 0.06678897 0.024917861 -0.1006401
0001e0 32 39 74 bc 5c 7b 04 3e e1 0e 82 be ec f3 5f 3c
       -0.014906215 0.12937683 -0.25401977 0.013668995
0001f0 c3 e7 ca be 91 7b 73 bb dd da 6b be 11 e7 59 bc
       -0.39629945 -0.0037152509 -0.23032708 -0.013299719
000200 ca 10 bd 3c 05 84 83 bb be c8 b7 3e fd 38 47 bd
       0.023079295 -0.0040135407 0.35895342 -0.048638333
000210 03 b1 dc 3e df d7 0b 3e fd 25 a4 3b e9 d8 d2 be
       0.431038 0.13656567 0.0050094114 -0.41181114
000220 15 70 01 3c 93 cb 0d be 35 ee 03 3f dc 2d 17 bf
       0.007900258 -0.13847189 0.5153535 -0.5905435
000230 62 e3 31 3e eb 1f 2c 3e b1 53 8e bd 62 90 76 bf
       0.17371896 0.1680905 -0.069495566 -0.9631406
000240 57 c1 07 3f 53 8d 49 3d f3 89 2a 3d ee 66 94 be
       0.5302939 0.049207043 0.041635465 -0.2898478
000250 ee e4 e6 be d0 ec 40 3e c9 e9 a0 bf e1 26 ae 3d
       -0.45096534 0.18840337 -1.2571346 0.08503509
000260 67 0a d7 3f 32 40 ad bd 84 9b 32 bf 6c 76 c1 3e
       1.680005 -0.0845951 -0.6976855 0.3778566
000270 36 70 37 3f 69 f1 36 bd 38 75 d8 bc 5d 86 70 3c
       0.71655595 -0.04466382 -0.026423082 0.014680472
000280 87 cb 09 c0 a4 1e 50 bc 8e d4 ba be 6f 48 a3 bb
       -2.1530473 -0.012702618 -0.3649029 -0.004983
000290 05 36 94 be 35 6c 13 3d 99 0d f0 3e 5c 70 67 3d
       -0.28947464 0.035991866 0.46885374 0.05650364
0002a0 51 48 b9 3c c2 b8 44 be 61 e3 0d bc 54 3e 00 3e
       0.022617491 -0.19211105 -0.008660168 0.12523776
0002b0 28 cc 2d bf c1 1d be bc 6e f5 8b be a0 f5 b8 3b
       -0.6788964 -0.023207547 -0.27335685 0.005644515
0002c0 83 7b 31 be 59 15 8c 3b 2e f9 06 bd 72 1e 36 bc
       -0.17332272 0.004275006 -0.03295248 -0.011115657
0002d0 fe 10 e9 3d 29 62 f6 3d 86 1d e4 3e 7f 14 98 3c
       0.11380194 0.12030441 0.44553775 0.01856446
0002e0 85 da c0 bc 19 dd 07 3f ba 4c 5e bc 39 53 53 3d
       -0.023541698 0.53071743 -0.013568098 0.05159304
0002f0 f3 58 6a 3e c0 67 bd be c1 c5 35 3e d7 6b 04 be
       0.22885494 -0.36993217 0.17751218 -0.12931763
000300 28 ca cb 3e da 2a 00 3f a8 ff 08 3e b9 f3 65 3c
       0.3980267 0.50065386 0.13378775 0.014035159
000310 35 b4 2f bd 99 65 b8 3e 96 7f e9 3e fb ef 06 bf
       -0.04289647 0.36015013 0.45605153 -0.5270993
000320 2d 17 95 3e fe 30 ec 3e be 2b 3f bf 12 c0 99 3d
       0.29119244 0.46131128 -0.7467612 0.07507338
000330 6d c1 07 bf 36 b9 0c 3f f0 44 d6 be 89 a6 65 3d
       -0.5302952 0.5497011 -0.4184947 0.056067023
000340 b8 f3 2f 3c 56 6f 4b bd ef 4f 28 bf 26 2f 04 3d
       0.010739259 -0.049666725 -0.6574697 0.032271527
000350 c3 b1 c4 3c 54 12 c4 bc 80 1c 8a bd b7 52 ce bc
       0.024010545 -0.02393452 -0.06743717 -0.025185926
000360 0c 35 59 3d 04 dc 9e 3c 31 b3 12 bd a2 53 99 3d
       0.053029105 0.019392021 -0.03581542 0.07486655
000370 2b 18 36 3c 69 b6 87 3e 44 f8 00 3f cf fd 2c 3c
       0.0111141605 0.26506355 0.50378823 0.01055856
000380 1e 32 b4 bd 54 f6 1a bd 98 a0 16 bd 0f 2d 8f bd
       -0.087986216 -0.037832573 -0.036774248 -0.06991016
000390 7b 94 e2 3c 76 e6 39 bd e2 c7 09 3f 61 af c0 3d
       0.027658692 -0.0453858 0.5382062 0.09408451
0003a0 eb 1a e6 3e 41 af cb 3d 76 40 03 3d 96 5d aa 3f
       0.44942412 0.099455364 0.032043897 1.330981
0003b0 d5 d5 ed 3c 7b 6c b6 bd fa 90 b1 3e 3c 2d d6 3e
       0.029032627 -0.0890741 0.3468092 0.41831386
0003c0 15 40 6c 3e ec 3b be 3d 8c 63 1a 3f e9 9e 9e bf
       0.2307132 0.09288773 0.60308146 -1.2392246
0003d0 a3 45 50 3f 59 b9 7a 3d 2e e9 73 3d fb ba c6 3e
       0.8135626 0.061211918 0.05954855 0.3881453
0003e0 e8 84 8e 3e f6 30 9f 3b f5 e5 af 3e 35 1e ca bf
       0.27835774 0.0048581315 0.3435513 -1.5790468
0003f0 82 1c 13 3f 49 7a c0 3c 1b 7f aa 3c 1a e4 28 c0
       0.57465374 0.02349581 0.020812562 -2.6389222

attn.weight f4 [100, 100]
000000 7f 61 e5 bc 74 48 34 3c 23 97 29 3c 05 7c a5 be
       -0.028000591 0.011003602 0.010350975 -0.32321182
000010 af a6 44 3e 3b 18 80 bb be 69 05 bb 19 8f 61 bb
       0.1920421 -0.0039091385 -0.0020357217 -0.0034417568
000020 2a 16 8a bc 6c 2e a9 bd 38 8a 5d 3e db 21 f9 3d
       -0.016856272 -0.082608074 0.21634758 0.121646605
000030 d8 52 91 3e d7 9e 82 3d 73 cd 37 3e 2b f6 0e be
       0.28383517 0.063779525 0.17949466 -0.13961093
000040 8e 29 99 be 2e 13 5f be af fd fd 3c 27 4b 16 3d
       -0.29914516 -0.2178466 0.031004755 0.036692765
000050 e4 07 d6 3b b4 9d 08 be 2f 47 f1 3c 0c ad ba 3d
       0.0065317024 -0.13341409 0.029452888 0.09115037
000060 6c d8 94 3e 2b 1a 3f be 3c 2e 9e 3d d3 71 86 bd
       0.29071367 -0.18662326 0.07723662 -0.06564679
000070 d3 6c 5b 3e 9b c0 8b 3b e0 9f a7 3a b4 f3 a4 be
       0.21428232 0.0042649037 0.0012788735 -0.3221718
000080 ba 67 5c be 0d 81 a1 bd 7c 05 a9 3d 5a 30 f9 bd
       -0.21523944 -0.078859426 0.08252999 -0.121674255
000090 a9 09 16 3e 41 ca 5a be cc 38 f0 bd 23 d6 79 bd
       0.14652123 -0.21366216 -0.11729583 -0.060995232
0000a0 91 0f 98 be 09 d0 95 bd 65 0b 11 be b4 22 d4 3c
       -0.29699376 -0.0731507 -0.14164503 0.025895454
0000b0 b1 b5 19 bf 77 8f 25 be 8d c2 11 3e d6 4a 25 be
       -0.60042864 -0.16168009 0.14234371 -0.16141829
0000c0 42 20 34 bd fd b8 f1 3d da a4 9c bd 93 3e 08 bd
       -0.043976076 0.11802862 -0.076486304 -0.0332628
0000d0 92 34 3e bd 62 c5 1d 3e 5a 81 a4 3d d6 b8 05 3f
       -0.046436854 0.15407327 0.08032484 0.5223516
0000e0 b7 bc c0 be 73 1f 1a 3e 1d b9 9e 3c 99 6f 12 bd
       -0.37643978 0.1505106 0.019375378 -0.03575096
0000f0 1e 0b 6d be 91 06 a1 3e 58 91 17 3c 12 49 ba bc
       -0.23148772 0.31450322 0.009250961 -0.02273992
000100 95 62 67 3d c0 36 be bc 4f d3 a9 be d0 9a 05 bc
       0.0564905 -0.023219466 -0.33169028 -0.008154586
000110 f2 a5 12 bf 27 3e 4f 3e fd b2 4d 3d 04 dd 13 3f
       -0.5728446 0.20238553 0.050219525 0.5775912
000120 f0 ef 94 3f 9b be 1e 3f ba 88 96 3d 6a 80 c9 3e
       1.1635723 0.6200959 0.07350297 0.39355785
000130 e0 5a 84 3e cd f6 10 3f e4 2e 13 bd de de 61 be
       0.25850582 0.5662659 -0.03593339 -0.22057673
000140 5a b9 a5 3e 21 29 cf be ad 19 83 be bd aa 64 be
       0.32367975 -0.40461066 -0.25605527 -0.22330756
000150 7c 8a e3 bd ea 5d 73 3d 86 bc 5b 3e 20 09 8f be
       -0.11110398 0.059415735 0.21458635 -0.2793665
000160 9e 66 c1 3e 6f 43 17 3f b7 53 c6 bc 55 8c b3 3e
       0.37773603 0.5908727 -0.02420984 0.35068002
000170 7c 22 0f be c2 ab a9 be 2f e4 66 bf 76 14 3b be
       -0.13977998 -0.33138853 -0.9019193 -0.18269524
000180 27 be 06 3e 76 b0 c2 3e e5 19 a5 be 2c fb 82 be
       0.13158475 0.38025254 -0.32246318 -0.25582254
000190 cb 0c 50 3d 07 97 bb b9 5c e1 43 bd ac 5c 9d 3e
       0.05079345 -0.00035779944 -0.04782234 0.30734766
0001a0 05 ad cf 3d 5e e4 a1 bd c6 c7 2e bd ca 28 86 3d
       0.10140423 -0.07904886 -0.042670988 0.06550749
0001b0 f7 b9 24 3d 7b f0 41 bd 1e 35 59 bd 6e a2 3a 3c
       0.040216412 -0.04734848 -0.053029172 0.011391265
0001c0 45 56 6b 3d 2c c7 83 bc 20 57 2d 3c 5d 98 3d 3d
       0.05745532 -0.016086183 0.010579854 0.046287883
0001d0 80 fb 89 bc b7 66 3c 3b d5 60 6d bc 0f b3 bb 3d
       -0.016843557 0.0028747746 -0.014488419 0.09165012
0001e0 18 c6 00 bd 78 91 d5 bd f3 aa a2 3d cd 59 83 bb
       -0.031438917 -0.104281366 0.07942762 -0.004008508
0001f0 56 e1 63 3e 3b 7b dd bd 8c f2 9c 3d a6 e3 2c bd
       0.22253928 -0.1081452 0.0766345 -0.04220929
000200 9a c2 86 bd 38 89 e4 bc 48 69 d9 bc d8 f7 8e bc
       -0.06580086 -0.027897462 -0.02653946 -0.017452165
000210 9f 0d 78 bd 55 ae 04 be da 4a db 3c eb c1 51 bd
       -0.060559865 -0.12957127 0.02676909 -0.051210325
000220 02 c5 ae 3d d8 b6 b1 bc b5 45 c1 bc 1b eb b0 3d
       0.0853367 -0.021693632 -0.02359281 0.08638593
000230 d5 b9 aa 3c 94 a2 8e bc a8 a6 ba 3d 45 df 85 3d
       0.020840565 -0.017411508 0.091138184 0.06536726
000240 e3 6c 30 be 01 99 e6 bb e2 28 69 3d 34 e4 d7 bd
       -0.17229037 -0.0070372825 0.056923755 -0.10541573
000250 8a af e9 3d 30 4c 48 bc 86 eb 6c bd 5c 09 94 bd
       0.114104345 -0.012225196 -0.0578418 -0.07228348
000260 ec 9f 13 be ce 38 56 3e 54 90 09 bd 84 37 2f bf
       -0.14416474 0.20920107 -0.033584908 -0.68444085
000270 da 0e 9b bf bf 12 f8 3d 71 0e 99 bd 07 9c a5 3d
       -1.2113907 0.121129505 -0.074734576 0.080864005
000280 60 7c ce be 1e 73 09 3f e7 83 1b 3e 01 0a 03 3e
       -0.40329266 0.5369128 0.15187036 0.12796785
000290 5d a4 6c 3e 90 77 48 3e 94 94 23 3f 11 11 18 3a
       0.23109575 0.1957686 0.6389859 0.0005800883
0002a0 f5 97 e6 3d 08 8d 1c 3e 8b c0 0d be 3c 01 f6 3e
       0.11259452 0.15288174 -0.1384298 0.48047817
0002b0 76 1e 11 bf 6c 33 06 3f e2 84 6b bd 3b 25 09 be
       -0.56687105 0.52422214 -0.057499774 -0.13393109
0002c0 28 44 64 3d 86 74 d9 3e f1 64 80 3e 65 fc 00 bf
       0.05572906 0.42471713 0.25077012 -0.50385123
0002d0 ae 83 6b 3e 8c ad 9d bf d6 5d 4f be c7 06 04 3c
       0.2299945 -1.2318587 -0.2025064 0.0080582565
0002e0 ee c2 b5 bd d6 e9 a8 3e 9d a2 0f 3e 40 69 d7 3c
       -0.088750705 0.32990903 0.14026876 0.026295304
0002f0 aa 28 c8 3e 94 53 d0 3e ca f7 09 bd b9 55 11 3e
       0.39093524 0.40688765 -0.033683576 0.14192857
000300 e0 fb 95 be b8 24 9a 3e b2 75 c8 be b4 09 7c 3e
       -0.29293728 0.3010614 -0.39152294 0.24613076
000310 87 49 22 3d a4 30 19 3d a4 cf 9c 3e b4 7b 38 3e
       0.039620902 0.037399903 0.30627167 0.18015939
000320 7b 19 57 be d4 d0 9a 3d ad b6 5c bd a5 93 1b be
       -0.21005814 0.07559362 -0.05388515 -0.1519304
000330 ac a9 81 be 97 15 a6 3d 21 02 c5 3d 2f 38 6a bd
       -0.25324762 0.08109587 0.09619547 -0.057182487
000340 c1 ef 5c bd ca a1 ef 3c 92 ae 7e be ef 17 42 bd
       -0.053939585 0.029251952 -0.24871281 -0.047386106
000350 f0 f4 22 3d f8 85 1f be f5 0d 00 be b1 47 2a bd
       0.03978437 -0.15578449 -0.12505324 -0.041572277
000360 55 33 b6 3e 5b 68 27 3e c2 3f a7 3b 84 2b 49 bd
       0.35586038 0.16348402 0.005104036 -0.049113765
000370 61 64 9f 3d 3b 1d 69 3e e5 30 dc bd 77 60 2d be
       0.07782818 0.22765057 -0.107515134 -0.1693133
000380 37 01 6e be d7 d7 b4 3d 92 c3 d8 bc b9 ba 5d bd
       -0.23242651 0.08830231 -0.026460443 -0.05413315
000390 d2 b9 01 be 17 ee 8d bd 9f 9f 39 be aa 79 91 3e
       -0.12668541 -0.06930178 -0.18127297 0.28413135
0003a0 ed 16 8c 3e ad 91 36 3e c5 b1 9c bd 9a 01 25 3e
       0.2736124 0.17829008 -0.07651094 0.16113892
0003b0 a1 f2 3a 3d 39 e0 49 3e 45 cd a6 3e 1f ad 42 be
       0.045641545 0.1971444 0.32578483 -0.19011353
0003c0 79 fa 4f 3e bf bb 75 bd 24 4d e7 3c 37 13 80 be
       0.20310391 -0.0599935 0.028235026 -0.2501466
0003d0 66 a3 b9 3e ea 1f d2 3d c0 2e 56 bc 8f 2f a4 3e
       0.36257476 0.102599934 -0.0130726695 0.32067534
0003e0 1d 4c df 3c 4a 43 98 be 51 21 96 3e c6 b5 16 be
       0.027257973 -0.29738837 0.29322293 -0.14717779
0003f0 35 04 33 be 96 f5 80 be d3 5d 1c 3e 2d fb e4 3e
       -0.17482074 -0.25187367 0.15270166 0.44722882

attn.bias f4 [100]
000000 cc 2d 91 be af 48 cc bd 2f 14 27 3e 45 f9 89 3e
       -0.28355253 -0.09974801 0.16316293 0.2694799
000010 db 52 75 3e ef 2f 71 3e 52 a5 b1 3e 96 ec 8c 3e
       0.23957388 0.23553441 0.34696442 0.2752425
000020 d3 e2 34 3e 47 3c 39 bc e0 a3 a3 bf 21 f6 a0 bf
       0.17664652 -0.011305875 -1.2784386 -1.2575113
000030 6c b0 95 bf d3 a2 84 bf c9 ae 92 bf 93 04 91 bf
       -1.1694465 -1.036219 -1.145959 -1.1329521
000040 80 20 18 bf de 5c 82 bf 0e 64 9b bf dd 5c 94 bf
       -0.5942459 -1.0184591 -1.2139909 -1.159084
000050 28 83 75 bf 77 f6 9b bf 10 b0 95 bf 18 15 6c bf
       -0.95903254 -1.218459 -1.1694355 -0.92219687
000060 5c d0 90 bf 38 21 92 bf db 7e 93 bf 12 e4 91 bf
       -1.1313586 -1.1416388 -1.1523088 -1.1397727
000070 04 3a 81 bf d5 7a 81 bf e7 85 82 bf 59 29 90 bf
       -1.009583 -1.011561 -1.0197114 -1.1262618
000080 0e 2b 9e bf cb 1c 69 bf d5 3a 4b bf e0 5f 94 bf
       -1.2356889 -0.9105956 -0.79386646 -1.1591759
000090 a8 01 86 bf 23 69 97 bf 53 e0 90 bf 5f 6f 79 bf
       -1.0469255 -1.182896 -1.1318458 -0.97435564
0000a0 f3 78 8c bf 5a bf 72 bf bb f2 8c bf 2a f0 7b bf
       -1.0974411 -0.9482323 -1.1011575 -0.98413336
0000b0 bd fc 72 bf d6 29 86 bf 4b b1 98 bf 19 25 84 bf
       -0.949169 -1.0481517 -1.1929106 -1.0323821
0000c0 a8 cb a2 bf 04 c1 82 bf e4 f5 74 bf dc 55 8c bf
       -1.2718401 -1.0215154 -0.956877 -1.0963702
0000d0 de 4e 7d bf 98 3a 7c bf 58 ab 95 bf b5 c8 8d bf
       -0.98948467 -0.98526907 -1.1692915 -1.1076876
0000e0 b5 54 8f bf a8 5a 96 bf 07 bc 83 bf 66 52 9c bf
       -1.1197726 -1.1746416 -1.0291756 -1.2212646
0000f0 7d b4 83 bf c8 c8 95 bf 07 d9 8a bf 13 48 67 bf
       -1.0289456 -1.1701899 -1.0847481 -0.9034435
000100 7e 2e 93 bf a9 4b 91 bf 27 59 96 bf 6e 83 a0 bf
       -1.1498563 -1.1351215 -1.1745957 -1.2540109
000110 11 fc 9e bf 43 e0 89 bf c8 bd 89 bf 35 5b 95 bf
       -1.2420675 -1.0771564 -1.0761042 -1.1668459
000120 1f eb 92 bf cd f3 74 bf 67 ec 55 bf 2e de 93 bf
       -1.1478003 -0.9568451 -0.83563846 -1.1552179
000130 a3 51 9b bf 81 f7 88 bf 23 f7 94 bf 92 22 88 bf
       -1.2134289 -1.0700532 -1.163792 -1.063555
000140 c5 82 95 bf 66 59 84 bf 8b 36 8f bf 44 1f 29 bf
       -1.1680533 -1.0339782 -1.118852 -0.6606333
000150 69 4d 8e bf 4a 9c 61 bf a0 7c 8b bf 76 fa 8a bf
       -1.1117374 -0.88129103 -1.0897408 -1.0857685
000160 d8 2b 8d bf cb aa 8f bf ad 7d 87 bf de 1f 85 bf
       -1.1029005 -1.1223997 -1.0585228 -1.040035
000170 43 6d a0 bf 5b f8 8c bf 3d 79 a2 bf 80 00 63 bf
       -1.2533344 -1.1013292 -1.2693249 -0.8867264
000180 1e 9a 8e bf e1 f0 49 bf d2 44 83 bf e4 6f 87 bf
       -1.1140783 -0.7888318 -1.0255377 -1.0581021

attn_combine.weight f4 [50, 100]
000000 9e e1 51 3e fd 10 bc bb bf c2 b6 3d 1e b7 21 3e
       0.20496222 -0.00573933 0.089238636 0.1579251
000010 da e8 f5 3e 76 f9 b0 bd a6 df c7 3b c6 f8 0b 3d
       0.48029214 -0.08641331 0.006099659 0.034172796
000020 90 6c 38 3d d8 b4 4b 3d 64 97 7a 3e e4 c7 9f bd
       0.04502541 0.049733013 0.24471813 -0.07801798
000030 60 a2 52 3e 01 e1 53 3e bc cd 9c 3d 59 c4 1c 3b
       0.20569754 0.20691301 0.07656428 0.0023920743
000040 9b 65 5b 3d 8a 6b 0d be 13 8b 8c bd 15 0d 53 3e
       0.053563695 -0.13810554 -0.06862464 0.20610459
000050 29 76 d9 3c 76 ef cd bd 3c c2 e3 3d 42 06 d9 3c
       0.026545601 -0.10055439 0.11121032 0.026492242
000060 c7 cd 8d 3e c9 40 f3 3d 1d 6a da be 2a f2 e2 3d
       0.27696058 0.11877591 -0.42659083 0.110813454
000070 86 90 e8 bd fc bc 45 3e 17 e4 87 3d c0 2a c9 3a
       -0.11355691 0.19310373 0.066353016 0.0015347824
000080 a7 7c eb bd d0 4f a4 3e a2 13 e1 bc 6b ba 83 3e
       -0.11498385 0.32092142 -0.027475182 0.25728163
000090 a3 63 69 3d f3 0d 58 3d b2 eb b1 bd 58 97 77 be
       0.056979787 0.052747678 -0.086875334 -0.24178827
0000a0 55 10 64 be 04 fe 32 be 6d 3f c0 bc f1 be 66 be
       -0.22271855 -0.17479712 -0.023467744 -0.22533776
0000b0 91 32 c3 bd e0 23 8c be 0e cb 2b bd d1 d4 9b be
       -0.09531129 -0.2737112 -0.041941695 -0.30435804
0000c0 d9 49 c9 3e a3 97 b6 be f7 c1 88 3d 01 cd 71 3e
       0.39314154 -0.35662565 0.06677621 0.23613359
0000d0 9e 46 85 3e e8 9c 09 3e 80 e3 53 bd 39 e7 9d be
       0.2603044 0.13438761 -0.051730633 -0.3084047
0000e0 a3 54 4c be 82 a8 08 3e 1f 07 1d bd 1c 75 6a bd
       -0.19954161 0.1334553 -0.03833687 -0.05724059
0000f0 1d e5 91 be 3d c8 40 be 40 ff bd be 27 cb 0f bf
       -0.28495112 -0.18826385 -0.37108803 -0.5616936
000100 8f 4d d9 3d 3b 85 5d 3d 96 4f 16 3f 89 76 0b bf
       0.10610496 0.054082137 0.5871519 -0.54477745
000110 5a 38 22 3d bb 89 a5 3e 4d 65 94 3e c2 7f e0 be
       0.039604522 0.32331643 0.28983536 -0.4384747
000120 71 df d4 3e de 97 7b be 9b ed 6e bc 21 d4 2f be
       0.41576722 -0.24569651 -0.014583017 -0.17170765
000130 b4 5e 98 3e 50 01 ec 3d eb 32 15 3c 06 e2 4f 3d
       0.29759753 0.11523688 0.009106378 0.050752662
000140 23 ee cc 3e 93 ce 76 3d 1a 83 74 bd 21 3b 58 be
       0.40025434 0.0602556 -0.05969534 -0.21116306
000150 b9 5a d6 3d d1 d1 b9 3d 39 52 46 bd 4a 4f e8 3b
       0.10466523 0.090732224 -0.048418257 0.00708953
000160 e2 82 91 bb 8b d2 b4 bc d4 a2 78 3d 63 07 ab be
       -0.0044406513 -0.022073051 0.06070216 -0.33404073
000170 24 48 ae 3d c6 00 b2 be 98 eb 80 3c 0c 67 13 3e
       0.085098535 -0.34766215 0.01573734 0.14394778
000180 cf b2 0c bd 6c 76 93 be d8 ac 83 be d2 cb 19 be
       -0.034350213 -0.28801286 -0.25717807 -0.15019158
000190 51 68 be bc d6 71 87 bc 76 90 0c bd 12 fc 81 bd
       -0.023243101 -0.016533773 -0.034317456 -0.06346907
0001a0 45 ad 96 3e 91 61 cb 3c db 89 aa bc 71 1a 4b 3c
       0.2942907 0.024826797 -0.020817688 0.012396441
0001b0 de 34 a6 3c 6f 14 c1 bc fc 67 ea 3d 4f ff 75 3b
       0.02028888 -0.023569314 0.11445615 0.003753621
0001c0 a6 64 16 3e 52 c7 6d 3d 76 46 bd 3d bb d0 7d 3c
       0.14686832 0.058051415 0.09241955 0.01549166
0001d0 46 eb 14 be cd 40 ad bd 1f ae 93 3d e7 33 41 3d
       -0.14542875 -0.084596254 0.07210945 0.04716864
0001e0 3e 78 00 bd c9 75 19 be f1 b6 c3 3d d8 b9 a6 3d
       -0.031364672 -0.14986338 0.09556378 0.08140916
0001f0 3c c4 8f 3d d1 20 eb bd b9 34 31 be c5 19 d2 bd
       0.070198506 -0.114808686 -0.17305268 -0.102588214
000200 36 70 fd 3d 26 0a 92 bd 5b 41 06 bd 45 66 5f be
       0.12374918 -0.07130842 -0.03277717 -0.21816356
000210 de 46 18 bd 49 5f 9c 3c 5b 91 99 3d df 7c 8a 3d
       -0.03717696 0.019088404 0.074984275 0.067620985
000220 0d 11 9e 3d 98 92 1d be 76 3b 11 3d df eb c4 3d
       0.07718096 -0.15387952 0.035457097 0.09615301
000230 64 d2 6d be 33 98 4a 3d ef d0 ae bc 6b b6 62 3d
       -0.23224789 0.049461555 -0.021339862 0.05534975
000240 d8 85 6b be 94 90 ba bc bf dc ad 3d d8 85 12 be
       -0.23000276 -0.022774018 0.084893696 -0.1430887
000250 7c 49 4e 3e cb ba 87 3d 36 84 ba 3d 09 3c 29 bc
       0.2014522 0.06627425 0.091072485 -0.010329255
000260 30 ac 9f bc 9c 97 a7 be 8c 95 8c be 12 e8 07 bf
       -0.019491285 -0.32732856 -0.27457845 -0.53088486
000270 f2 e3 db 3d e9 75 b0 be f4 59 d0 3d 64 f8 97 3e
       0.107368365 -0.34464958 0.10173407 0.29681695
000280 19 2b 89 be 23 6e 74 3e 0f ab c8 bd b5 9d 15 bd
       -0.26790693 0.23870139 -0.09798252 -0.036527354
000290 4f 9b a8 3d ea 78 b1 3e 32 0b cf bd 0c 34 09 bf
       0.08232748 0.34662563 -0.10109557 -0.5359504
0002a0 85 c3 01 3f d0 a6 88 be 5a 4b f7 3e e1 68 db 3e
       0.50688964 -0.26689768 0.48299676 0.42853454
0002b0 19 74 b8 3e 3c fc 6c bf dc d9 6c 3d 93 b6 3d 3e
       0.36026075 -0.9257238 0.057824954 0.18526678
0002c0 03 83 af 3e 03 34 cd 3d ac c3 43 3e e6 dd 1c 3f
       0.34279642 0.10019686 0.19117612 0.6127609
0002d0 ec 87 a4 3e 1a 05 ec bd 3a dc 20 3d ee b6 df bd
       0.3213495 -0.115244105 0.039272524 -0.10923563
0002e0 4d 64 8a be 9a 85 1b be 55 e1 a1 3e a1 a8 d5 bd
       -0.27029648 -0.15187684 0.31617227 -0.10432554
0002f0 e8 d1 61 3e 94 f5 43 3e e9 5e 91 bd 73 3a 17 bf
       0.22052729 0.1913665 -0.07098181 -0.5907356
000300 98 bc 11 be 0a e0 ad 3d fe bb 8d bd 7c 27 53 be
       -0.14232099 0.08489998 -0.06920622 -0.20620531
000310 13 8b b9 3d ad dd cc be a4 d4 1e be b0 96 ed 3d
       0.090597294 -0.40012875 -0.15510803 0.11601007
000320 3d 5b 52 bc 04 50 1b 3e cd 22 9b bd 90 21 90 3d
       -0.012839136 0.15167242 -0.07574997 0.070376515
000330 6d 62 66 bd f5 cb 33 3e ab e5 4a bc a9 e8 0a be
       -0.05624621 0.17558272 -0.012383859 -0.13565315
000340 c3 da 0a bd 65 cb 9d 3d 6c e0 d5 3c f5 2f 9e bd
       -0.033900034 0.0770481 0.02610799 -0.07723991
000350 cb 38 b6 bc c8 90 05 3e d3 88 48 3d 39 d8 d0 3b
       -0.022243878 0.13043511 0.04895861 0.006373432
000360 64 59 2b be 87 3e 4d be 1b 4c c8 3d 9f c2 58 3e
       -0.16733319 -0.20043384 0.09780141 0.21167992
000370 84 c4 11 3e 0a ff 8c 3d bb 93 11 3d b1 30 81 bc
       0.14235121 0.06884582 0.035541277 -0.015770288
000380 76 68 6a 3e 4a 5c ba 3d a9 4f 8a 3e 14 d7 5d bc
       0.22891411 0.09099634 0.270139 -0.013540048
000390 22 d2 9a bd 76 4e 8e 3d ae 5f 91 ba 2d 4e 16 be
       -0.07559611 0.06948559 -0.0011091137 -0.14678259
0003a0 5c 5b c5 be ba cb e3 bd 25 f5 8d bd 5d 53 cb be
       -0.38546264 -0.11122842 -0.06931523 -0.3971204
0003b0 01 8c be bd 53 a1 d3 3d 85 10 1d be 09 86 ac 3d
       -0.093040474 0.103335045 -0.15338333 0.08424003
0003c0 f0 f2 23 be 1f 86 0e be e3 9e 36 bd b6 68 28 3d
       -0.16010642 -0.1391835 -0.04458512 0.041115485
0003d0 4a 96 fd be 93 fa 3b be 88 09 41 bd 53 0a 15 bd
       -0.49528724 -0.18357305 -0.04712823 -0.0363868
0003e0 91 78 13 be 0b f1 0a 3e c3 00 5b 3b 2a a1 59 3d
       -0.14401461 0.13568513 0.0033417202 0.053132214
0003f0 0d 1e 71 be 42 b8 4d be d7 b3 f1 be dd f9 b6 be
       -0.2354662 -0.2008982 -0.4720752 -0.35737506

attn_combine.bias f4 [50]
000000 9d 9d 64 be 5b 0e 54 bd da 5d 6e be d6 7f f4 be
       -0.2232575 -0.051771503 -0.23277989 -0.4775378
000010 6a 8c 11 bc 0f 20 b4 be ae 85 8f be 45 ed 28 3e
       -0.008883575 -0.3518071 -0.28031677 0.16496761
000020 41 7d 77 bd ff e1 b6 be f6 19 30 be 9d 63 b5 be
       -0.060422186 -0.35719296 -0.17197403 -0.3542756
000030 ee ae d8 be 13 7d 4d 3d ca 1f 87 be 54 5f 24 be
       -0.4232096 0.05016811 -0.2639144 -0.1605199
000040 f5 66 97 be 6e dd a6 bd 18 37 71 be f4 7b f5 be
       -0.29570737 -0.08147703 -0.23556173 -0.4794613
000050 1a 3f 21 3e 5a d8 50 3d 26 a9 b1 bb 30 6e 11 3e
       0.15746728 0.05098758 -0.0054217754 0.1420219
000060 8d e3 ec be 6a e7 5f bc b0 9a 2c 3d 19 82 f4 be
       -0.46267357 -0.013666013 0.04213971 -0.47755507
000070 10 cd e2 bd 7a e0 c6 be 39 dd b0 be 50 5b 9e be
       -0.11074269 -0.38843137 -0.3454378 -0.3092904
000080 81 20 11 be ed 0f 46 be 65 6a 7f be 13 d3 cb be
       -0.14172556 -0.19342013 -0.2494293 -0.39809474
000090 b3 f7 2c be 9f e5 c6 be c3 cc a5 be 01 77 7e be
       -0.16891365 -0.38847062 -0.32382783 -0.24850084
0000a0 6e 80 62 bd f8 57 c5 be 5b 16 b9 bc 6c d5 a6 be
       -0.05529826 -0.38543677 -0.022593668 -0.32584703
0000b0 08 15 bd 3d 28 7a cb bd 59 6c d4 be 27 de 2f be
       0.09232527 -0.09935409 -0.41488913 -0.17174588
0000c0 7b c2 9f bd 36 0b e3 be
       -0.07800766 -0.4434449

hidden_layer.weight_ih_l0 f4 [150, 50]
000000 43 c7 cf 3c 83 47 88 3e 20 ce c9 bc a9 58 00 bf
       0.02536357 0.2661706 -0.02463442 -0.50135285
000010 46 8c 1a be d6 04 e9 3e b1 16 85 be af 65 61 3d
       -0.15092573 0.45511502 -0.25993875 0.055028614
000020 a7 cb 50 bc 15 95 61 3c 2d 04 13 3e b7 b6 dd 3e
       -0.012743867 0.013768454 0.14357062 0.43303463
000030 fa ca c7 bd a4 57 4c 3d 65 34 89 bd 27 8c 19 be
       -0.097555116 0.049888268 -0.066994466 -0.1499487
000040 d8 41 02 3e f7 d5 37 3d b9 4f e4 be a2 c7 31 3c
       0.1272043 0.044881787 -0.44592074 0.010850819
000050 a4 ea 27 be 5d 52 60 be ae 5f d3 bc e6 b5 85 3e
       -0.16398102 -0.21906419 -0.02580246 0.2611534
000060 e6 89 b4 3e 0a 7b bc 3e cf e2 0f be c3 a6 44 be
       0.35261458 0.3681262 -0.14051364 -0.1920424
000070 69 62 26 3d 4f 2d 93 3e dc 29 cc 3d e5 7a 81 3e
       0.040621195 0.28745505 0.099689215 0.25289074
000080 d2 7b 29 3e f5 bc 85 bd 96 7f 33 3d 3e a3 85 3e
       0.1655114 -0.06530181 0.043822847 0.26101106
000090 35 b1 28 3f 65 bc 04 bf 98 c5 e5 bb 53 77 ea bd
       0.65895396 -0.5184997 -0.0070120804 -0.114485405
0000a0 be a6 56 3e e5 38 b9 3e 05 e3 86 be 78 24 6a 3f
       0.20962045 0.3617622 -0.26345077 0.91461897
0000b0 fa d0 03 3f e9 30 cd be 01 62 4f 3e 18 37 8c 3e
       0.5149075 -0.40076378 0.2025223 0.27385783
0000c0 38 aa 19 3f bf 8f a8 bd 0c c2 1c 3f 00 93 95 3e
       0.6002536 -0.082305424 0.6123359 0.29213715
0000d0 70 d1 7d 3e b0 18 1c bf 75 5f d9 be eb a5 c2 bd
       0.24786925 -0.6097517 -0.4245564 -0.095043026
0000e0 21 a8 42 3d 73 25 1a 3f eb c8 59 be f5 61 40 3e
       0.04752362 0.6021339 -0.2126805 0.18787368
0000f0 de 01 6a 3d b7 9b 33 3e ea ea 6d be 31 a5 3e 3f
       0.057130687 0.17539869 -0.23234144 0.7447081
000100 cd 0e 25 be e8 b5 01 bf ac 91 d7 3e 25 a4 3b be
       -0.16118927 -0.5066819 0.42103326 -0.18324335
000110 14 fd 69 be 28 68 f0 bd 42 f6 32 3e 3d 93 e5 be
       -0.22850448 -0.11738616 0.17476752 -0.44838896
000120 3c b7 c5 3d 2f 6e 0c 3d bd 4f 16 be 76 41 c2 3d
       0.0965409 0.034284767 -0.14678855 0.09485142
000130 7d 3b 5e bf 72 d9 2b bf c6 48 ca 3e ae 31 11 bc
       -0.8680952 -0.6712867 0.39508647 -0.008861942
000140 a5 bf 77 be cd 3c d2 3d d4 db 5f bd c0 5f 4c bd
       -0.241942 0.10265503 -0.054653004 -0.049896
000150 36 b0 d5 be 34 c5 21 bb 94 30 dd be c7 ff 3b bf
       -0.41736 -0.0024684193 -0.43201125 -0.7343716
000160 72 9f a4 bd 29 75 f0 be 98 1a 5e 3e aa f0 df be
       -0.08038224 -0.46964386 0.21689832 -0.437383
000170 5d c2 b9 be a1 f8 c7 3e 32 02 a0 bd 97 06 72 be
       -0.362811 0.39056876 -0.07812919 -0.23635326
000180 c0 76 01 bf 00 ff d2 3d 02 48 21 3f 82 58 89 3e
       -0.50571823 0.10302544 0.630005 0.2682534
000190 ae 50 05 3d 03 57 47 be 5a 21 db be 40 cf 45 3f
       0.032547645 -0.19466786 -0.42798883 0.77269363
0001a0 77 d9 94 be 84 60 9c bc c5 79 9d 3c 1c 3a be be
       -0.29072163 -0.019088991 0.019223103 -0.3715371
0001b0 9d da 32 be ef 46 60 bd 83 65 2f 3e 90 0a 86 3d
       -0.17466207 -0.054755148 0.17128567 0.065449834
0001c0 43 9d 97 3e a1 71 10 bf 80 17 54 3e 7a eb 55 3d
       0.2961217 -0.56423384 0.2071209 0.05222652
0001d0 e6 a7 0f bf e2 54 f5 be 78 05 51 3e 1b c0 0e 3e
       -0.5611557 -0.47916323 0.20412242 0.1394047
0001e0 76 d7 fe 3e 7b 21 b3 bd 05 ea b1 3d 31 eb 7d 3d
       0.4977376 -0.0874662 0.08687214 0.061991874
0001f0 a6 1a b0 3e 28 c1 4e 3f 0e d4 b3 bc 37 0a e6 3e
       0.3439533 0.80763483 -0.021951701 0.44929668
000200 05 fc 3c bd 8e 55 31 3f e4 3e 12 be 1e c8 07 bf
       -0.046138782 0.6927117 -0.14281803 -0.5303973
000210 ba 29 05 3e cf 9a 15 3f d7 61 4f be b2 81 1b 3e
       0.13004199 0.58439344 -0.20252167 0.15186194
000220 fc e3 d1 3e 1c 75 16 3f 4d 45 aa be 72 62 83 3f
       0.4099425 0.58772445 -0.33255997 1.0264418
000230 7f 54 0d 3f e9 c3 34 3e 13 ca ca 3e 8d dd 89 3e
       0.55207056 0.17652859 0.39607295 0.26926842
000240 6d 0f 9b be 64 66 08 3f 4a 61 d8 3e 9c 3a 01 3e
       -0.30285206 0.53281236 0.42261726 0.12620014
000250 cd b6 b8 be b7 aa a2 be 4e 49 38 bc fe 79 31 3e
       -0.36076966 -0.3177087 -0.011247946 0.17331693
000260 d9 26 a9 3d ad a8 06 3e ed 09 6f be e5 2d c6 be
       0.08259363 0.13150282 -0.2334363 -0.3870689
000270 93 d5 40 3f 7e ea be 3e 8e 06 41 be 3c d2 5e 3f
       0.7532589 0.37288278 -0.18850157 0.8703954
000280 26 df 88 3e be 66 2f be e8 35 10 3e 50 ad 52 3f
       0.2673275 -0.17129037 0.14083064 0.82295704
000290 15 80 21 3f fb f0 67 be 10 d2 67 3e b8 da 05 3f
       0.6308606 -0.2265052 0.22638726 0.52286863
0002a0 c4 52 5e be fe 55 62 bd b0 f0 72 3f ac 72 8d 3e
       -0.2171126 -0.05525779 0.9489851 0.2762655
0002b0 f7 53 a6 be ce 21 9f be 45 5d 8d 3e 5b 5c 8f be
       -0.32485935 -0.31080478 0.27610222 -0.2800015
0002c0 85 12 54 3e 5d 0f 62 3e 17 f3 68 3f 11 ee 20 3e
       0.2071019 0.22076173 0.90995926 0.15715815
0002d0 c4 5b 1a 3e 8a ee 20 bd d3 c8 dd 3e aa 7c e2 3d
       0.15074068 -0.03928999 0.4331728 0.11058934
0002e0 a1 a4 d7 be 6a 82 16 3e 9b 5d 8f bd 91 5c 54 3d
       -0.4211779 0.14698187 -0.07000276 0.05184609
0002f0 de 6a 8e bd d1 36 e3 3d ea 29 02 be 6a a6 52 be
       -0.06953977 0.1109444 -0.12711301 -0.20571294
000300 ba 2e 98 3c 2f 77 98 be 50 ce 7c 3e f0 cd a5 3e
       0.018576968 -0.2977843 0.24688077 0.3238368
000310 4a 55 65 3e cb 0e 1c bf 6d 13 02 3e d7 34 ba 3d
       0.22395816 -0.6096007 0.12702723 0.0909211
000320 01 83 98 3e 7d 9d 99 be 56 5a 1a be 14 30 12 3e
       0.29787448 -0.30002967 -0.15073523 0.14276153
000330 d0 da f4 bd f4 84 e5 be 70 56 58 3e da 57 99 3e
       -0.11955798 -0.44827998 0.21126723 0.29949838
000340 a6 ce e8 3c cc e0 fd 3e 7a 8a 65 3e 26 a1 39 3f
       0.02841885 0.4958557 0.22416106 0.7251152
000350 1a 7e af bd 85 34 69 b9 b3 74 8b 3e ce bb 38 3f
       -0.08568974 -0.00022240177 0.27237472 0.7216157
000360 9c dd 56 be 07 0d cc 3d 13 eb cf 3c e3 2f 2f 3f
       -0.20982975 0.09963422 0.025380647 0.68432444
000370 e3 c5 3d 3e de 40 1e be ec 42 8a 3e 79 04 2c 3f
       0.18532519 -0.15454432 0.27004182 0.67194325
000380 38 b8 c1 be af a0 68 3e dd 47 66 be 56 5b 4b 3d
       -0.3783586 0.22717546 -0.22488351 0.04964765
000390 13 11 36 3d 5c 76 4a 3e c2 a6 59 be 7e 58 a9 3e
       0.044449877 0.19771713 -0.2125502 0.33075327
0003a0 3b 31 9c be a0 49 86 3e 92 bb eb 3d 47 48 db bc
       -0.3050631 0.26228046 0.115103856 -0.026767863
0003b0 ff 09 45 3d a8 ec 24 3f 0f 85 8d 3e dc 8f 43 3f
       0.048105236 0.6442361 0.27640578 0.76391387
0003c0 35 e0 01 3f 2a 04 cf 3d f6 2a 84 3e b7 ea b2 3e
       0.5073274 0.10108216 0.25814027 0.34944698
0003d0 57 4b 20 3e 50 75 a6 3e 14 1a bc 3e 5d d9 62 be
       0.1565374 0.32511377 0.36738646 -0.2215323
0003e0 5a 62 fe 3e 71 25 b8 3e 91 2f 5b 3f 4a 9f 2d 3f
       0.4968441 0.35966066 0.85619456 0.6782118
0003f0 c5 83 0b be 86 07 cf be c4 32 bd bc 4a ad 62 3e
       -0.13624485 -0.40435427 -0.023095496 0.22136417

hidden_layer.weight_hh_l0 f4 [150, 50]
000000 c4 8a a7 3d df 46 ca bc 25 36 7d 3f 5a 27 63 3e
       0.08180764 -0.024691997 0.98910743 0.2218298
000010 48 2a 44 3e 2a de da be f6 ab 63 be ea e0 27 be
       0.19156754 -0.42747623 -0.22233567 -0.16394392
000020 76 e4 f1 bc 32 62 29 3d fb 99 f9 3d 4f b2 51 be
       -0.029527884 0.041353412 0.121875726 -0.20478176
000030 3c fd 93 be 9e b4 78 3e b1 46 f9 3e 4f 78 8b bc
       -0.2890414 0.2428765 0.48686746 -0.017025141
000040 0f b4 0c bf 4d 61 f4 3d 42 ba 29 bf a6 56 af 3e
       -0.5496225 0.11932621 -0.6629983 0.34245795
000050 9e 00 55 bf 4d 12 ca bd ec f7 59 be d0 60 a5 3e
       -0.83204067 -0.09866772 -0.21285981 0.32300425
000060 09 e8 e1 3d be bd aa bc ae af 66 be f2 90 29 3d
       0.11030585 -0.02084243 -0.22527954 0.041397996
000070 76 0b 73 be 0d 74 26 3e 49 3a 09 bf fb 83 85 be
       -0.23734841 0.16255207 -0.5360456 -0.26077256
000080 6a 3b a9 3e 94 95 2b be dc 1e ea bc 53 e9 00 bf
       0.33053142 -0.16756278 -0.028579168 -0.50356025
000090 bd 33 1a be 87 38 8d 3d c5 54 1e 3e 67 6f bf be
       -0.15058799 0.06895547 0.15462025 -0.3738968
0000a0 16 c7 0f 3e ec 08 d8 be a6 57 fa 3d 1c ab 00 3f
       0.14040789 -0.42194307 0.12223749 0.5026109
0000b0 cc 16 0c bf 21 00 36 3f d1 02 43 3e 86 f2 ca 3d
       -0.54722285 0.71093947 0.19044043 0.09909539
0000c0 7f ff 48 3e f6 42 a1 bd 16 bf 70 3e 5d e4 85 bd
       0.19628714 -0.078741 0.23510394 -0.065376975
0000d0 81 73 00 3f ff 2b 3f 3c 69 87 71 3e 99 bb 9f be
       0.50176245 0.011668204 0.23586811 -0.31197813
0000e0 c1 e2 4c be 1c 5a 2f 3e 92 3f d9 3e e0 4e c9 be
       -0.20008375 0.17124218 0.42431313 -0.3931799
0000f0 c0 5f 94 be d1 1c e4 3e a6 39 36 3e 8e e4 6b be
       -0.289793 0.44553235 0.17795429 -0.23036405
000100 bb 15 1f 3e 64 d1 6e be 98 b6 66 be 9d 60 a7 3d
       0.15535633 -0.23322064 -0.22530591 0.081727244
000110 b1 be 30 be ce bf 50 3e 92 4e 10 be bb a1 c5 3d
       -0.17260243 0.20385668 -0.14092472 0.09649988
000120 c6 5e 65 3d 51 23 56 3e 19 12 42 be 70 e4 9d 3e
       0.055998586 0.2091191 -0.18952216 0.30838346
000130 9d 89 4e bd 38 8b a6 3e c2 86 57 3e 83 3d 10 3d
       -0.050424207 0.3252809 0.210475 0.035214912
000140 6a a7 ba bd 8d d8 94 be e9 fe a8 3e 9e d6 96 be
       -0.09113963 -0.29071465 0.3300698 -0.29460615
000150 d9 7a 59 3e 28 a4 ae be 7c 5e 3d bf 71 1c 1c be
       0.21238269 -0.34109616 -0.73972297 -0.15245225
000160 68 ad 5f 3e b5 cc 30 3e 41 26 ae be b5 47 ea be
       0.21843493 0.1726559 -0.3401356 -0.45757833
000170 f5 90 7f be 6b 35 fd bc 32 c1 1c bf db d5 00 3e
       -0.2495764 -0.03090926 -0.6123229 0.1258158
000180 3f 95 3b bd 97 5c ea bd 11 51 d6 be bb c5 ca 3d
       -0.04579663 -0.11443441 -0.41858724 0.09900995
000190 ca d7 09 3f b3 0b 13 bf 59 9e 95 3c e4 da 6a be
       0.5384489 -0.57439727 0.018263983 -0.22935063
0001a0 73 20 bc bc ea c1 9a 3f 15 b4 ab 3e 84 68 aa be
       -0.022964692 1.2090428 0.3353583 -0.33282864
0001b0 ac af 12 be 58 36 34 3e 3b d5 bf 3d 44 11 95 3e
       -0.14324826 0.17598855 0.09366842 0.29114735
0001c0 1b a7 28 3f 04 7a 41 bd 8e cf 85 be e8 5e ea bd
       0.6587998 -0.047235504 -0.26134914 -0.11443883
0001d0 63 8d c0 be 25 de bc 3e 82 c8 cc 3c f8 11 cd be
       -0.3760787 0.36888233 0.024997953 -0.40052772
0001e0 b5 ce b5 3d d6 33 58 be d4 a1 92 be ab 1d 1b 3f
       0.08877317 -0.21113524 -0.2863909 0.60592145
0001f0 ea 55 8a be fe 6e 3e bf f3 41 a6 bc c9 c0 59 3c
       -0.27018672 -0.7438811 -0.020295119 0.0132905925
000200 89 26 a9 3d 78 4b 9b 3e 0c 14 0e be af 72 8c be
       0.08259303 0.30331016 -0.13874835 -0.27431247
000210 b5 10 d6 bd 32 c2 f1 3e 4a c9 e1 bd d8 89 e9 be
       -0.10452405 0.47218472 -0.11024721 -0.4561298
000220 0c 57 a5 3d 5e f8 0c bf 47 1e 94 3d 3c d9 11 be
       0.080732435 -0.5506648 0.072323374 -0.14243025
000230 af 5f ba bd ae 53 ea 3e 27 a8 95 be b7 9f dd bc
       -0.091002814 0.45766968 -0.29229853 -0.027053697
000240 26 1e 1f 3f 62 9b c9 bd c1 4a f7 be 4e dd d1 3d
       0.6215538 -0.0984409 -0.4829922 0.10247289
000250 bc 59 33 be 17 bd 03 3e b9 73 67 be 85 63 42 3d
       -0.175147 0.12865101 -0.22602738 0.04745819
000260 4d c7 34 3d 65 af 40 be 2b 86 9e 3e 37 d5 07 bf
       0.04413538 -0.18816908 0.30961737 -0.53059715
000270 4f 4e 04 be 9e 59 0c 3e 9c 10 bb 3d 71 9b c2 3d
       -0.12920497 0.13706061 0.09134027 0.09502304
000280 d9 02 2e be 00 ca 61 bd 9c 69 7d be 14 8e 8a 3d
       -0.16993274 -0.055124283 -0.24747318 0.067653805
000290 0f 99 04 bf 65 bd ee be f7 5e 58 bd 85 1e ca 3b
       -0.5179605 -0.46628872 -0.05282494 0.006168189
0002a0 cf fc 53 3e 2d 19 b9 bd c4 9e 97 3e 8a 79 30 3d
       0.20701908 -0.09038005 0.29613316 0.04308466
0002b0 ec e9 ad bd 2e 04 fc 3d e7 66 41 3e d3 53 91 3e
       -0.08491883 0.12305485 0.1888691 0.28384265
0002c0 ba fb 53 3e 6e ab dc be bc dc 01 3f 7b 9a d8 3b
       0.20701495 -0.4309954 0.5072744 0.0066102124
0002d0 84 20 d3 be f7 94 e8 bd 9c 0e 20 be c8 ed f2 3c
       -0.41235745 -0.11356538 -0.15630573 0.029654399
0002e0 00 e3 89 3e 03 ed 50 bf 61 77 06 3e ed 5f f8 3c
       0.26931 -0.8161165 0.13131477 0.030319178
0002f0 29 6a fe 3e 42 53 82 bc 1b 9e f6 be 5d d2 37 be
       0.4969037 -0.015908841 -0.481675 -0.17951341
000300 9c 95 e3 bd 72 e9 9d bb 96 a1 04 3d f2 70 3a 3e
       -0.1111252 -0.0048190886 0.032380663 0.18207148
000310 c3 65 a5 3d 0a 3f a1 be 2e f4 f5 3b a5 63 62 3e
       0.0807605 -0.31493407 0.007505915 0.22108324
000320 e0 38 13 3e 1d f6 b0 3e d9 18 ef be a3 37 79 3f
       0.14377165 0.3456277 -0.46698645 0.9735052
000330 35 f2 84 3e 8e 73 15 3e 22 b3 5a 3c 97 2b d5 be
       0.2596604 0.14594862 0.013348373 -0.4163482
000340 4e 9d f5 bb 00 09 4b 3e f7 2d 84 3d 62 76 cf bc
       -0.007495559 0.19827652 0.064540796 -0.025325004
000350 91 71 ff 3c dc 68 ff 3e 59 b7 43 ba ff cd 19 3c
       0.031182082 0.4988469 -0.00074659806 0.009387492
000360 64 77 81 be ae 3f 0a 3f 26 0c 9d be 79 92 8d be
       -0.252864 0.5400342 -0.3067333 -0.27650812
000370 fc e7 d5 be 57 ed a4 3e f1 44 45 be 8d 53 15 bd
       -0.41778553 0.32212326 -0.1926458 -0.036456633
000380 63 d2 c6 3e 0b fe 77 be b8 79 44 bc e0 18 b7 bc
       0.38832387 -0.24218003 -0.011991911 -0.022350729
000390 42 59 46 be b7 44 44 be 22 cf a2 3e bd 6b c8 3e
       -0.19369987 -0.19166838 0.31798655 0.39144698
0003a0 37 aa b4 3c ba da 72 3e f0 5b 4b bd 0f 36 a7 bd
       0.022053821 0.2371625 -0.049648225 -0.08164608
0003b0 97 f8 c1 be 9d 08 a7 be 86 47 c6 be 35 3a f2 bd
       -0.37884971 -0.3262376 -0.38726443 -0.11827508
0003c0 b5 cb 57 3e 44 0e 2b 3f 55 d8 d5 3e 29 1e 4a be
       0.21073802 0.6681864 0.4176661 -0.19738068
0003d0 9e 9e 12 bf 94 04 4f be d0 d4 17 bf bc 51 6d 3f
       -0.5727328 -0.2021659 -0.593091 0.9270284
0003e0 99 e1 b1 3e 0c 09 83 bd 6b 6d 2b bf 49 76 e2 3e
       0.3474243 -0.0639821 -0.66963834 0.4423087
0003f0 1b d3 6e be 16 55 a3 bd cb 78 37 3e 81 e8 30 3f
       -0.23322718 -0.07975213 0.17917173 0.6910477

hidden_layer.bias_ih_l0 f4 [150]
000000 09 8d 87 3c b2 a4 e4 bd 33 c5 f0 3d 2f ba 2d 3e
       0.016546743 -0.11164226 0.11756363 0.16965555
000010 f8 2f ab 3c 1c ed c4 3e 41 5d 65 3d ac c8 a3 bd
       0.020896897 0.3846215 0.055997137 -0.079972595
000020 9e b5 e4 bd 1f fc f1 bd 72 b1 00 3e 11 b5 90 3d
       -0.11167453 -0.118156664 0.1256769 0.07065786
000030 82 ae 0b 3e 60 97 44 3b 93 e9 ea 3d c3 ce 87 3c
       0.13640788 0.0029997453 0.11470332 0.016578084
000040 13 4e ee bc 6b 75 a3 be db 94 82 3e 8b 12 20 3e
       -0.029089963 -0.3192552 0.25504193 0.15632074
000050 03 90 b3 3c bd 05 03 be 3a 4a 1e 3e 9d 63 49 3e
       0.021919256 -0.12795158 0.15458003 0.19666906
000060 d1 14 00 3e 6a b0 80 3e 2f d6 76 be ee 6a ba be
       0.12507941 0.25134593 -0.24105142 -0.36409706
000070 e3 88 04 3d 5c d3 3c bb 8f d8 0f 3e 3b 54 30 3e
       0.032357108 -0.0028812503 0.14047454 0.17219631
000080 4d 11 11 3f e2 29 81 3e a4 9c 9e bd ef a1 c4 3d
       0.56667024 0.25227267 -0.077447206 0.09601199
000090 ff c0 1d 3d 53 20 fc bd fb da 8c 3e 2e 5a 1f bc
       0.038514134 -0.12310853 0.2751082 -0.00972609
0000a0 7c 0d ca bd f9 86 0a 3d d7 f5 94 3e 5b 70 cd 3e
       -0.09865853 0.033820126 0.2909381 0.40124783
0000b0 30 3c ed 3e c9 67 bd 3e ca df c8 bd 9d f2 81 3e
       0.46334982 0.36993244 -0.098083094 0.25380412
0000c0 e1 ce 07 be 0c 7f 50 3e 32 bc 51 3e f4 7c 59 be
       -0.13262512 0.20360965 0.20481947 -0.21239072
0000d0 be ce 44 be d9 a8 40 3f fd 89 8a be 60 c5 d8 be
       -0.19219491 0.7525764 -0.27058402 -0.42338085
0000e0 54 cd 91 3e fc 8b e8 be 06 35 e4 3e 6b 2e bc 3e
       0.28476965 -0.454193 0.44571704 0.36754164
0000f0 61 77 06 3e da 42 25 3e 89 d3 60 3e a7 5a 27 bd
       0.13131477 0.16138783 0.21955694 -0.040857937
000100 e2 a6 34 3f 97 a9 c6 3e 72 d2 03 bf e1 1b e3 be
       0.7056714 0.38801262 -0.5149299 -0.44357207
000110 c1 8e f7 3e 19 af e4 3e 6c 3c 75 3e a1 dd 2d 3e
       0.483511 0.4466484 0.2394883 0.16979076
000120 6e 0b e9 3e 9f df a1 be f2 70 b3 be 54 d2 ca be
       0.45516533 -0.31615922 -0.35047108 -0.39613593
000130 87 81 a1 be bf 55 5b 3e c8 ad 8d 3e f0 36 a3 3e
       -0.31544134 0.21419428 0.27671647 0.3187785
000140 b0 d8 a7 bd 0b 5a b9 be 14 b7 9d 3e 38 e7 8e 3e
       -0.08195627 -0.3620151 0.3080374 0.2791078
000150 4a c6 ba bd e9 cf 0e 3f 41 d3 b4 bd 8d f2 18 3f
       -0.09119852 0.55785996 -0.08829356 0.59745103
000160 56 8a b4 3e 28 13 3d 3e 07 85 7b 3d be 70 24 bd
       0.35261792 0.18464339 0.06140616 -0.04014658
000170 fe bb f9 3c 0e 60 35 3e 0f 81 9d 3e d0 c5 9e 3e
       0.03048515 0.17712423 0.30762526 0.31010294
000180 43 05 a9 be fe 02 1a be 3f cc 9a 3e d2 44 98 3d
       -0.33011827 -0.15040204 0.30233952 0.074350014
000190 02 f5 b7 3e 41 13 16 3e e3 07 ae bc 6e ea 07 be
       0.35929114 0.14655782 -0.021243995 -0.13273022
0001a0 5a a1 65 3e 2a 20 88 be 5a cf f5 bd 99 a9 80 be
       0.22424832 -0.2658704 -0.1200244 -0.25129393
0001b0 e3 b3 47 be c8 5a c5 bd 44 3e fd be ea 91 92 3e
       -0.19502215 -0.09636456 -0.49461567 0.2862695
0001c0 30 d0 f4 3e bc b2 5a 3e 78 84 48 be 68 7e 39 3e
       0.47815084 0.21357244 -0.19581783 0.18114626
0001d0 dc 0f 9d 3e 1b 29 ce 3d 14 a0 64 be ed aa 91 3e
       0.30676162 0.10066434 -0.2232669 0.2845072
0001e0 86 d4 0d be 67 2c b6 bb 13 cd ce 3c c0 2e ff bc
       -0.13850603 -0.0055594924 0.025244271 -0.031150222
0001f0 c5 c8 86 3e 2e 0e 30 be 92 d6 92 be bf 5b 9b 3d
       0.2632505 -0.17192909 -0.2867933 0.075858586
000200 62 5d 72 3e cb d3 6a 3e 36 cf 2a 3e 0d ba 0e 3e
       0.23668435 0.22932355 0.16680607 0.1393816
000210 ca 49 8f be 27 9f 22 be 21 8f af 3e 79 c1 05 3e
       -0.27985984 -0.15881024 0.34288886 0.13062085
000220 50 5b 3b be 8f 8c 84 be 6a 87 d4 bd 39 23 6a bd
       -0.18296552 -0.25888488 -0.10377391 -0.057162497
000230 da 8d e1 3d 43 58 ed 3c 52 94 88 bc 4d 94 7a be
       0.11013384 0.02897275 -0.016672287 -0.24470635
000240 54 ee 3b be 28 df 35 3e 50 db d7 bd 14 0c 89 3b
       -0.18352634 0.17760909 -0.105398774 0.004182348
000250 a9 07 d5 3c 4a e3 a2 3e
       0.02600463 0.31814033

hidden_layer.bias_hh_l0 f4 [150]
000000 fe a6 ec 3d 75 06 0d be 51 0d 18 3e a6 58 6a 3e
       0.11555289 -0.13771994 0.1484883 0.22885379
000010 6b a6 2c 3c 87 18 8c 3e e5 e7 6a bd 65 0f 5b 3c
       0.010537724 0.27362463 -0.057350058 0.01337037
000020 2a b6 5a bd 05 74 27 3e fe 8d 82 3d 2e 79 21 3d
       -0.05339638 0.16352852 0.06374739 0.039422207
000030 c0 79 23 3e a3 6e 79 3d 19 a7 ca 3c 10 f9 85 bd
       0.15964413 0.060896527 0.024737881 -0.065416455
000040 b6 0d 74 bd 8c ae 1d be f4 cb da 3e 6b 64 34 3e
       -0.05958339 -0.15398616 0.4273373 0.17616431
000050 62 ad ad 3d 8e f1 d4 3d 4b 61 31 3e 5b 34 0b 3e
       0.08480336 0.103976354 0.1732227 0.13594191
000060 d4 2f e7 3d 3d d6 02 bb 2f 97 3e be 92 b7 7a be
       0.11288419 -0.0019964122 -0.1861236 -0.24484089
000070 a1 24 16 3e fd 8d 30 3d 92 8c 04 3e 40 f7 68 3e
       0.1466241 0.04310416 0.12944248 0.22750568
000080 68 40 dc 3e af b3 85 3e bf 9b 2d bc 0d 6f 09 3e
       0.43017888 0.2611365 -0.010596215 0.13421269
000090 50 91 90 3d 73 41 89 bc f6 c7 c0 3e 9b f3 e8 3d
       0.07058966 -0.016754841 0.37652558 0.11374589
0000a0 27 2e 1f 3d c8 78 c0 bd 73 8f 82 3e 0e ff f1 3e
       0.038862374 -0.09398037 0.25500068 0.47264904
0000b0 81 d4 be 3e d2 15 c0 3e ad 24 6b be 3e dd 65 3e
       0.37271503 0.37516648 -0.2296321 0.22447678
0000c0 b4 37 a0 bd 41 6b c4 3d 14 86 86 3e e6 7c 44 be
       -0.078231245 0.095907696 0.26274168 -0.1918827
0000d0 05 ab a1 bd ff 30 2e 3f 6c 1d 8c be 12 d1 d9 be
       -0.078939475 0.6804351 -0.27366197 -0.4254232
0000e0 ae 29 7b 3e 0a 56 d0 be e0 48 a2 3e 19 78 c9 3e
       0.24527618 -0.40690643 0.31696224 0.3934944
0000f0 89 9f 03 3e 7b 83 3c 3e 06 1f 96 3e 95 ea ab bd
       0.12853827 0.18409531 0.29320544 -0.08394352
000100 18 18 04 3f a6 fc 9d 3e 1c fd e6 be fd f6 de be
       0.51599264 0.30856818 -0.45114982 -0.43547812
000110 98 4c fe 3e c1 6f d9 3e d9 28 35 3e f9 2e 83 3e
       0.4966781 0.42468074 0.17691363 0.25621775
000120 1d e9 bd 3e ac c9 07 bf 19 29 06 bf cc 12 e7 be
       0.37091914 -0.530421 -0.5240646 -0.45131528
000130 f7 2c ff be 88 f5 8e 3e b6 7c 85 3e 86 8e aa 3d
       -0.49838993 0.279217 0.2607171 0.083279654
000140 ac fa 8d bc 54 14 51 be d5 48 22 3e 1e 82 f7 3e
       -0.017331444 -0.20417911 0.15848096 0.4834146
000150 68 e5 e7 bd 08 9a 3a 3f 5f f0 bf bc b9 99 13 3f
       -0.11323053 0.72891283 -0.023430048 0.5765644
000160 29 7e 8c 3e bc 2f 96 3e 4d 5e 2e 3e cf 1d 62 3e
       0.27440003 0.29333293 0.1702816 0.22081684
000170 5c a3 19 3d 7b 1c bb 3d 26 cb f1 3e f7 85 a5 3e
       0.037509307 0.091362916 0.47225302 0.3232877
000180 58 02 e2 be 13 a0 95 bd 0f b9 b2 3e ab 8c 6b bc
       -0.44142413 -0.07305922 0.34906814 -0.0143768
000190 40 15 aa 3e 63 6f 11 3e 42 30 9d be bd 48 de 3d
       0.33219337 0.14202647 -0.3070088 0.108537175
0001a0 0b 47 90 bd 73 0f 86 bb ed f5 eb bd a2 ed 81 bd
       -0.070448 -0.004091197 -0.11521516 -0.06344153
0001b0 7f a1 4e be ba c1 2b 3e 7a 2a 1c bf db 74 be 3d
       -0.20178793 0.1677312 -0.61002314 0.09299632
0001c0 6d a1 3c 3e c9 0e dc bc d6 ea 05 3d 0f 64 41 3e
       0.18420954 -0.026862519 0.03269466 0.18885826
0001d0 3b e1 a5 bd 65 98 13 3e a5 00 2e bd 81 0a b6 3e
       -0.080996 0.14413603 -0.042481083 0.3555489
0001e0 fe 92 b6 bd b0 50 41 3e 2e e9 46 3e 3d ac 03 3f
       -0.08914755 0.18878436 0.19424888 0.5143469
0001f0 59 34 cc 3d f6 f4 18 3e 93 e6 06 bf 35 39 14 be
       0.09970922 0.14937195 -0.5269558 -0.14474948
000200 d2 04 8b 3e 53 f6 3f 3d fd 5b 60 be f4 f8 2f 3e
       0.27152115 0.046865772 -0.2191009 0.17184812
000210 f6 59 94 be da 7e 93 3b 17 66 cc 3e be e3 99 3e
       -0.28974885 0.004501206 0.39921638 0.30056566
000220 00 6c 21 3e c3 06 0e bd 32 8a 10 3e ef 32 34 3d
       0.15763855 -0.034674417 0.14115217 0.043993887
000230 d4 8c ee 3d 26 f3 b9 3e 12 91 88 bb 4c 68 d8 be
       0.116479546 0.3631832 -0.0041676844 -0.42267072
000240 8e 98 17 be ef d8 a2 ba a5 58 ad 3c 12 4b d1 bc
       -0.14804289 -0.001242427 0.021160433 -0.025548492
000250 4a de 87 be 77 9c b5 3e
       -0.2653678 0.35470936
