models/oracle_gru_encoder.pt (torch_old, 126762 bytes, 9 tensors)

embedding.weight f4 [15, 50]
000000 44 a8 5a 3d e1 ad a8 bf e8 c7 78 3f 2f 4c 48 3e
       0.053383127 -1.3178064 0.9718003 0.19560312
000010 36 d8 81 be eb d4 be 3e 9d e6 5d 3f 1e 35 84 bf
       -0.25360268 0.3727182 0.8668001 -1.032871
000020 e3 02 51 3f 02 80 7b be 2c a7 fd bf 2f 7b cb bf
       0.8164503 -0.2456055 -1.9816642 -1.5896968
000030 fb 34 01 be 3f a3 64 3e 1b 67 03 3f 06 bc 4b be
       -0.12617867 0.22327898 0.513292 -0.19895944
000040 29 83 e6 be 76 75 89 3e a8 96 87 3e af 55 19 bf
       -0.45021942 0.26847428 0.2648213 -0.5989637
000050 ec 7a aa bf 02 c6 c9 bf e1 0a 16 bf a5 0f e0 3e
       -1.3318763 -1.5763552 -0.5861035 0.43761936
000060 7e 42 08 c0 1d 5f 87 bf 14 70 75 bf 48 6e 56 3e
       -2.1290584 -1.0575901 -0.9587414 0.20940506
000070 6f 6f 01 bf e2 dc 5e 3e c5 ac 9b 3c 00 51 08 3e
       -0.5056066 0.21763948 0.019003281 0.13312149
000080 b0 80 d6 3e d1 12 e9 3e 0b 1b 07 bc e4 f3 5f bf
       0.41895056 0.45522168 -0.008246194 -0.8748152
000090 94 65 50 3e 42 5f 4d bf 3f 99 71 bf 99 bf a8 3b
       0.20351249 -0.80223477 -0.9437446 0.0051497933
0000a0 45 29 f8 3e 94 ce 81 3e 40 27 ac bf 1a e4 ff bd
       0.48468986 0.2535292 -1.3449478 -0.12494679
0000b0 1e be 40 3f 24 78 4e 3f 7e 5d 7d bf cd 6e a4 bd
       0.75290096 0.8065207 -0.9897078 -0.08028946
0000c0 32 58 aa 3f e1 33 a9 3f ec 13 4e 3f 33 ff 1d 3d
       1.3308165 1.3218957 0.8049915 0.038573455
0000d0 e4 62 eb bf 97 8f b2 3f cd db cc 3f 8d 82 17 3f
       -1.8389554 1.395007 1.6004578 0.5918358
0000e0 01 c1 8b 3b b2 ba 94 bf 7d 87 6d bf e5 87 4f bf
       0.004264951 -1.1619475 -0.92784864 -0.81066734
0000f0 6b 70 cb bf 5c 0d 7d 3f f9 72 00 c0 83 68 2c bf
       -1.5893682 0.9884851 -2.0070174 -0.6734697
000100 be 7e 01 bf 53 95 da be 7a 62 10 c0 fa f6 8c bf
       -0.5058402 -0.4269205 -2.2560105 -1.1012871
000110 3a f1 ed 3f 66 35 8b bf 8e 6d bd 3e 81 f8 b4 3f
       1.8589242 -1.0875671 0.36997646 1.4138337
000120 f9 21 8b bf 1f 99 c4 3f c7 52 22 bf 2b 76 b1 bf
       -1.0869743 1.5359229 -0.6340756 -1.3864187
000130 06 e0 9b bc 0a e2 a1 be 14 d4 82 3f 2c 7c 56 3f
       -0.019027721 -0.31617767 1.0220971 0.8378322
000140 0d ad 75 3f 83 63 82 3f 53 3a d6 3f 06 1d c4 3b
       0.9596718 1.0186619 1.6736549 0.005984905
000150 8b cb e7 be a0 0f bb be aa 69 63 bf ef f6 98 3f
       -0.45272478 -0.36535358 -0.88833106 1.1950358
000160 b2 d4 01 bc cc 3a 15 3f 98 80 49 3f e8 52 85 bf
       -0.007924246 0.5829284 0.78711843 -1.0415926
000170 46 29 cf be cd 96 a7 3e 50 3e 21 3e 73 12 92 be
       -0.40461177 0.3273224 0.15746427 -0.285297
000180 d5 1a 6a 3e 44 37 19 3c c5 fc 6b bf b0 65 11 bf
       0.22861798 0.009351555 -0.9218257 -0.5679579
000190 c6 f3 86 3f f8 98 2a 3f 1e 2d f4 3e bb 83 50 3f
       1.0543144 0.6663966 0.47690672 0.81451005
0001a0 4a ef be 3f 20 72 5b bc d2 a9 07 bf 92 e4 a4 3e
       1.4916775 -0.013393909 -0.529935 0.32205635
0001b0 2c 08 0e bc da 7a c1 3f 73 5c 45 be 32 b0 ad bd
       -0.0086689405 1.5115616 -0.19273548 -0.08480872
0001c0 6a 59 ff 3e a6 49 86 bf 58 42 78 be 0c ec 85 3f
       0.49872905 -1.0491226 -0.24244058 1.0462661
0001d0 91 59 cc be 17 02 a5 bf 35 92 a6 bf 0b 95 1b 40
       -0.39912084 -1.2891263 -1.3013369 2.4309719
0001e0 cb 05 5d be f2 88 7b be 02 27 60 be 63 7b 68 3e
       -0.21584241 -0.24563959 -0.2188988 0.22703318
0001f0 d0 15 a4 bf 59 1b 9d 3c a1 dc 7c bf 16 6f a2 3e
       -1.2819157 0.01917808 -0.98774153 0.31725377
000200 40 2a 41 be b4 df c8 be 63 03 7e 3e b1 82 0b bf
       -0.18863773 -0.39233172 0.2480598 -0.54496294
000210 c3 9b 3d 3c a1 bf 9e 3c 3b f2 81 3e 05 3b c0 3f
       0.011572781 0.019378485 0.2538012 1.5018011
000220 c4 8b f9 bd 6f 49 4d be f5 da 29 bf a5 11 82 3f
       -0.12184861 -0.20047544 -0.66349727 1.0161635
000230 e6 bd 1a 3f 1d 41 8d be e4 20 64 bd 15 39 cd 3e
       0.6044601 -0.2758874 -0.05569543 0.40082613
000240 9a ec f1 3f 8c 0b 39 bf ea 8e ef bd e6 6d 91 bd
       1.890033 -0.72283244 -0.116971806 -0.071010396
000250 77 33 b3 3f 61 d5 a1 3f 95 a1 06 bf 28 85 81 bf
       1.4000081 1.2643243 -0.52590305 -1.0118761
000260 cc 7b 8b 3c 3c 06 56 bd eb d1 60 3d c3 c6 50 3f
       0.017026804 -0.05225204 0.054887693 0.81553286
000270 89 29 3c 3e fc 60 08 3f bb e9 08 3f a1 78 a5 bf
       0.1837522 0.53272986 0.53481644 -1.2927438
000280 84 b9 ff bf f8 33 9e 3e 20 aa 03 3f 43 1d cb be
       -1.997849 0.30899024 0.51431465 -0.39670762
000290 54 68 23 3f f5 bf a2 3f 28 8e ff 3e 29 e5 fa bf
       0.6383107 1.2714831 0.49913144 -1.9601184
0002a0 fe 7a ae 3e 71 65 2d 3f be 6b 2a bd 20 4a 1f bf
       0.3407821 0.6773291 -0.041606657 -0.6222248
0002b0 d1 a8 96 3f 57 d1 96 3d 52 45 37 3f 54 2c 82 bf
       1.1770269 0.07364147 0.7159015 -1.0169778
0002c0 d0 8d bd bf 07 51 6d 3f 04 a6 66 bf 20 e9 51 bf
       -1.4808903 0.9270176 -0.9009707 -0.81996346
0002d0 0a 85 4c 3f d0 01 b6 be d2 d3 e2 3d 57 67 95 3e
       0.798905 -0.35548258 0.11075558 0.29180405
0002e0 27 5f df bd 39 54 b1 3f d1 96 c2 3f e4 3c a1 bf
       -0.10906821 1.3853828 1.5202276 -1.2596707
0002f0 63 c4 6f bf 45 5f 2f 3f 52 ff f2 3f 31 81 dd bf
       -0.9365904 0.68504745 1.8984168 -1.7305051
000300 66 2b 0d 3f b4 14 0a be 18 ac e9 bb 65 7c b7 bf
       0.55144346 -0.1348446 -0.007131111 -1.4334837
000310 6e 84 68 3f e8 7b 55 bf b1 13 cc bf 2b 69 45 3e
       0.9082707 -0.8339219 -1.5943509 0.192784
000320 27 1e 87 3f f9 1e fc 3e 96 d6 d8 3f b5 65 a5 3e
       1.0556077 0.4924238 1.6940486 0.3230416
000330 21 f9 84 bf 51 0b 2e bf b4 b3 2e 3d ec 1a 7b bf
       -1.0388528 -0.6798602 0.042651847 -0.98087955
000340 af cc 83 be d4 fa 1b bf 25 d5 37 3f f3 78 63 bf
       -0.257421 -0.6092961 0.7180961 -0.8885643
000350 bd 3e d8 3e 05 9c 76 be b5 dc ff 3e 7f c5 c5 3f
       0.42235366 -0.24082954 0.49973074 1.5450896
000360 e3 cb c5 3f b3 b9 8e bf 0f c5 ca be 03 36 84 3f
       1.5452846 -1.1150421 -0.3960347 1.0328983
000370 84 75 62 bf 84 10 6d bf cb 97 2c bf 75 05 fc be
       -0.88460565 -0.92603326 -0.6741912 -0.49222913
000380 af f7 0d bf e6 df dc 3e bc 42 34 bf 8c d8 ae bc
       -0.5545606 0.4313957 -0.7041433 -0.021343492
000390 34 d0 bc be ba 26 e1 bc 36 8d 43 bf 75 97 33 3f
       -0.36877596 -0.027484287 -0.76387346 0.7015298
0003a0 a1 9a dc bc 55 bc 03 3e 26 fe 94 bf 40 0f 76 be
       -0.026929202 0.12864812 -1.164006 -0.24029255
0003b0 fc 4d 0a 40 23 fc 8a 3f 24 1f dc be e4 61 33 3e
       2.1610098 1.0858196 -0.42992508 0.17517811
0003c0 57 69 5e 3f 92 d4 00 bf 27 92 9f be b1 d9 30 3f
       0.86879486 -0.50324357 -0.31166193 0.6908217
0003d0 20 03 36 bf 87 d7 2e 3f 07 8d ff be 86 59 4c 3f
       -0.7109852 0.6829762 -0.49912283 0.798241
0003e0 f7 52 46 3f 74 b2 82 bf 5a cf 03 3f e3 76 11 c0
       0.77470344 -1.021071 0.5148827 -2.2728813
0003f0 49 31 8e 3f 75 b0 4d 3f ab ad 18 3f a8 b5 01 c0
       1.1108791 0.8034738 0.59639996 -2.0267124

hidden_layer.weight_ih_l0 f4 [150, 50]
000000 2c fe 95 be 79 e2 d3 be 4f c0 6f be 51 87 98 bc
       -0.2929548 -0.41383722 -0.23413204 -0.018619211
000010 1f c5 11 bf c8 63 65 bc d9 6c e3 be c9 d1 d7 3e
       -0.5694141 -0.0140008405 -0.44418982 0.4215224
000020 eb 2e df 3d 20 5d d5 be e6 8a 92 3d c1 b5 d3 be
       0.10897621 -0.4167261 0.07155399 -0.41349605
000030 be d3 b8 bc 73 e5 c2 be 3c 30 a7 3d 4f 51 84 3e
       -0.022561904 -0.3806568 0.08163497 0.25843284
000040 22 db bf bd a8 e6 af 3e 4b 6e 8a be 0b 1f 15 bd
       -0.09367968 0.34355664 -0.27037272 -0.036406558
000050 ab 99 81 be 31 81 76 3e 2a d4 4e 3d 96 7f 3a be
       -0.25312552 0.2407272 0.050495304 -0.18212733
000060 5b 1d 21 3f 26 67 04 3f ea b3 60 bd 50 38 31 be
       0.6293542 0.5171989 -0.05485908 -0.17306638
000070 28 54 72 3b d6 69 57 bd 88 b7 a6 be 86 02 87 3d
       0.003697643 -0.052591167 -0.32561898 0.06592278
000080 56 28 66 bc 1e d5 c2 3d be b4 2b bd 5c ee a4 bd
       -0.014047703 0.09513305 -0.041920416 -0.08053276
000090 ac b8 52 3d 64 27 64 be 0f f0 13 3e 28 8d 4f 3c
       0.051445648 -0.22280651 0.14447044 0.012667932
0000a0 42 2f 09 bf 74 f2 cb 3e 06 ae 67 be 89 b7 5b 3d
       -0.53587735 0.39833415 -0.22624978 0.05364183
0000b0 93 73 54 3e 10 2e 9b 3e 0c 0a 26 bf ed f5 06 3c
       0.20747213 0.3030858 -0.6485908 0.008237344
0000c0 5b ed 43 bd 4f 2b ed 3b e6 80 93 3e 1d 7b 9c 3e
       -0.04783378 0.007237829 0.2880928 0.30562678
0000d0 5f 9c 77 bf 8e 2b c9 3d bc c7 86 3e 33 ae 81 3e
       -0.9672298 0.098227605 0.2632426 0.25328216
0000e0 5f e1 6c 3e d5 67 92 be 88 0a af 3d 83 98 a6 bd
       0.23132847 -0.28594843 0.085469306 -0.08134558
0000f0 a5 4b b2 3e fc 01 3d 3f 2a ca 91 bd 08 ed 01 3e
       0.34823337 0.7383115 -0.07118638 0.12688076
000100 5b 76 e4 bd ab 4b c4 bd ce f7 27 be 86 86 46 bf
       -0.11155387 -0.09584745 -0.16403124 -0.77549016
000110 cb 2e 87 3e a3 a0 01 bf ef 5a 92 3e d7 7a f2 3e
       0.26402888 -0.5063574 0.28585002 0.47359344
000120 a7 68 09 be 05 bd 33 3f d6 91 f1 bd a7 8f f6 be
       -0.13418828 0.70210296 -0.11795394 -0.48156473
000130 dd fe 24 3f 2b c9 f5 be 29 eb 6d 3e ce 36 96 3e
       0.6445139 -0.4800504 0.23234238 0.29338688
000140 b1 bc a8 be 02 c8 83 3d 94 f8 7d 3d 0f bf 1a bf
       -0.3295646 0.06434633 0.06200464 -0.6044778
000150 62 23 85 3e 2e d7 89 3c 81 c7 44 bf d4 6d 5e 3d
       0.26003557 0.016826238 -0.7686692 0.05430396
000160 ab 52 1d be b1 ba ab bd cd 31 1d 3e 28 d3 8e bd
       -0.15363567 -0.08385218 0.15351029 -0.069738686
000170 40 19 2d 3d dc 0f e9 be 22 4b 93 bd f6 59 57 3d
       0.04226041 -0.45519912 -0.07192065 0.052576028
000180 21 0c 4b 3e 5d 4d 07 3f a8 27 ad be 71 b0 ac bd
       0.19828846 0.5285242 -0.33819318 -0.08432091
000190 f8 20 da be 71 5e f1 3c 2d 45 3f 3c 83 35 dc 3d
       -0.42603278 0.029463978 0.011674208 0.10752394
0001a0 32 14 46 be a2 66 e6 3d d7 7d 60 3b 9d c5 f7 bd
       -0.19343641 0.112500444 0.0034254694 -0.120982386
0001b0 d6 cc b3 3d 33 05 27 bd 1a 48 0a 3e b8 32 a6 be
       0.08779304 -0.040776443 0.13504067 -0.3246057
0001c0 81 ff 96 3d dc 25 50 bd 48 f1 3a 3d 52 42 f3 3d
       0.07372952 -0.050817356 0.04564026 0.11877884
0001d0 e8 2f 17 bd 67 ad a7 3e 53 95 bd bc 1c 8c 39 3d
       -0.03691092 0.32749483 -0.023142492 0.045299634
0001e0 e2 e7 41 be f6 23 37 bd c1 9a 67 be af bf b6 bd
       -0.18936113 -0.04471203 -0.22617628 -0.089232795
0001f0 c3 e4 0f be 87 ea 44 3e fb 57 d6 3c 82 90 c0 3e
       -0.1405211 0.1923009 0.026165 0.3761025
000200 91 93 54 3e 73 23 9d bd 45 ce 97 be 63 b8 e7 bd
       0.20759417 -0.07672777 -0.2964956 -0.11314466
000210 45 45 0e be c6 97 bf be 43 0c c5 bd ce 1c a6 3d
       -0.13893612 -0.3742048 -0.09621479 0.08110963
000220 6a 85 32 3e fc 5d 2b 3e d9 cc a2 3d ef 99 78 bd
       0.17433706 0.16735071 0.07949228 -0.060693678
000230 a8 36 ad be 5c 90 3b 3e 92 7d 09 be 34 a4 12 be
       -0.33830762 0.18316787 -0.13426808 -0.14320451
000240 ab a5 c4 bd 09 1a bc bd 91 ce 93 be 96 85 81 be
       -0.09601911 -0.09184653 -0.28868535 -0.2529723
000250 a9 b0 f3 3d 43 a8 60 3d d4 0e 3a be 24 f3 d7 be
       0.118989296 0.054847967 -0.18169719 -0.4217769
000260 6e f9 3c be 2d d5 c8 3e 35 ad 3d be 2b 91 ed 3d
       -0.18454525 0.3922514 -0.18523104 0.11599954
000270 82 ab a3 be f8 9f ac bd 70 3a ce be 35 e2 7d 3d
       -0.31966788 -0.08428949 -0.4027896 0.061983306
000280 81 95 d8 bc 18 37 47 be 75 d9 9b bc 9f 73 0f 3c
       -0.026438477 -0.1945461 -0.01902459 0.008755594
000290 5e 07 ce 3d 8e b8 82 be db cf bd be 48 48 7d 3e
       0.10059999 -0.2553143 -0.37072644 0.24734604
0002a0 e1 dc 56 be 96 1d c5 be 51 dd b7 be 1a d5 18 3f
       -0.20982696 -0.38499135 -0.3591104 0.5970017
0002b0 db 54 80 3e 67 10 d5 3a b6 20 b8 bd 78 95 d1 3d
       0.2506474 0.0016255499 -0.08990614 0.10233587
0002c0 24 96 2d 3e 54 9b 4f 3e e0 1a 0a 3d 02 33 d9 bd
       0.16951805 0.20274097 0.033717036 -0.10605432
0002d0 30 03 9b be 85 af 13 3e f0 b2 ed be 64 f0 7a 3d
       -0.3027587 0.14422424 -0.4642558 0.06126441
0002e0 7d c6 3d be 37 23 0b 3e 58 9e 53 3e 0d b2 40 3e
       -0.18532749 0.13587652 0.20665872 0.18817921
0002f0 12 b5 b1 3e c2 af d2 be 74 77 15 bf de ac f7 bd
       0.34708458 -0.41149718 -0.58385396 -0.12093519
000300 8e 02 17 3e 5d e4 6d be 20 8e 38 be 05 a6 83 bd
       0.14747068 -0.23231645 -0.18022966 -0.0642815
000310 0b 7f d5 be 44 b9 0c bf bd d6 85 3c d5 e6 c1 be
       -0.4169849 -0.5497019 0.016337747 -0.37871423
000320 7e 8f 92 3e 3c 0c 4d 3e a2 4a c2 be 97 ba 0c 3e
       0.286251 0.20024198 -0.37947565 0.13743053
000330 da ad fe 3c 66 9d 58 be 61 e9 33 be 6c 70 77 be
       0.031088758 -0.21153793 -0.17569496 -0.2416398
000340 0e 12 bc 3c 5a cf 01 3e 48 73 67 3d a7 81 f2 3d
       0.022957828 0.12676755 0.056506425 0.118411355
000350 2f d3 c8 be a1 f6 8e 3e 21 5b cc bd d0 64 32 be
       -0.3922362 0.27922538 -0.09978319 -0.1742127
000360 0d 49 8d be d9 a1 06 bf 26 e9 ec 3e 1e 72 16 bf
       -0.27594796 -0.5259071 0.46271628 -0.5876788
000370 59 e5 9a 3e 29 84 e0 3e cf f1 69 be 9d d2 2d 3f
       0.30253103 0.4385083 -0.22846149 0.67899495
000380 d8 9b 9d 3d 3b e9 d5 be 1b 55 96 3e 75 95 89 be
       0.076957405 -0.41779503 0.29361805 -0.2687184
000390 93 dc 7e 3e 31 79 dd 3e 60 7d 09 bc 67 9d 26 3e
       0.2488883 0.43256524 -0.008391708 0.16270982
0003a0 8e 0f f5 bc e0 10 88 be 87 23 9c 3e 00 48 29 3e
       -0.029914644 -0.26575375 0.30495855 0.16531372
0003b0 26 bf 0c bf 1c 94 e5 3d 2b a9 34 3c bd f0 3a be
       -0.5497917 0.1120989 0.011026661 -0.18255897
0003c0 73 72 c2 3c 5a 20 a1 be de 98 6f 3e 7e 25 cd bc
       0.023736214 -0.31469995 0.23398158 -0.025042292
0003d0 55 a1 02 bf 6f 9a 25 3e ec b1 33 be 80 ff 8e 3e
       -0.51027423 0.16172193 -0.1754834 0.27929306
0003e0 7e 40 81 be 20 f9 10 3d 41 be cd bd 1f 11 8f 3d
       -0.25244516 0.035393834 -0.10046054 0.069856875
0003f0 7a 34 86 be 7d 1b 24 bf e2 39 58 be c4 3a 77 3e
       -0.2621191 -0.64104444 -0.2111583 0.24143511

hidden_layer.weight_hh_l0 f4 [150, 50]
000000 d1 22 28 3c 77 a1 76 3e 58 4a 50 be 2b bc e6 3e
       0.010262207 0.24085031 -0.2034086 0.45065436
000010 1e 2b 30 3e 43 78 8d be 47 77 56 3d b4 f9 8d be
       0.17203948 -0.27630815 0.052359845 -0.2772957
000020 85 63 d4 3c 7d b2 c4 3c 89 d5 39 3f 0b 65 29 bf
       0.02592636 0.024010891 0.72591454 -0.66169804
000030 34 11 8b bd d2 f5 1f 3e db 86 cf be dd 97 0b 3e
       -0.067903906 0.15621117 -0.40532574 0.1363215
000040 cd 42 14 be db b2 01 3f 93 8b 8b 3e 14 37 f8 3e
       -0.14478607 0.50663537 0.27254924 0.4847952
000050 4a ce 22 bf b1 c9 5d 3e 56 d6 06 be c2 0a bc 3e
       -0.6359602 0.2165897 -0.131677 0.36726958
000060 88 5a 19 3d e3 5c 81 3e 95 2d 9b be 94 b1 cc 3e
       0.037439853 0.2526618 -0.30308214 0.3997923
000070 e4 cc 76 bd 0a 62 89 3e c1 6f 10 bf ab 07 0d be
       -0.060253993 0.2683261 -0.5642052 -0.13772456
000080 51 c0 ec 3e 07 b5 a6 3e 71 0e 89 be 98 63 79 3d
       0.46240476 0.32559988 -0.2676883 0.060885996
000090 94 08 79 3c 18 53 19 3f fb a5 e3 be ad 30 7f 3e
       0.015199799 0.59892416 -0.4446257 0.24920912
0000a0 1f e2 08 be 27 5c de 3e b2 5f a1 be e9 76 8f 3e
       -0.13367508 0.43429682 -0.31518322 0.2802041
0000b0 53 96 b8 3e fb c7 75 3e 5b de a4 3e 33 29 5a be
       0.36052188 0.24002068 0.32200894 -0.21304779
0000c0 ee da 5b 3c 88 2a 50 bd 73 3c 57 3e 5c 2d 5f 3e
       0.013418896 -0.05082181 0.21019153 0.21794647
0000d0 86 9f 02 3f b5 60 57 be fb 75 b6 3e f8 fc 88 3e
       0.51024663 -0.21032985 0.35636887 0.267555
0000e0 07 61 90 3c f2 16 5e be 27 73 8b 3d f0 64 89 3e
       0.017624391 -0.2168844 0.06809073 0.26834822
0000f0 b1 09 b0 3d 44 aa e6 bd 6c af 90 bc d8 29 d4 be
       0.085955985 -0.11262944 -0.017661773 -0.41438174
000100 5f d8 ba bd 16 df 01 be 2b 8e 00 3f 63 03 45 3d
       -0.09123301 -0.12682757 0.5021693 0.048098933
000110 e0 af ee 3e 93 fc e9 be 33 73 b9 bd d1 aa d2 3e
       0.46618557 -0.4570051 -0.09055176 0.41145948
000120 52 42 5f bd ed a4 f6 bd 77 aa f7 be bc 43 87 3e
       -0.054506607 -0.12043176 -0.48372242 0.26418865
000130 ce da 33 3c 97 0b 99 3d 6d d7 44 3d ce a9 f7 3d
       0.01097746 0.07472914 0.04805701 0.120929345
000140 39 d7 94 3d cc cc 80 bc 65 7d 49 3e 70 54 02 3e
       0.07267613 -0.015722655 0.1967674 0.12727523
000150 ea 5e 22 be 1a 14 a3 be 87 84 b7 be cc f9 98 3e
       -0.1585652 -0.31851274 -0.35843298 0.2987808
000160 35 e9 e5 3d d0 1a 2b bd d6 81 c9 be 35 d5 d2 3d
       0.11226121 -0.041773617 -0.3935687 0.10294572
000170 e1 39 d4 bd 80 fd d6 3d e8 c7 2a be 74 f0 1a 3e
       -0.10362602 0.1049757 -0.1667782 0.15130788
000180 f8 08 46 3e ed 50 45 be 0c 66 ad be 1b 8c af 3e
       0.19339359 -0.19269152 -0.33866918 0.3428658
000190 27 17 07 3f b3 76 04 be 2d 74 74 bc dd 34 33 3f
       0.527697 -0.12935905 -0.014920277 0.7000254
0001a0 c7 49 f4 3e 85 1d 7d 3c 0c 14 91 be 9f ba 90 3e
       0.47712538 0.015448933 -0.28335607 0.2826738
0001b0 14 23 0d bf 92 dd b1 3e 82 3f d2 bd 78 b2 87 bc
       -0.5513165 0.34739357 -0.102660194 -0.016564593
0001c0 a9 f5 71 be 17 b9 a1 be bf ab 2d be 7a be d0 3e
       -0.23628868 -0.31586525 -0.16960047 0.40770322
0001d0 8d d9 9f 3e 71 a8 e5 3d c1 24 43 3e 32 dd 4b be
       0.31220666 0.11213768 0.19056989 -0.19908598
0001e0 b8 03 8f be 80 b6 70 3f 24 0b 03 3d 7e 6f a6 3d
       -0.27932525 0.9402847 0.031993046 0.08126734
0001f0 60 13 42 3e 4a e0 c4 be 2d 76 01 3e b3 f7 a9 3e
       0.18952703 -0.3845237 0.12642737 0.33196792
000200 fd 32 2a be a7 95 7d be cd 63 1a bf cb 08 92 be
       -0.16621013 -0.24764119 -0.60308534 -0.28522334
000210 d1 c9 fa 3e c3 89 e0 3e 46 53 3b be 9b 81 53 be
       0.489821 0.43855104 -0.18293485 -0.2065491
000220 a0 06 b4 bd b4 33 d3 3e c5 31 dc 3e d5 5d 00 3e
       -0.08790326 0.41250384 0.4300672 0.12535794
000230 d0 e2 92 3e 93 e5 cc 3e 85 f9 0d bf 2e a5 47 3e
       0.2868867 0.400189 -0.5545886 0.19496605
000240 fe 19 c3 39 5a 32 d6 3e b6 1a 29 3f 90 97 74 be
       0.00037212664 0.4183529 0.6605638 -0.23885942
000250 81 ff 76 be 14 eb 4b be 78 e2 1b 3e 9a c2 0e be
       -0.24120905 -0.19913894 0.1522311 -0.13941422
000260 d7 88 60 3e ae c0 5f 3e d2 10 c9 3e 76 64 99 bd
       0.219272 0.21850845 0.39270645 -0.074898645
000270 73 41 23 3e 2d ee 6f 3e 0a c5 fe 3e 2d 6b 43 3e
       0.15942936 0.234307 0.49759704 0.19083853
000280 42 75 af 3e a1 42 c2 be aa c4 c6 3d 50 fd 99 bd
       0.34269148 -0.3794146 0.097054794 -0.07519019
000290 38 b5 1d 3e 3d a9 c8 3c 30 87 27 3e d0 30 4e be
       0.1540116 0.024494762 0.16360164 -0.20135808
0002a0 fe 1b 40 be 75 06 c2 3c a9 80 dc be 50 62 00 3f
       -0.18760678 0.02368472 -0.4306691 0.5015001
0002b0 83 89 df 3d 34 d1 c7 3e e2 7b c9 be fe a9 4b 3c
       0.109149 0.39026797 -0.39352328 0.012430666
0002c0 bc 24 49 be e8 de 0f 3f ac a5 20 3e 1b 69 f1 3c
       -0.1964292 0.561995 0.15688199 0.029469064
0002d0 d8 e7 4f be 82 4d 0c be 65 ff ae 3e 60 f2 38 3e
       -0.20303285 -0.13701442 0.34179226 0.18061209
0002e0 00 29 a3 be 08 9b 97 be 26 bc 71 3d 4e 5d fb bd
       -0.31867218 -0.29610467 0.059017323 -0.12273656
0002f0 78 d6 e0 bd a6 bf ad be bb fc ad bd c3 64 03 3f
       -0.10978407 -0.3393528 -0.0849547 0.51325625
000300 60 0f bb be 8a 69 cb be ca 3b 3f bc c0 f4 5c 3d
       -0.36535168 -0.39728957 -0.01167197 0.05394435
000310 7f 0c aa 3e 16 e7 8e 3d 86 94 bd be 99 ce 28 3e
       0.3321266 0.0697767 -0.37027377 0.16485061
000320 ca d5 03 3d de 45 85 3e c1 87 6c be 12 2f a0 3d
       0.032186307 0.26029867 -0.23098661 0.07821478
000330 89 88 f7 3d 6f 88 41 3e 62 a8 a9 3c 9d a3 a1 bd
       0.12086589 0.18899702 0.020710174 -0.07892535
000340 ad d2 80 3d 42 74 c6 3e 34 3e af 3e 69 31 75 be
       0.06290183 0.38760573 0.34227145 -0.2394463
000350 db 25 06 3e 03 78 d2 be bf 41 7d 3e 07 64 34 bb
       0.13100378 -0.41107187 0.24732111 -0.0027525441
000360 b0 50 10 3f 3f 11 d6 bd db ed 52 3e 89 c0 01 be
       0.5637312 -0.10452508 0.20598547 -0.12671103
000370 29 d6 48 be 49 ff cc 3e 0c 89 de 3e ce 99 d3 bb
       -0.19612946 0.40038517 0.43463933 -0.006457544
000380 1a 92 c7 be ee a6 1e be 08 f7 d7 3d 00 c3 d4 3d
       -0.38978654 -0.15493366 0.10545164 0.10388756
000390 fa a2 62 3e 4a 30 fc bd bf 73 e1 be 64 26 43 3e
       0.22132483 -0.12313898 -0.4403362 0.19057614
0003a0 30 8a a6 3e bb 3e 8a 3d 9f 93 1e 3e 9b 3e d1 be
       0.32527304 0.06750246 0.15486 -0.40868077
0003b0 27 23 66 be 21 9d 97 3e 3c 30 64 be 59 6c e7 3a
       -0.22474347 0.29612067 -0.22284025 0.0017656191
0003c0 fb 7e ec bd d2 58 ba 3d 04 49 fc bd d2 3b ae 3e
       -0.11547657 0.090989724 -0.12318614 0.34030014
0003d0 2f 91 c4 3d 36 0d f9 bd fc ea 9d bd 8b 53 9a be
       0.09598004 -0.12160723 -0.07710835 -0.30141863
0003e0 ee 61 40 bf 8f d4 52 3c c7 74 2c be aa ff 88 bd
       -0.7514943 0.012868061 -0.16841422 -0.06689389
0003f0 2e 5a 57 3e f1 5e 9c be 4b 80 c0 bd bb 92 25 3e
       0.21030495 -0.30541185 -0.0939947 0.16169254

hidden_layer.bias_ih_l0 f4 [150]
000000 33 6d ef be be f0 4b be 5a c7 2f be d2 b1 ec be
       -0.46763 -0.19916055 -0.1716589 -0.46229416
000010 e2 b6 de be d5 c7 9f 3d f4 bb be 3e 2d c5 6b be
       -0.43498904 0.07801787 0.37252772 -0.23024435
000020 35 0b 28 be d5 f0 2a be 1c a4 91 3c 3d 5a 93 bd
       -0.16410525 -0.16693433 0.017778449 -0.07194946
000030 99 39 e5 bd b5 63 2e be f4 d3 68 be 46 eb e1 3c
       -0.111926265 -0.17030223 -0.22737104 0.027578007
000040 53 f8 c9 be 12 50 d2 3e a9 b0 3a 3d 1b 85 34 be
       -0.3944727 0.41076714 0.045578633 -0.176289
000050 36 10 97 be 54 3d 16 be 58 62 b5 3e 07 bb fe be
       -0.29504555 -0.14671832 0.35426593 -0.49752066
000060 3c d7 46 bd 2c 5d 1c bf 2c 88 bc be 3d 56 8f 3e
       -0.048545107 -0.6107967 -0.3682264 0.27995482
000070 7f de e3 3e ec 19 c8 be 17 95 bf be f1 06 3c be
       0.4450569 -0.39082277 -0.37418434 -0.18362023
000080 0c 2d 5d 3d 1f b4 70 be 6e 15 66 be 9f 9f 7f be
       0.05399804 -0.2350621 -0.22469112 -0.24963234
000090 a1 74 97 3e 45 2a ce 3e 91 3e 38 be 12 94 38 be
       0.29581168 0.40266624 -0.17992617 -0.18025234
0000a0 cf 15 06 bd 7c 29 d2 3e f4 4e 99 3e 06 2e 3b bd
       -0.032735642 0.41047275 0.2994305 -0.04569819
0000b0 a1 0a ca bd d5 f6 86 be 39 cb 75 be 1e 4d b9 be
       -0.098653086 -0.26360193 -0.24003305 -0.36191648
0000c0 16 71 38 be 1c 06 6c 3d 15 37 f3 bd 48 9c 79 be
       -0.18011889 0.057623014 -0.118757404 -0.24376023
0000d0 ac fe 0c bd b0 bf 69 bd dc 5d 2e be 8c 27 3c 3e
       -0.03442256 -0.057067573 -0.17027992 0.18374461
0000e0 33 be 20 3f 2d ef d2 3e ef d9 1a bd e2 69 5b be
       0.6279022 0.41198102 -0.037805494 -0.2142711
0000f0 a7 b8 2d bc 6b 7a de 3e 18 d2 b5 be 30 b1 09 3e
       -0.010603107 0.43452772 -0.3551185 0.13446498
000100 d2 67 1b 3c 7e 9d 5d be f9 1f 85 bd 3d bf 96 3e
       0.009485202 -0.2164211 -0.06500239 0.29442778
000110 6c 01 87 3e 8f a3 06 3f b9 6e 51 bf 89 d7 cc be
       0.26368272 0.5259332 -0.81809574 -0.4000819
000120 9a 61 4a 3e 49 18 87 3e a3 55 b8 3d d3 96 62 3e
       0.19763795 0.26385716 0.09000709 0.22127847
000130 09 65 23 be f0 66 88 be 2f 6c 37 3f e4 e4 b1 be
       -0.1595651 -0.26641035 0.7164945 -0.34744942
000140 8f 84 c4 be be 5c 81 be 21 52 f8 3d bc 95 05 be
       -0.38382384 -0.2526607 0.1212504 -0.130454
000150 a3 6d 84 be 0b 02 63 3e 47 28 7f 3e de d2 dc 3d
       -0.25864896 0.22168748 0.24917708 0.10782407
000160 9f f0 ec bd a5 a5 c4 3e b8 b6 1f be 87 51 1a 3e
       -0.11569332 0.38407627 -0.15597045 0.15070163
000170 ae 77 6a 3d 7e 8b 95 be 9d 99 a2 3e 7c 7f da 3d
       0.05724304 -0.29207987 0.31757823 0.10668847
000180 17 72 05 bf 33 8b 4d 3d 2a 40 c2 3e 73 b3 17 3f
       -0.5212721 0.05018158 0.37939578 0.5925819
000190 70 db 47 bd 6a a1 44 3e c9 67 84 bd c6 84 1d be
       -0.048793256 0.192022 -0.06465108 -0.1538268
0001a0 be 88 76 3e 5e 84 5c bc ac 62 99 3e c6 02 65 bd
       0.240756 -0.013459293 0.29958093 -0.055910848
0001b0 ed 98 e8 bd e5 2e 01 3e 1d fc ca be 3c e4 45 3c
       -0.11357293 0.12615545 -0.39645472 0.012078341
0001c0 95 e4 9f 3e a5 bf 0d 3c 9e c4 f9 bc 6a 50 6d 3a
       0.31229082 0.008651649 -0.030489262 0.0009052815
0001d0 15 d8 33 3e 97 79 07 bd d0 7c 93 3c 12 00 c4 bc
       0.17562898 -0.03307494 0.018003851 -0.023925815
0001e0 71 04 aa 3e 00 a3 81 bc 4a 8c 0a be 13 61 4f be
       0.33206514 -0.015824795 -0.13530079 -0.20251875
0001f0 80 35 ee 3d a9 83 be 3e e5 c0 64 3e 80 01 a2 be
       0.11631298 0.37209824 0.22339208 -0.3164177
000200 35 77 25 3e 6c 53 87 bd a0 f1 d9 3c cd 60 19 3e
       0.16158755 -0.06607708 0.026604474 0.14978333
000210 31 eb 85 be 1f e3 24 3d f5 99 b7 be c0 a3 97 3e
       -0.26156 0.040255662 -0.35859647 0.2961712
000220 72 31 cd 3d e6 fa ec bd 65 31 63 3e a7 8a ad 3d
       0.100191966 -0.115712926 0.22186811 0.084737115
000230 c3 32 7a 3e ef b7 dd bd 7b 39 b7 3e 3d b4 a1 bd
       0.24433427 -0.10826098 0.35786042 -0.07895706
000240 1f c6 9a be 2c 28 e6 bc 13 3d 63 bd 1b d8 0a bd
       -0.3022928 -0.028095327 -0.055478167 -0.0338975
000250 f9 99 91 3d 44 0a b4 be
       0.07109446 -0.35164082

hidden_layer.bias_hh_l0 f4 [150]
000000 f1 33 b4 be 3c ce 82 be 0e 21 1e be f2 a0 03 bf
       -0.35195878 -0.2554797 -0.15442297 -0.5141746
000010 e7 fe 80 be a3 c2 89 bd a1 24 86 3e a7 ff c6 be
       -0.25194475 -0.06726577 0.2619982 -0.38866922
000020 93 1e 88 be d4 a5 1e be 3b 6c a7 bd db 09 97 be
       -0.26585826 -0.15492946 -0.0817494 -0.29499707
000030 d2 dc 05 be 9f de 98 be ce 0d 82 be d4 d4 42 3e
       -0.13072518 -0.29857346 -0.25401157 0.190265
000040 25 6a a2 be 63 fb b8 3e 37 56 26 be 8a dc 24 be
       -0.31721607 0.36129293 -0.16243826 -0.16099754
000050 dd 40 85 be b6 de 59 be fb 5e 40 3e d5 04 b0 be
       -0.2602605 -0.21276364 0.18786232 -0.34378687
000060 df 08 ef bb e0 1a 3b bf 1f 6b 95 be ee 1c b1 3c
       -0.0072947587 -0.73087883 -0.2918329 0.02162024
000070 cf 45 1b 3f 22 80 ef bd 90 71 9c be c5 d2 65 be
       0.60653394 -0.11694361 -0.3055539 -0.22443683
000080 23 94 46 be 8e 21 c1 be 4b 0d 5a be 1e 2c df bc
       -0.19392447 -0.37720913 -0.21294133 -0.027242716
000090 1c a6 a7 3e b5 b3 22 3f 79 1b 2e be 18 b8 5f be
       0.3274392 0.6355546 -0.17002667 -0.2184757
0000a0 5b c2 45 3d 88 9c 1b 3e 60 a1 9e 3e b2 fa 16 3e
       0.048281055 0.1519643 0.30982494 0.1474407
0000b0 de 7c b5 3d 10 53 a9 be 4f 00 35 be 3a 50 c7 be
       0.08861707 -0.33071184 -0.17675899 -0.38928396
0000c0 25 3f 50 be 2d 02 0e be 43 84 bd be 05 13 82 be
       -0.20336588 -0.13868017 -0.3701497 -0.25405136
0000d0 83 d8 39 bd ff b1 6b 3b a3 96 8f be f1 b6 c1 3d
       -0.045372497 0.0035964248 -0.28044614 0.094587214
0000e0 f5 ab 0e 3f 69 de f9 3e c6 27 18 be 14 71 21 be
       0.55731136 0.48802498 -0.14858922 -0.15765792
0000f0 a2 8a e2 bc ed 9d 09 3f 04 e6 13 bf 8b 0b f0 3d
       -0.027653996 0.537566 -0.5777285 0.11720952
000100 0c 33 1a 3e e6 b3 49 be fb ef 7a be 72 f9 86 3e
       0.15058535 -0.19697532 -0.24505608 0.26362187
000110 18 e2 8e 3e 3d 10 b7 3e b6 72 54 bf 66 cd c7 be
       0.2790687 0.35754576 -0.82987535 -0.39023894
000120 22 f1 a5 3d c5 c0 ff 3e 34 ef de 3c 0f c1 37 3e
       0.08102633 0.4995176 0.02721367 0.1794474
000130 4f 0c 06 be a0 1e a4 be 00 24 2b 3f f7 19 b6 be
       -0.13090633 -0.32054615 0.66851807 -0.35566685
000140 af b5 e4 be 01 5e 99 be c4 f1 c9 3d 69 f7 50 be
       -0.44669864 -0.29954532 0.09860566 -0.2040688
000150 29 7a 60 be b1 fd d8 3e a7 e9 66 3e e9 c4 19 3e
       -0.219216 0.4238105 0.22550069 0.15016522
000160 e1 7f f9 bd ad aa 0c 3f 8c ca b3 bc 88 b0 39 3e
       -0.12182594 0.5494793 -0.021947168 0.18133748
000170 6d 9b 53 bd 31 cc b3 be 92 eb 0c 3f 60 01 b8 3d
       -0.051661897 -0.35116723 0.5504695 0.08984637
000180 ec d7 84 be c1 2c 02 be 85 03 21 3f 0b 17 16 3f
       -0.25945985 -0.12712385 0.62895995 0.5862891
000190 6f 2a 9a be 62 40 3f 3d 25 94 7b 3e 48 b4 00 be
       -0.301105 0.04669226 0.24568231 -0.12568772
0001a0 a3 54 30 3e 62 1f 36 bd 68 e0 cf 3d f3 34 77 be
       0.17219786 -0.044463523 0.10150224 -0.24141292
0001b0 bd 54 b3 bd a2 46 83 3d 17 b2 2d be 26 d9 68 be
       -0.08756397 0.064099565 -0.16962467 -0.22739086
0001c0 ff 28 4a 3e e0 a3 88 bd 3a a4 61 3e 1d 53 66 bd
       0.19742201 -0.06671882 0.22035304 -0.056231607
0001d0 d4 d2 bb bd 3a 29 82 3d 58 63 8a 3d 6e b4 7e be
       -0.09171072 0.063555196 0.067572296 -0.24873516
0001e0 3f 95 b0 3e 67 f3 ec 3d c8 d9 11 bd 8b b8 8c be
       0.34488866 0.11569863 -0.035608083 -0.27484545
0001f0 d3 d1 02 3e 98 82 6f 3e bc 32 ce 3d e6 62 22 be
       0.12775354 0.23389661 0.100682706 -0.1585804
000200 e8 c7 9f 3d 6f 60 15 be 57 e9 32 3e 62 67 70 3e
       0.07801801 -0.14587568 0.17471825 0.23476937
000210 4f ce 0f be 58 10 85 bd 81 cb 24 be 24 ba 45 3e
       -0.14043544 -0.06497258 -0.16093256 0.19309288
000220 ca e3 ac bd d6 33 a9 3d dd 62 a0 3e 6c 6d bd bd
       -0.08441885 0.0826184 0.31325427 -0.09249386
000230 18 32 4b bc 48 45 ab bd 2d a0 da 3d 58 4a c8 bd
       -0.01240208 -0.08362824 0.10675082 -0.09779805
000240 c3 82 e1 bc ab b7 81 3e aa dd ab be 62 65 13 be
       -0.027528172 0.2533544 -0.33567554 -0.14394143
000250 c9 4c a0 be 1a 36 34 3e
       -0.31308582 0.17598763

hidden_layer.weight_ih_l1 f4 [150, 50]
000000 f3 20 bf 3d ef 12 be 3e ce 33 bb be d7 2d df 3e
       0.093324564 0.3712382 -0.3656296 0.4358966
000010 78 04 ae 3c 72 b9 78 be 6e 2c 88 3e e1 dc 75 3e
       0.021242365 -0.24289492 0.26596397 0.2401004
000020 65 24 44 3e f3 e6 82 3e 58 d6 95 3e 8d 18 12 bf
       0.19154508 0.25566825 0.29265094 -0.5706871
000030 fc fa 69 be 22 95 83 be 34 39 88 be 42 f5 c7 bc
       -0.22849649 -0.25699717 -0.26606143 -0.02440894
000040 3c 4d 0c bf f1 bf ec 3d ff 0d ef bd d9 ab 1b be
       -0.5480535 0.115600474 -0.116725914 -0.15202273
000050 04 d2 98 be 89 85 1f be d5 52 ed be 3c 34 46 be
       -0.2984773 -0.15578283 -0.46352258 -0.19355863
000060 0e 40 f5 3d f5 eb c7 be 95 eb e7 be 8f e8 13 3f
       0.11975108 -0.39047208 -0.45296922 0.5777673
000070 ed e3 b7 bc bc 23 78 3d 75 cb df 3d cf d3 c2 bd
       -0.02244755 0.060580954 0.10927478 -0.095130555
000080 d6 7a bd 3d 59 6e 55 be 05 a0 c5 be 71 69 d9 bd
       0.09251945 -0.20842876 -0.38598648 -0.106158145
000090 64 82 b8 3d 86 8f bd 3d 0b f9 ce 3e 48 3e dd 3d
       0.09009245 0.092558905 0.4042438 0.10802895
0000a0 c0 15 f9 3e d8 a1 78 3e cc 44 4b be df 21 08 3f
       0.48649406 0.24280488 -0.19850463 0.53176683
0000b0 b9 78 96 3e 01 98 2b bf bb e8 02 3f 20 11 4c 3f
       0.2938898 -0.67028815 0.5113637 0.7971363
0000c0 a3 8b b7 3d 01 5a f7 bd aa e9 46 3e 12 33 c2 3d
       0.089621805 -0.12077714 0.19425073 0.09482397
0000d0 e6 85 d8 be 0a 4d f1 3c b9 d8 de 3d 4c 25 d1 3e
       -0.42289656 0.02945568 0.1088118 0.40848768
0000e0 0b 0d 65 bf e0 36 00 3e 0c 56 0b be 2e 83 0d bd
       -0.89473027 0.12520933 -0.13607043 -0.03454893
0000f0 2d f1 f7 3e 8e 8a df 3d 5f 1e 48 be 91 7d 81 be
       0.4842619 0.10915099 -0.19542836 -0.25291112
000100 65 a2 17 3f 11 53 cf bd 0e 8e e1 3d ce d1 91 bd
       0.5923217 -0.101232655 0.11013423 -0.07120095
000110 a8 db 84 bd 95 6a 28 3e 74 28 9e 3d d1 2d 0d 3f
       -0.064872086 0.16446908 0.077225596 0.55148035
000120 df ac 9f 3e c1 a2 0d be 09 97 ae 3d 66 1d 5d be
       0.31186578 -0.13831617 0.085249014 -0.21593246
000130 f4 07 82 3e f9 d3 c8 3e 96 7d b7 3e 33 19 75 bd
       0.25396693 0.39224222 0.35838002 -0.059838485
000140 bf 87 92 bf 18 42 3e 3e 42 61 d5 3e 82 01 4d 3e
       -1.1447676 0.185799 0.41675764 0.20020106
000150 b3 56 56 3e 9f b1 4e 3d 6d 15 d7 bd 0b 5f f5 be
       0.2093151 0.05046236 -0.105021335 -0.47924075
000160 49 8b 92 3e 5d a5 85 be 15 d6 bf be 49 bb 18 3e
       0.2862189 -0.26102725 -0.3746802 0.14915194
000170 44 d2 30 bd ee a2 c5 be 9a bb 1a 3e ec 9c 61 3e
       -0.043169275 -0.38600868 0.15110627 0.22032517
000180 75 91 e2 3e 83 7e 45 bf 6a 28 6a be 01 58 4a 3e
       0.442516 -0.77146167 -0.22866979 0.19760133
000190 9f c1 42 3f 21 5c 9a be 3d cc ca 3b 57 9b 1c 3f
       0.7607669 -0.30148414 0.006188898 0.6117453
0001a0 a2 30 aa bd a6 84 49 be a8 29 49 bd 96 8d fa 3c
       -0.08310057 -0.19679508 -0.049111992 0.030585092
0001b0 67 fb 4a be 84 0c a4 3e 84 ab c7 3d 58 2c bf 3d
       -0.19822465 0.320408 0.09749511 0.0933463
0001c0 9c 41 2d be a4 d7 22 bf b5 d0 ae bd 81 8e 92 3e
       -0.16919559 -0.6361029 -0.085359015 0.28624347
0001d0 43 a1 14 3e 53 98 d2 3e b4 7b f1 3e ca 20 d4 bd
       0.14514641 0.4113184 0.4716469 -0.103578165
0001e0 29 78 86 3e 98 b7 81 3e a4 6b a4 3d fe 3b fb bd
       0.2626355 0.25335383 0.08028343 -0.12267302
0001f0 a3 ae 2f be 94 37 09 3e ef cb a4 3d f9 ec 11 3c
       -0.17156462 0.13400108 0.0804671 0.008906596
000200 34 ff f1 bc 77 9b c7 be f2 60 1e bf 74 6d f2 bc
       -0.029540636 -0.38985798 -0.61866677 -0.029593207
000210 9d c2 c5 3e 4d 1f bd be 53 4d ef 3d 35 6f 19 be
       0.3862504 -0.36937943 0.1168467 -0.14983828
000220 8b ee 4f be bc d9 02 3f c3 ad 98 be 83 68 0a 3f
       -0.2030584 0.51113486 -0.2982007 0.5406572
000230 d5 02 92 3d fe 2a 89 bd a1 1c 2a 3d 88 5a a5 3e
       0.071294464 -0.06697653 0.04153121 0.32295632
000240 e4 4c a5 bd 2b 68 11 3f a6 65 54 3f 6b 39 8b be
       -0.08071306 0.5679957 0.82967603 -0.27192244
000250 96 8e 16 bd 94 58 00 3d ef 43 ef be 98 a9 90 3e
       -0.036757074 0.031334475 -0.46731517 0.2825439
000260 29 e9 9f be 64 5b 2a bd 33 1b 27 be 18 03 83 3c
       -0.31232575 -0.041591063 -0.1631897 0.015992686
000270 36 87 40 be 51 9b ee bc d6 93 2b 3e 40 3a 9a 3e
       -0.18801579 -0.029126795 0.16755614 0.30122566
000280 66 61 1c be b5 75 55 bd d8 51 c6 3e 24 54 30 bd
       -0.1527153 -0.052114207 0.38734317 -0.043048993
000290 57 3b cb be e4 cf a8 bd 4a fe 30 bb 1b b2 b2 bd
       -0.3969371 -0.08242777 -0.0027007037 -0.08725377
0002a0 72 45 72 3e 3e 95 a4 3d 77 8a 55 3f 9f 76 c1 be
       0.23659304 0.08036278 0.83414406 -0.37785813
0002b0 13 69 22 bf 4c c0 1c be 81 41 41 bd 45 25 6e 3e
       -0.6344158 -0.1530773 -0.04718161 0.23256405
0002c0 8a 64 e7 be 30 12 9f bd c2 f1 a5 be a4 1d a6 3d
       -0.45193893 -0.07767141 -0.3241101 0.08111122
0002d0 fe 01 bc 3e f8 aa 60 be ea a2 64 3e 4e f6 29 bf
       0.3672027 -0.2194022 0.22327772 -0.66391456
0002e0 ba 17 f0 be 63 8f 4c bf 64 d4 84 bd 0a 39 a4 3e
       -0.46893102 -0.7990629 -0.06485823 0.32074767
0002f0 d5 68 d1 bd f4 9f 64 be fa d5 f9 bd d4 cc 67 3d
       -0.10225073 -0.22326642 -0.12199016 0.056591824
000300 0e a0 17 bf 88 ab 84 bd 49 a2 c7 be 97 e2 72 bf
       -0.592286 -0.064780295 -0.38991 -0.94877
000310 ad 8d 85 3d 48 fc 83 3e 19 4a 1c 3e 66 b7 e3 be
       0.06521163 0.25778413 0.15262641 -0.4447586
000320 1c 62 40 bd 1a dc 0f be 27 32 88 3e cf 34 8d bb
       -0.046968564 -0.14048806 0.26600763 -0.004309274
000330 02 56 eb 3c 68 3f 77 3f 11 c3 84 be 81 d5 8c 3e
       0.028727535 0.96581125 -0.25930074 0.2750664
000340 e1 80 c0 be 31 34 6d 3e 62 c7 72 bd 56 0f 48 3d
       -0.37598327 0.2316444 -0.059272178 0.04884275
000350 2e ea 77 bc 0c c1 59 bd d3 e0 73 3d 0b 51 85 be
       -0.015131516 -0.05316262 0.05954058 -0.26038393
000360 3b 26 d7 3e 07 6a 43 be 7a 2b 8c 3e 62 25 3a 3e
       0.42021355 -0.19083415 0.2737692 0.18178323
000370 ed b9 67 bb 21 ad 13 bc 83 0d 13 3f 9a a9 3c 3e
       -0.0035358623 -0.009013445 0.5744249 0.18424073
000380 42 61 05 3d 6f 46 2b 3e 21 09 e5 3e 77 5f 83 bd
       0.032563455 0.16726087 0.44733527 -0.06414693
000390 4c 40 3e 3e ee 96 1c be 69 58 0d 3c 2f 25 b4 bd
       0.18579215 -0.1529195 0.008627036 -0.08796155
0003a0 ba 99 fc be 5c e5 fb 3e a7 20 b1 bc da c1 1b 3e
       -0.49336034 0.49198425 -0.021622015 0.15210667
0003b0 36 66 45 bf ae b7 59 be 7c 6e 79 be fc f2 23 3e
       -0.77109087 -0.21261474 -0.24358553 0.1601066
0003c0 eb 18 a1 be 2b a7 b6 be 4c 28 06 3e d0 6f 97 be
       -0.31464323 -0.35674414 0.1310131 -0.29577494
0003d0 db 83 86 3e 90 d4 8e 3e 31 e7 03 3e 9f b2 8f be
       0.26272473 0.27896547 0.12881161 -0.28065965
0003e0 8d da b3 bd 3d 5e 1f 3e 1e 71 26 bb 74 34 99 3e
       -0.0878192 0.15563293 -0.0025397013 0.2992283
0003f0 4c 88 09 bd 3a 0f 14 bf be 0d 87 3e 81 af 05 3f
       -0.03357725 -0.57835734 0.26377672 0.5222092

hidden_layer.weight_hh_l1 f4 [150, 50]
000000 80 cf 27 bf c7 b7 86 3e a1 68 93 3e ce 68 53 be
       -0.65550995 0.26312086 0.28790763 -0.20645449
000010 e1 60 fd 3d 88 21 e6 be a3 4a 9c bc bc b2 c9 3e
       0.12371994 -0.44947457 -0.019078558 0.39394176
000020 9f 10 a5 be d2 b8 bf 3d b5 27 0e 3d 45 c6 8e be
       -0.32239243 0.093614236 0.034705836 -0.27885643
000030 f0 b4 0a bf 86 da 26 be 90 48 16 be 7f b8 fb 3d
       -0.5418234 -0.16294298 -0.14676118 0.12291049
000040 81 f7 36 be 40 61 09 bf b1 98 9a 3e 97 cc ed 3d
       -0.17867853 -0.53664017 0.3019462 0.11611288
000050 94 9c 95 be 89 4a 75 bd e0 c8 c8 be 7d c5 a8 be
       -0.29221022 -0.059885535 -0.39215755 -0.32963172
000060 ce 0d c0 3d eb 02 1a bf 9c 4b 89 3e f0 fd ba bd
       0.09377633 -0.601607 0.26815498 -0.09130466
000070 2c 3a c0 bd 41 78 fa 3e 92 40 39 be 30 a0 e1 bc
       -0.093860954 0.4891987 -0.18091038 -0.027542204
000080 b3 f2 42 3d 3c a5 e8 bc b7 fd 4e 3e 6f 47 c8 3d
       0.047594737 -0.028399102 0.20213972 0.0977925
000090 5e 08 96 be 6c b0 e9 3e 9d 01 a6 bd 48 6c dd 3e
       -0.2930326 0.45642412 -0.081057765 0.43246675
0000a0 a5 ba 79 be 1a 24 6c 3e ab cf de bd a7 4b 8e 3e
       -0.24387605 0.23060647 -0.10879453 0.27792093
0000b0 27 e4 96 be a1 db 38 3c 11 1c ad 3e 6c a2 c1 3d
       -0.2947094 0.011282832 0.33810475 0.09454808
0000c0 34 e0 e3 3e da ed b0 3e cf f6 32 be c9 15 2c be
       0.4450699 0.34556466 -0.17476963 -0.16805185
0000d0 85 cc 9e be bd 02 c9 3d 21 c4 4e be fb ff e9 bd
       -0.3101541 0.098149754 -0.20192005 -0.114257775
0000e0 95 84 fa bc 7d ae 8d 3e d8 a0 9d bc 2f 39 10 be
       -0.030580798 0.27672186 -0.019241735 -0.14084314
0000f0 0e aa 57 be 87 64 1b be 38 a3 11 3e 03 8e 1d 3e
       -0.21060964 -0.15175067 0.1422242 0.15386204
000100 87 4e a7 3e ed ab b9 be 86 bb 03 bf 95 8a 03 3f
       0.326771 -0.3626398 -0.51458013 0.51383334
000110 3e 9b 08 bf 04 b4 38 be ff 3b d7 bd 40 ab 38 3e
       -0.5336188 -0.1803742 -0.1050949 0.18034077
000120 5d 14 35 3e 08 db da 3c f3 c9 fb 3b 4e 35 1b 3f
       0.17683549 0.02671577 0.0076839863 0.6062821
000130 23 83 78 be 92 dd b7 bd e7 e5 ff bc f7 74 e2 3d
       -0.24268775 -0.08977808 -0.031237556 0.110574655
000140 14 b5 10 be 59 87 ac 3d b8 82 ad bd 78 1d 3b 3f
       -0.14131576 0.08424253 -0.08472198 0.7309184
000150 6b 9d 76 bd c8 dc 3b be 3d ee d2 bd e0 71 d8 3c
       -0.06020872 -0.1834594 -0.102993466 0.026421487
000160 fe 4b ee bd 64 3c ce bd 9d 90 0c 3e fb bd 53 bd
       -0.11635588 -0.10070112 0.1372704 -0.05169485
000170 3e cb 36 bc 91 c9 d4 bd 12 95 0d 3b 86 f0 79 3d
       -0.011156855 -0.10390008 0.0021603745 0.061020397
000180 0a 35 77 3e 10 0c 72 be aa 85 07 bd e1 7c f8 be
       0.24141327 -0.23637414 -0.033086456 -0.48532775
000190 58 e5 f1 be 84 f7 9a be fa aa 13 bf cb fa 00 be
       -0.47245288 -0.30266964 -0.57682765 -0.1259567
0001a0 48 d4 19 bd 98 f5 83 bd a3 86 53 bd f1 72 d8 be
       -0.037555963 -0.06443328 -0.05164207 -0.42275193
0001b0 76 5a 66 be 3f be 00 3f dc 68 bc 3d 2a 14 2b bd
       -0.22495446 0.5029029 0.09199688 -0.041767277
0001c0 a2 df 1a 3d 3f 7f 0c bf 84 14 1b be d9 bd c5 3e
       0.03781093 -0.5488166 -0.15144545 0.38621405
0001d0 c2 16 2b 3e db c1 64 3e b0 5e 8e bc 75 92 91 bc
       0.167079 0.22339575 -0.017379135 -0.017770031
0001e0 28 e7 aa 3e d9 62 ea 3e d1 ab ef 3d 81 d1 04 3e
       0.33379483 0.4577854 0.11702693 0.12970544
0001f0 4f 9c e2 bd 09 8d f0 3d 97 c4 a4 3c 58 f5 c2 3e
       -0.1106497 0.1174565 0.020113273 0.38077807
000200 b8 a4 b5 bd 0e d8 fd 3d 47 6f b8 3e 59 64 01 be
       -0.08869308 0.12394725 0.36022398 -0.12635936
000210 49 c5 90 3e a3 0c 04 be 48 2b b6 be 54 29 c5 bd
       0.28275517 -0.12895446 -0.35579896 -0.09627023
000220 50 d2 5a 3c fd 62 ad bd 15 99 6d 3d 7d 5e 26 bd
       0.0133558065 -0.08466146 0.05800732 -0.040617455
000230 59 5a ed bd 67 83 3c 3e a6 23 8e be 45 49 2d bd
       -0.11589498 0.18409501 -0.27761573 -0.042306203
000240 89 22 22 be ee f8 5c 3d 08 34 a4 bc 74 4c d7 bd
       -0.15833487 0.053948335 -0.020044342 -0.10512629
000250 1b 5f fe bd 50 50 80 bc 6e 27 9a be c9 0e e0 3d
       -0.12420484 -0.015663296 -0.30108207 0.1094032
000260 96 53 34 be a7 ee b8 bb 57 7a 5c 3c e0 4f 85 3d
       -0.1761001 -0.005643684 0.0134569025 0.065093756
000270 e3 69 62 bd 0f 0b 0b 3e 46 f6 de bd 6c 60 67 3e
       -0.055276763 0.13578437 -0.10886817 0.22595376
000280 a9 06 c0 bd ef 93 b9 3e 08 0d 8b bc 89 09 08 3e
       -0.0937627 0.36245677 -0.016973987 0.13284887
000290 41 1e ab 3d d3 19 c9 3d 4f 62 b3 be 04 25 06 3f
       0.0835538 0.09819379 -0.3503594 0.5240023
0002a0 bb 54 39 bd c7 51 ff 3e 99 89 a7 3d f0 8a 0f 3e
       -0.04524682 0.4986708 0.081805415 0.14017844
0002b0 7e a7 c6 bd cd d8 05 be c6 b7 8d be 55 70 c3 3e
       -0.09699915 -0.13070984 -0.2767927 0.3817164
0002c0 91 5c 00 3f 32 9c 37 3d fd 92 df 3d 39 73 71 bd
       0.50141245 0.044826694 0.10916708 -0.058947776
0002d0 e3 56 09 bf f6 b7 52 bd e1 21 79 3e 26 5f 32 3e
       -0.53648204 -0.05144497 0.2432933 0.17419109
0002e0 88 f4 d2 bd 6a 77 f3 3c 10 94 43 3e 7d f1 5c be
       -0.10300547 0.029720027 0.1909945 -0.21576495
0002f0 44 3d bd 3e 97 63 35 be 6f 03 bd 3d 9c c2 a4 be
       0.36960804 -0.17713772 0.092291705 -0.32179725
000300 eb 52 4d 3e 55 3c 3d be 92 1b 23 bd 9b 58 f5 bd
       0.20051162 -0.18480046 -0.039821215 -0.11979791
000310 0a 18 ed 3d e7 84 98 be 1d 22 88 3d 50 0b 02 3e
       0.11576851 -0.29788896 0.066471316 0.12699628
000320 ab 39 94 3d aa 65 f7 be bb 86 d9 3d 3d 7f 4b 3d
       0.07237562 -0.4831975 0.10621401 0.04968189
000330 40 3a 9c be a0 08 81 bd 76 fe 1c 3f 47 05 ef 3e
       -0.3051319 -0.06300473 0.61325777 0.46683714
000340 60 4a 93 3e 5f f6 9b 3c 87 6a 90 be 00 8e 0b 3f
       0.2876768 0.019038377 -0.28206274 0.5451355
000350 08 50 c6 be 79 24 9a be b6 bb 9f bd cd dc 72 be
       -0.38732934 -0.3010595 -0.07799475 -0.23717041
000360 19 8b 11 bd a9 49 d7 3d 37 e1 bc 3d ca 1a 43 bc
       -0.035533044 0.105120964 0.09222644 -0.0119082425
000370 8a 73 10 bd 96 31 d7 3e b5 c4 04 bf b6 6e 2c 3c
       -0.035266437 0.4203002 -0.5186265 0.010524442
000380 1f 8d 6b 3c 50 87 d7 3d 68 bf 09 bd 30 34 a4 bd
       0.014376908 0.10523856 -0.033629805 -0.080177665
000390 55 ac 27 3e 5f 74 8a bd 73 64 ae 3e d0 29 98 3e
       0.16374333 -0.06760477 0.34061012 0.297194
0003a0 1f be 96 be 81 96 fc bc 2e 87 a6 be e7 db eb bd
       -0.29441926 -0.030833485 -0.3252501 -0.115165524
0003b0 67 3b 44 3c 3f 97 fd bd 62 74 d0 be 52 1b 4b ba
       0.011977053 -0.123823635 -0.40713793 -0.00077479065
0003c0 20 4f 63 3e 0b eb e6 3c 25 74 a1 be c4 be e8 3e
       0.22198153 0.02818825 -0.31533924 0.45458043
0003d0 10 78 a4 3e 88 ab a3 bd 6d 17 81 3d 2d 08 c7 3e
       0.3212285 -0.07991701 0.06303296 0.38873425
0003e0 67 c9 b9 bd 9a 1a d2 bd d5 01 91 be 95 01 0c 3e
       -0.090716176 -0.1025898 -0.2832171 0.13672478
0003f0 c2 07 83 bc d6 23 09 be 6a 95 c0 bb 01 45 f0 3e
       -0.01599491 -0.13392577 -0.0058771865 0.46927646

hidden_layer.bias_ih_l1 f4 [150]
000000 4f d3 0f bf 5f 50 2b be 8a 14 a0 3d 65 a5 3b be
       -0.56181806 -0.16729878 0.078164175 -0.18324812
000010 22 d9 37 3e 48 78 73 3e 15 df b8 3e 3d 78 93 3d
       0.17953923 0.23776352 0.36107698 0.07200668
000020 4f 3d 2f be 25 6e 6a be a6 9d aa bd 55 50 6d be
       -0.17113231 -0.2289358 -0.0833085 -0.23175175
000030 15 9a 28 3e 1b 70 ba be 24 02 9a be 28 d5 de 3d
       0.16465028 -0.36413655 -0.30079758 0.108805
000040 67 57 8c 3e 6e fc b4 be 60 04 11 bf 86 d4 ba be
       0.27410433 -0.3534884 -0.566473 -0.36490268
000050 67 d3 8b be 23 c2 f8 be f6 de d8 be a6 36 f1 be
       -0.27309725 -0.48585615 -0.42357606 -0.47112006
000060 45 21 7c be 7d d1 55 be c4 89 58 3e 4e 5b ff be
       -0.24622066 -0.20880695 0.21146303 -0.49874347
000070 b0 e5 83 3e fc 1b 3b be 20 f1 82 be 46 f6 3a bf
       0.25761175 -0.18272394 -0.2557459 -0.73032033
000080 aa 26 2b 3d 3d 1a 27 bf 4f 45 4c be 50 15 f3 ba
       0.04178492 -0.6527441 -0.19948314 -0.001854578
000090 45 37 41 3e 5b 2e e5 bd e4 cb 74 3b e8 26 29 be
       0.1886874 -0.11190482 0.0037352974 -0.16518748
0000a0 f9 05 f0 bd ea 40 33 bd 40 d9 bb be 80 dd 62 3e
       -0.11719889 -0.04376308 -0.36689186 0.22154808
0000b0 a0 55 86 bc b2 cf 42 be 91 ab 35 be 72 f1 f4 be
       -0.016398251 -0.19024542 -0.17741229 -0.47840458
0000c0 f0 a6 1e 3e 7d 9d c5 be c4 cb 00 3f 47 3f c1 3c
       0.15493369 -0.38596717 0.5031092 0.023589743
0000d0 26 34 cb 3e 5a 09 0b 3f 17 09 26 be 46 dd db 3e
       0.39688224 0.54311144 -0.16214405 0.42942256
0000e0 04 23 b9 3e 9f c0 42 3f 8a a1 93 3d d1 33 52 3f
       0.36159527 0.76075166 0.072085455 0.82110316
0000f0 64 ca 32 be 4c e8 9d 3e 51 c7 97 bd bf 8c 0b 3f
       -0.17460018 0.3084129 -0.074110635 0.54511636
000100 83 f9 0a 3d 75 86 9e 3e 7e 2b 98 3e 2c 41 28 be
       0.03392936 0.30961958 0.29720682 -0.16431111
000110 f4 fc d6 3e a9 be 8b 3c 69 5d ac bd b7 25 ff 3e
       0.41989863 0.017058687 -0.08416254 0.49833462
000120 9d 02 62 3e 5f 9c 53 3f 98 c7 c9 3e be 8a e9 be
       0.2207131 0.8266048 0.3941009 -0.45613664
000130 67 ba 57 bc 85 85 0d 3f 7b 35 c1 3e fd 52 48 3e
       -0.013167 0.5528186 0.37736115 0.19562908
000140 c7 c3 63 bd 61 5f 4c 3e 04 e6 c9 3e 78 b2 bf bd
       -0.05560663 0.19958259 0.394333 -0.09360212
000150 38 3a a4 3e a4 ef 51 3d dc b1 43 3e 5c 28 33 be
       0.32075667 0.05125393 0.19110817 -0.17495865
000160 ef 9b bd 3d cb 62 90 3e 6c bb 3f be b2 12 a4 3e
       0.092582576 0.28200373 -0.1872384 0.32045513
000170 da 11 70 be 7c 54 ef 3e e8 d9 9d bd ee 5f e9 3e
       -0.2344431 0.46744144 -0.07707578 0.45581
000180 d5 a6 b3 3e 24 5a 06 3f 63 d0 1a 3e 50 d8 32 be
       0.3508822 0.52481294 0.15118556 -0.17465329
000190 9e da 1f be af b4 cd 3e 99 b1 2d be 08 8b 9f 3d
       -0.1561074 0.40176913 -0.1696228 0.0779019
0001a0 67 4f d7 be 48 3a cf 3e 07 3f 0d be b5 0c ce be
       -0.42052767 0.40474153 -0.13793574 -0.4024407
0001b0 e3 1e 8f bd f7 76 3b be 61 9a ea 3d b9 39 81 3e
       -0.06988313 -0.183071 0.11455227 0.2523935
0001c0 ab c4 1b be 03 d0 90 3e 1c ee 24 be ca e4 8b be
       -0.15211742 0.282837 -0.16106457 -0.2732299
0001d0 84 7d 16 3e 51 45 48 be e3 a0 a7 bd e0 62 9a 3d
       0.14696318 -0.19557692 -0.081849836 0.0753839
0001e0 35 9a de bd f7 b1 e3 bd 54 ad 94 3e 7e 15 c1 3e
       -0.108692564 -0.111179285 0.2903849 0.3771171
0001f0 a6 39 64 bd 83 37 12 bf e6 d8 8f 3e ee 95 04 be
       -0.05571904 -0.57115954 0.28095168 -0.12947819
000200 11 f3 e6 bd f5 af cf be 40 9f 15 3e d6 bd db bd
       -0.1127683 -0.40563932 0.1461153 -0.10729568
000210 3c d2 01 be 5d 29 c8 bd c6 9c 2b 3e a0 4a cd 3d
       -0.12677854 -0.097735144 0.16759023 0.10023999
000220 58 ba 55 3f 50 63 64 bd 17 50 a3 bb 63 a6 9d bc
       0.83487463 -0.055758774 -0.0049839127 -0.019244378
000230 5a 71 cb 3e 68 61 5b be d6 c6 de 3d 6f 96 c7 be
       0.39734918 -0.21423876 0.10877769 -0.3898196
000240 b2 66 b5 3e ed ba 68 be c4 5e 8b be e0 62 a7 3c
       0.35429913 -0.22727557 -0.27220738 0.02043289
000250 31 60 94 bf b6 55 f1 be
       -1.1591855 -0.47135705
